python/networks/testNE3_multi_point.pth (torch, 187200 bytes, 5 tensors)

layers.0.weight f4 [256, 48]
00000000: 451c c43e 7ed0 6b3e d898 0bbe 57e0 463d
00000010: 989c a13e 63a8 b0bd 363c 323e 700f 063e
00000020: 9e90 ddbd c3e8 9ebd 22a5 70be f1bf 3c3e
00000030: e61f 0abf f67a 88bd f2e7 81bd 1af2 b03d
00000040: 90d5 5d3e c212 c2bd 9750 c53e afca 943e
00000050: 8817 41bd 78df 003c 114a 27be f39e 88bd
00000060: 7c9c e63e ee37 b13e 2d25 06be 1be4 8cbd
00000070: a8fc ac3e 145e 39be f0fb 38bf 36e5 87be
00000080: bc84 f2bc 9c31 00be f8cf f73d f537 1d3f
00000090: 0444 59bf 268d d53f 40e2 10c0 beea 39bf
000000a0: 9e47 afbc a76c a1be da32 d0be 6baa 2e3e
000000b0: e8d0 a540 1f61 cec0 6aef 48bf 6b5f df40
000000c0: 2ebe 5dbd 9078 30be e418 7e3c c4cb ab3e
000000d0: b253 1d3d 948a 56be ddef d7be da8a febd
000000e0: 276b 83be d6c4 7dbe 8d1e 89bd 8995 4dbd
000000f0: a120 dd3e 83c1 953d de32 25bd 4a99 6ebe
00000100: 90b5 693e ade8 603e aeb9 ecbc a486 ce3d
00000110: 97cf 1ebe 7f77 033f ae43 acbc 14e4 56be
00000120: 2fc0 bbbe 7293 13bd d229 81be 72ee bcbe
00000130: 9d95 d6bd b392 ecbd 3b07 e23e ffdc 6c3e
00000140: aafb 963d 33d1 3dbd 5019 2ebe f11f e13c
00000150: 0300 48c0 cbda 7dc0 519f 4240 8896 4ec0
00000160: 40f3 5440 12f6 c2be 3a62 8440 f37e 1440
00000170: 0b55 6ac0 3ba7 3ebe 1dbc fbbf 7832 d140
00000180: 58fc 3bbe 064b 213e 9ce6 433e 9827 013e
00000190: 2697 253e b100 533b 96be a93d e872 2d3e
000001a0: 01d4 3d3e 52ce 353e 4180 42be 4058 393e
000001b0: c18b 82bb 86f3 713c ee3f c6bd e334 35be
000001c0: 5bad 54be 2bac 91be 1ac0 e1bd 21f8 82be
000001d0: bfaa 80bc 6ec8 523e c71b b33c 1c13 2d3e
000001e0: 00f3 c13d ad8a 233e 7587 0ebd 5807 df3c
000001f0: 408f d0bd 49bb f93d bd3d 453d 9fc6 683d
00000200: 584a 853e df0f 9abe 16d2 a0bd b992 bd3c
00000210: 4fdc 3a3f 6c3b 4b3f 1db4 f1bc d48f 5ebf
00000220: f03e cf3e 4f62 75bf a827 33bf 4dcc 23be
00000230: bcb2 0bbf 75b1 86be b79f 9cbf f498 993e
00000240: 56d0 d83e e1ec c3be 6267 a9be 9a56 283d
00000250: 67b2 17bf 5f6a 9abf a158 5d3d 5757 58bf
00000260: 5b80 82bf 9d55 323f 0a4e d6be d380 d53d
00000270: e456 0bbf db94 8d3d 30f7 573e 4836 64bf
00000280: 03c9 883d cc3a fa3e 1081 a93e b27f 8c3e
00000290: 5f95 043e 2b5a 313e 1af0 eabd 7223 8fbe
000002a0: 8403 d03d d1cd 853d fefc 63be 991e 3a3f
000002b0: 1f8a 3f3c 6acd 133e 8eff 32bf a6ba 833e
000002c0: aef6 443f 04cd 6bbf 2bcd eb3d fdaa 53be
000002d0: 1e2c adbf 99ef 3fc0 f157 fabf 079b 183f
000002e0: fb77 7f40 84a6 f7be 20e9 883f c2bf 8ebf
000002f0: 0582 9cbe 4a99 aa3f 5fbc 0a40 04aa 3940
00000300: 2a99 70bc 6132 93be 4cc1 193d 8a21 9cbe
00000310: 6545 423b 0819 3e3e 9714 9fbe 8965 013e
00000320: 044a 013d 0d53 8d3c b83e 71be 962b 3b3c
00000330: b86d b53d a09f bd3d 8987 c1bc fa12 ac3e
00000340: 9205 4dbe 4a2f 7abe 5d4d dd3d 5324 723d
00000350: 7852 e6bd aa27 fabe b8d7 5d3e d608 143e
00000360: 2ce5 04bd 9418 86bc 52e3 883a f393 ff3d
00000370: 2cb7 8c3c b77d aebd a764 4d3e 140f 4abc
00000380: df67 883d 7435 cc3e 6ae2 5d3e b4c0 37be
00000390: ce8c 91bf 2100 3840 ce17 8a3e 9163 93bf
000003a0: de84 933f d770 1841 d273 863f a53a 1bc1
000003b0: cfbd 6fbf 297e 843e 034c 74bf f9e1 00c0
000003c0: b7d1 b5be f754 b4bc dbf9 693e 4a35 91be
000003d0: 85fd 1c3c 9bbd e03d 84f8 b8bc e88e cf3d
000003e0: 5785 77be c0f4 413e 1517 733e 37d7 54be
000003f0: b2f3 763e 9ce0 2ebd a2fb 6a3d 2011 873e
0.38302818 0.23028752 -0.13632524 0.04855379 0.31564784 -0.08625867 0.17405781 0.13091826
-0.10818599 -0.077592395 -0.23500493 0.18432595 -0.53954923 -0.06664078 -0.06343068 0.08639927
0.21663499 -0.09476234 0.38538048 0.29060885 -0.04714158 0.007865779 -0.16336848 -0.06670942
0.45041263 0.34612983 -0.13100119 -0.06879445 0.3378651 -0.18102294 -0.72259426 -0.26542062
-0.029604308 -0.12518924 0.12100214 0.6141351 -0.8486941 1.66837 -2.2638092 -0.72623813
-0.021396454 -0.31528208 -0.40663797 0.17057197 5.1817513 -6.4493556 -0.78490317 6.9803977
-0.054136448 -0.17233491 0.015508864 0.33553898 0.038409896 -0.20951301 -0.4217519 -0.124288276
-0.25667688 -0.24782118 -0.0669528 -0.050191436 0.43188956 0.073123 -0.040331714 -0.23300663
0.22823167 0.21963759 -0.028897133 0.100842744 -0.15508877 0.5135421 -0.021028366 -0.20985442
-0.36670062 -0.036029287 -0.2522722 -0.3690067 -0.10477755 -0.11551418 0.4414614 0.23131178
0.0737222 -0.046342086 -0.17001843 0.027481051 -3.1250007 -3.966479 3.040974 -3.2279377
3.3273468 -0.38078362 4.1369905 2.3202484 -3.6614406 -0.18618481 -1.9666783 6.5374107
-0.1835798 0.15751275 0.19130939 0.1261276 0.1617094 0.0032196457 0.082883045 0.16938365
0.18537904 0.17754486 -0.18994237 0.18100071 -0.003983945 0.014767533 -0.09680162 -0.17695956
-0.20769255 -0.28451666 -0.110229686 -0.25579932 -0.015706418 0.2058427 0.021863831 0.16901821
0.09470177 0.1597087 -0.03479715 0.027225181 -0.10183573 0.12193925 0.04815458 0.056830045
0.26033282 -0.30090234 -0.07852571 0.023141252 0.72992414 0.79387546 -0.02950483 -0.86938214
0.40477705 -0.9585313 -0.69982386 -0.15995903 -0.545696 -0.26307264 -1.2236241 0.29999506
0.42346448 -0.38266662 -0.33086687 0.041098215 -0.59256595 -1.2063712 0.0540396 -0.8450827
-1.0195421 0.69661885 -0.41856414 0.10424962 -0.5442946 0.069131576 0.21090388 -0.89145327
0.06678965 0.48872983 0.3310628 0.27441174 0.12947606 0.17319553 -0.11471577 -0.2795673
0.101569206 0.06533397 -0.22264478 0.7270294 0.0116906455 0.14433828 -0.69921196 0.2572834
0.76938903 -0.92109704 0.11513742 -0.20670696 -1.3529088 -2.9989989 -1.9558088 0.5961155
3.991698 -0.4836923 1.0696144 -1.115227 -0.30567947 1.332803 2.1677473 2.901002
-0.014684955 -0.28749374 0.037537858 -0.30494338 0.0029643413 0.18564236 -0.31070396 0.12636389
0.031564727 0.017251516 -0.23559082 0.011423966 0.08858818 0.09258962 -0.023624199 0.33608228
-0.20021656 -0.24432102 0.108057715 0.059116673 -0.112461984 -0.48858386 0.21664321 0.14456496
-0.032445118 -0.016369142 0.0010443723 0.12479391 0.017177187 -0.08520072 0.20057927 -0.0123326965
0.06660437 0.39884531 0.21668401 -0.17944604 -1.1371095 2.8750079 0.26971287 -1.151476
1.1524923 9.527549 1.0504096 -9.7018175 -0.93649 0.25877503 -0.95428485 -2.0137923
-0.35511562 -0.02201317 0.22849219 -0.2836097 0.009581928 0.109736644 -0.022579439 0.10134679
-0.24171959 0.18941021 0.23739274 -0.20785223 0.241164 -0.042694673 0.057368882 0.26380253

layers.0.bias f4 [256]
00000000: 8ea1 1abf 4abb 98bf c999 7cc0 5946 c1bf
00000010: 29c8 f3be 88d2 20bf 9acf 65c0 70cd 0ec0
00000020: f0f0 33c0 e17e 39c0 ae21 32c0 a05f 68c0
00000030: 2a36 34c0 2ae8 7ec0 d7c8 6fbf c020 12c0
00000040: 3244 aebf 24e0 6ac0 d7fa 20bf 270c e2be
00000050: 20c3 6bc0 ffa4 22c0 d22c 2ac0 c788 06bf
00000060: f387 7fbf c581 2bc0 29a4 3cc0 f5e7 52c0
00000070: 0858 3bc0 6524 7dc0 a845 36c0 6c2a 18bf
00000080: 35d2 51bf 0e6f ecbe f038 4ec0 3006 20bf
00000090: 0c2c bbbf 721f 77c0 3521 53c0 2957 14c0
000000a0: e709 a7bf 8b08 d3bf 3e52 3fc0 fb85 28c0
000000b0: c51f 09c0 01db 36c0 8b46 85c0 aef0 21c0
000000c0: 916f 68c0 d57c 57c0 ca15 c2bf 2d5b 84c0
000000d0: dc81 87bf 84b6 2ac0 b0d5 e8be 6248 ddbf
000000e0: f0a1 87c0 de30 6ec0 5ab6 78c0 eff5 83bf
000000f0: 8e53 2dbf 5482 7cbf fc53 34c0 bf86 e8bf
00000100: 4df1 29c0 9a15 cbbf e5c9 04c0 3593 78c0
00000110: 0f1f f1bf 26fd 86bf 6697 73bf 5b74 1cc0
00000120: 3b76 e2bf 217c 4dc0 f1fa f7bf a937 4ac0
00000130: a859 6ec0 cba8 27c0 a338 19bf cd1c 2ac0
00000140: cedc 7bc0 a678 53bf b5ce 4ebf 4b7f 22c0
00000150: f0a6 74bf 7ba7 3ec0 f91f 88c0 7cea 7ebf
00000160: a086 29c0 7681 8ac0 34d8 5bc0 14e2 19bf
00000170: 2bdc 2bc0 96f9 8ac0 b5a7 72c0 1a5a 38bf
00000180: 3d40 46bf 4070 edbe b10b 4fbf 24b5 25c0
00000190: 6fb4 6dc0 a1cc 0bbf d074 83c0 8696 b3be
000001a0: a656 51c0 bf14 34c0 eedd 4bbf 4f12 f6bf
000001b0: cfa6 81c0 6da0 c9bf 25f9 27c0 ed7b 6cc0
000001c0: d16f 22c0 65fa 56bf 36db 16c0 c8bb 43c0
000001d0: ca24 66c0 0bb6 44c0 8dc4 53c0 1411 e5bf
000001e0: 1930 4dc0 6a35 4ac0 528c 3ec0 af3a 30bf
000001f0: 4542 35bf 1fb2 cdbf 3e55 1ec0 b314 64bf
00000200: bc41 62c0 8fe0 65c0 1cce 87c0 e760 42c0
00000210: 6568 3ec0 f1b9 7ec0 fdc0 43bf b8f4 19bf
00000220: 72e8 88c0 fb29 e7bf 79e0 92bf aa9b adbf
00000230: 4c81 80bf 9f05 21bf d8f8 7fc0 6dbd 23c0
00000240: 63eb 72c0 268f 61c0 6f2e f0bf b260 3ac0
00000250: 95a7 43bf 18bb 16bf 7898 ddbf 6ded 3bbf
00000260: c488 95bf 3fc7 75c0 2b04 50bf 957e 5ec0
00000270: 534c 39bf 5dd5 55c0 43ad 06c0 6185 06bf
00000280: 5ea5 57c0 e4c8 41c0 ec97 1bbf 9b8e 4ac0
00000290: d698 edbe e8e2 66c0 4dcb 6dc0 70a6 67c0
000002a0: f1c6 eabf 6c5f 26bf afd1 0cbe 8ee9 57c0
000002b0: 422e 59c0 6c72 69c0 1b80 6a3f 7f90 e9bf
000002c0: 60d9 7cc0 48a8 20c0 6ccb 47c0 ed57 e3bf
000002d0: e4b0 0bc0 a2d5 2bbf 42cd 7ac0 fd7e d4bf
000002e0: f09f 89c0 a6d3 51c0 8645 18c0 d269 55c0
000002f0: 2d03 afbe adde 5ec0 17b5 fcbe c28c 71c0
00000300: 1887 21c0 9686 1cc0 91b8 41c0 0e59 fdbe
00000310: ff23 2ac0 811d 84c0 8aca 80c0 b3bc 7bbf
00000320: a7f4 c2bf 1cf3 f5bf bd3b d3bf 2153 25c0
00000330: cee4 06c0 89a2 4bc0 ab24 4ac0 c538 a5be
00000340: 3555 1cc0 37fe 3ec0 40da 41bf 55be 05c0
00000350: 66b4 6ac0 debe 26bf b220 6fc0 f372 3ec0
00000360: 2cd4 5bc0 6924 56c0 5912 6dc0 aa87 60c0
00000370: 12b4 42bf 509a 6fc0 a072 78c0 6125 e0be
00000380: 1f12 6ac0 38f8 9dbf d4b3 17c0 be00 29c0
00000390: 7a96 54c0 9699 55c0 fa93 d9be 886d c7bf
000003a0: f28c 23c0 868e 88c0 b0a0 3ec0 c37c 63c0
000003b0: 5c21 23bf 004a 50bf 836d 11c0 2b0e 4abf
000003c0: 57e9 c7be 75dd 53c0 b1a4 66bf 1569 94bf
000003d0: 254d 7dbf c822 2ac0 6322 1cbf a12d 29c0
000003e0: abdb 09bf e0bb 1bc0 f9bb cabe 2cf6 9abf
000003f0: 0466 56c0 04ec 1ec0 4476 51c0 de92 50bf
-0.6040276 -1.1932156 -3.9468863 -1.5099593 -0.47613648 -0.62821245 -3.590796 -2.231289
-2.8115807 -2.898369 -2.7833056 -3.6308365 -2.815806 -3.9829202 -0.9366583 -2.283249
-1.3614562 -3.6699305 -0.6288275 -0.44149897 -3.6837845 -2.5413206 -2.6589856 -0.52552456
-0.9981682 -2.6797955 -2.9475195 -3.2954075 -2.927248 -3.9553463 -2.8480015 -0.5943973
-0.81961375 -0.46178478 -3.2222252 -0.6250944 -1.4622817 -3.8612943 -3.2989018 -2.3178198
-1.3049897 -1.6486982 -2.9893947 -2.6331775 -2.142564 -2.857117 -4.164861 -2.530315
-3.6318095 -3.3669941 -1.51629 -4.13613 -1.0586505 -2.6673899 -0.4547553 -1.7287714
-4.2385178 -3.7217326 -3.8861299 -1.0309428 -0.6770562 -0.98636365 -2.817626 -1.8166121
-2.6553528 -1.5865967 -2.0748227 -3.8839848 -1.8837603 -1.0546005 -0.9515289 -2.4446018
-1.7692331 -3.2107012 -1.9373456 -3.1596472 -3.7242222 -2.6196773 -0.59852046 -2.6580079
-3.9353518 -0.8260597 -0.8078416 -2.5390193 -0.95567226 -2.9789722 -4.253903 -0.99576545
-2.6488419 -4.3283033 -3.435071 -0.6011059 -2.685313 -4.342967 -3.791486 -0.72012484
-0.7744177 -0.46374702 -0.80877215 -2.589181 -3.7141378 -0.54609114 -4.1080093 -0.35075778
-3.2709136 -2.8137662 -0.7963551 -1.9224337 -4.0516124 -1.5752083 -2.6245816 -3.6950638
-2.5380747 -0.8397582 -2.3571296 -3.0583363 -3.5959954 -3.073611 -3.3088715 -1.7895837
-3.2060606 -3.1595101 -2.9773145 -0.68839544 -0.70804244 -1.6069983 -2.4739528 -0.89094085
-3.535262 -3.591831 -4.24391 -3.0371644 -2.9751217 -3.980099 -0.7646635 -0.60139036
-4.2783747 -1.8059686 -1.1474754 -1.356313 -1.0039458 -0.628992 -3.9995632 -2.5584366
-3.7956169 -3.524362 -1.876417 -2.9121518 -0.76427585 -0.5887923 -1.7312155 -0.7340916
-1.1682363 -3.840286 -0.8125636 -3.476476 -0.72382087 -3.3411477 -2.104325 -0.5254727
-3.3694682 -3.0278864 -0.6077869 -3.164954 -0.46405667 -3.6075993 -3.7155335 -3.6195335
-1.8341962 -0.6498935 -0.13751863 -3.37363 -3.3934484 -3.6476088 0.91601723 -1.8247222
-3.9507675 -2.510271 -3.121791 -1.7761208 -2.1826715 -0.6712285 -3.918778 -1.6601254
-4.3007736 -3.278543 -2.3792434 -3.3345838 -0.3418211 -3.482341 -0.4935691 -3.7742162
-2.5238705 -2.4457145 -3.02689 -0.49482006 -2.658447 -4.1286016 -4.024724 -0.9833481
-1.5230912 -1.9214816 -1.6502606 -2.5831988 -2.1077151 -3.1817954 -3.158488 -0.32269874
-2.4427006 -2.984266 -0.7572365 -2.089742 -3.6672606 -0.6513499 -3.7363706 -2.975766
-3.434825 -3.3459723 -3.7042449 -3.5082803 -0.76056015 -3.7437935 -3.8819962 -0.43778518
-3.657356 -1.2341375 -2.3703508 -2.6406703 -3.3216844 -3.3374991 -0.4249571 -1.5580301
-2.5554776 -4.267398 -2.9785576 -3.5544899 -0.6372278 -0.81362915 -2.272309 -0.7892787
-0.39045212 -3.3103917 -0.9009505 -1.1594568 -0.9894584 -2.6583729 -0.6098997 -2.64341
-0.5385081 -2.433342 -0.39596537 -1.2106376 -3.3499765 -2.4831553 -3.2728434 -0.814741

layers.1.weight f4 [128, 256]
00000000: 0804 9abf b484 74bf 667d af3e 0558 80be
00000010: 13e7 0cbf 5d82 4cbf 7474 0bbe 9d70 f0bd
00000020: 2e19 373e 0d36 6c3f c4f9 95be 9f8b 263f
00000030: 5fa4 3f3e 018e 143f b58c 5dbf ac82 6d3e
00000040: 144b a9be ac65 313f e846 56be 0764 f43c
00000050: 2885 253f db1b 963d a133 febe 42fe 1dbe
00000060: 7e3f 66bf bc8e 98be c846 30bf 9b9b 38bd
00000070: 1f70 86bc ad7b 463f c101 4abe dffe 4abf
00000080: 9fe6 d4be a546 0fbe d082 2f3e c0f5 b6bd
00000090: ef8b 9fbe 6160 733e 978b 3a3f 76cc b13f
000000a0: f45c 1dbf f0b3 243f 9675 bcbe d395 7a3f
000000b0: 91fd 173e 929b 003f 1405 283f 07d4 5fbe
000000c0: 56e4 0f3f 4cc2 debb 22c2 bebe c42d 313e
000000d0: 0373 153f 2184 88bc 81e6 aebd 303a 873d
000000e0: 5268 3b3f 6eb8 493f 91d7 2b3f 39fa 2e3d
000000f0: a7c6 8dbf 6feb 71bf 3e8a e6be b3c6 29bd
00000100: 1b4e 56bf a3d9 fbbe 01a8 923e 3f41 3b3f
00000110: 6157 80bc a562 14bf e618 2c3e 8114 763f
00000120: 68f0 cebe 60c6 153f 3b6f 2fbe 7875 54be
00000130: 53b3 7c3c bee1 1fbf 40d6 43bf 0f40 2f3f
00000140: 401f 633f 2515 85bd 59bd 243e c3c0 bcbe
00000150: b20a e6bc 8063 823e 27ed 723f d3d3 b2be
00000160: 0500 793e 1a36 3e3f 813e 833e f2c2 68bf
00000170: 99f6 2b3d 08b5 4f3f 2366 29be d117 a1be
00000180: 99d2 463e 0ba7 92be b7ef 98be 977b a6be
00000190: 7707 aa3e 94ff 0cbf 4d2e cf3e fe09 42bf
000001a0: 0f2e 0a3f 23fa ca3d 7ad4 58bd bfb3 cb3b
000001b0: 94b7 313e b79b 5abf 4adf 2cbf 9b83 2f3f
000001c0: 8cd3 df3e 2225 07bf 3809 383d 17e3 553f
000001d0: 5699 9fbe 43c2 ac3d 825e b7be 97e7 23bf
000001e0: 491f 1c3f ac3a c63e b92b ba3e c5fd 75be
000001f0: 6de5 8ebf a82d f23d 7a9a 56be 772c eebe
00000200: b071 903e d2f4 58be 8f8b 3a3f 8377 fe3d
00000210: fb3b 233f c10a 60be 054b b63d d7bb b73d
00000220: 5a75 ad3e a75e 48be d8bf 98be df55 35bf
00000230: faff 2ebe 35e2 20bf d797 b43e 0130 bd3d
00000240: 05e9 103f d2c7 5f3f 8115 973d a53b 823e
00000250: a388 43bf 2f09 e2be 65d7 11bf 5f8a abbf
00000260: 5ebe 80bf 8d50 923f 1cab 063d 536e cebe
00000270: 3b0b e63e a398 883f 82e2 383e 048b ba3e
00000280: 41f5 c73b ddb8 cebd 7917 2dbe c094 e53e
00000290: 2947 b1bd aa09 a83f 6664 543f 770a 563f
000002a0: eab6 85be 1b75 96be abf6 babe 9256 463f
000002b0: 7307 6b3e e5b7 e6be 9b8c b4be 4645 2f3f
000002c0: 9402 013f 4667 1d3f 0414 60bf 7f5f 0b3d
000002d0: dd22 8abe ebc9 a0be f512 793f ea56 c2be
000002e0: dd14 113f 45db 14bf 33ab 843f 9304 a33d
000002f0: ff65 44bf a57d d8bd 65cf 24bf 6781 5f3f
00000300: 4557 3fbf 9060 e9bd dc85 b93e c258 4dbd
00000310: 7163 c73d af27 523f 0534 9a3f b23c 413e
00000320: e913 8ebe 901c 50be 0c45 f93e 94c4 51be
00000330: 39ee 3fbe 94fd 633f 2abf ae3e 4464 83bd
00000340: 2696 34bf 6af6 4f3f d6fa f5be cf26 62bf
00000350: 1d00 233f 60f0 4bbf 02ba 643f dbb9 cebd
00000360: cd7a 873d ce3e b83e 5649 d63b c1ae 513f
00000370: be99 97be d51b 083f 7864 283f db86 31bf
00000380: 4208 4b3f ec1b 68bf 272e 153f d278 523f
00000390: a69a ea3e 5c46 243e 8d81 7d3e b2d2 1dbf
000003a0: a402 c8be 41c5 7b3f ede8 003f 4965 053f
000003b0: dc67 51be 6133 7ebf c1cf 133f 8edf 203f
000003c0: cad6 c7be 4f66 8dbe f62c dbbe a8b2 3a3f
000003d0: 069e bebe 1e67 d2be 3149 8cbe 7528 eebe
000003e0: fbaa 94be b796 323c 9973 33be 88c3 dbbd
000003f0: f0d1 e9be 1184 f3bd c51f 363f 014a e7be
-1.203248 -0.9551499 0.3427536 -0.25067154 -0.5504009 -0.7988642 -0.13618642 -0.11740229
0.17880699 0.92269975 -0.2929212 0.65056795 0.18715046 0.5802918 -0.86542827 0.23194379
-0.33065093 0.69295764 -0.20925486 0.029832853 0.64656305 0.07329532 -0.49648765 -0.15429023
-0.8994063 -0.29796398 -0.68858004 -0.045070272 -0.016410885 0.77532464 -0.19727232 -0.7929515
-0.415822 -0.13991793 0.17139745 -0.08933592 -0.31161448 0.23767234 0.7286925 1.3890522
-0.6146996 0.6433706 -0.3680846 0.97884864 0.14842822 0.5023738 0.6563275 -0.21858226
0.5620779 -0.0067980643 -0.37257487 0.17302614 0.5837862 -0.016664566 -0.08540059 0.06602895
0.73206055 0.7879704 0.67125803 0.0427191 -1.1076249 -0.9449987 -0.45027345 -0.04144926
-0.8371293 -0.4918948 0.28643802 0.7314643 -0.015666666 -0.5796302 0.16806373 0.96125036
-0.4041779 0.5850582 -0.17132275 -0.20747936 0.015423614 -0.6245383 -0.76498795 0.6845712
0.8871956 -0.064981736 0.16087855 -0.36865816 -0.028081272 0.25466537 0.94893116 -0.34927234
0.24316414 0.743013 0.25633624 -0.9092246 0.04198322 0.81135607 -0.16542868 -0.31463483
0.19416274 -0.2864307 -0.29870388 -0.32516167 0.3320882 -0.5507748 0.40465012 -0.75796497
0.5397653 0.09910991 -0.05293701 0.0062164958 0.17355186 -0.8539385 -0.6752821 0.6856019
0.43716085 -0.52791035 0.044930667 0.83549637 -0.31171674 0.0843549 -0.3581429 -0.64025253
0.6098524 0.38716638 0.36361483 -0.24022587 -1.1163765 0.118251145 -0.20957366 -0.465183
0.28211737 -0.21187142 0.728692 0.12425139 0.637634 -0.21879102 0.089010276 0.089713745
0.33878595 -0.19567357 -0.29833865 -0.70834154 -0.17089835 -0.62845165 0.35272095 0.09237672
0.5660556 0.87414277 0.073771484 0.2543613 -0.76380366 -0.44147632 -0.5696929 -1.3401603
-1.0058095 1.1430832 0.032878026 -0.40318546 0.44930443 1.0671581 0.18055156 0.36434186
0.0061022346 -0.100938536 -0.16903485 0.4484005 -0.08656151 1.3127949 0.82965696 0.8360972
-0.26116115 -0.2938622 -0.36516318 0.77475846 0.2295206 -0.45062175 -0.35263523 0.6846508
0.5039456 0.6148571 -0.8753054 0.03402662 -0.26979724 -0.3140405 0.9729455 -0.37956935
0.5667246 -0.5814708 1.0364746 0.07959857 -0.76718134 -0.1057084 -0.6437896 0.8730683
-0.7474254 -0.11395371 0.3623494 -0.050133474 0.09735764 0.820918 1.2047125 0.1887081
-0.27749565 -0.20323396 0.4868549 -0.20485145 -0.18743218 0.89058805 0.34130222 -0.064156085
-0.7054161 0.81235373 -0.48042935 -0.8834047 0.6367205 -0.7966366 0.89346325 -0.10094043
0.06615219 0.35985416 0.006539504 0.8190728 -0.29609483 0.5316747 0.65778303 -0.693464
0.79309475 -0.90667605 0.5827355 0.8221561 0.45821112 0.16042465 0.24756451 -0.6164962
-0.39064515 0.9834786 0.50355417 0.52107674 -0.20449775 -0.9929715 0.5773888 0.6284112
-0.3903106 -0.27617118 -0.4280774 0.7292886 -0.37229937 -0.41094297 -0.2739959 -0.4651524
-0.29036698 0.010900191 -0.17524566 -0.10730654 -0.45667982 -0.11890424 0.71142226 -0.45173648

layers.1.bias f4 [128]
00000000: 67a2 31bf 699c 84bf a9ad 1fc0 c3b1 6fbf
00000010: 3e6e 21be 66b9 42bf 29d0 4abf de41 cabf
00000020: 407b 21c0 ba2f afbf 7fdc 35bf 577e 47bf
00000030: 1feb 2fbf 4f7e 67bf 152c ddbf fc5f 01c0
00000040: 668a 42bf ad11 86bf b1dc 5bbf 9e8e edbf
00000050: 9c8d 2dc0 0825 cabf b8eb fabf 12c5 45bf
00000060: cc2d 30c0 2594 053f 24ce 1fc0 310c a1bf
00000070: c8e0 90bf 5811 b1bf c237 5bc0 3284 30bf
00000080: bdb8 a2bf d033 3cc0 70ed 17bf ca96 d4bf
00000090: 5b5c e5bf 5493 5cbe 54f2 4ec0 2bfd 28bf
000000a0: dd8b 62bf 42fc 86bf 72d2 bcbf ce2a d3bf
000000b0: e964 07c0 aeb7 3fc0 5bf5 8ebf 6b7d 3abf
000000c0: 3861 71bf da4f 27c0 2166 8cbf 6fbb 6f3d
000000d0: 236f 60bf 64e6 24bf 741d 82bf 8170 d5bf
000000e0: 8ada 65bf 4293 7dbf fef5 acbe 56c9 afbf
000000f0: ef15 2cbf a35f 64bf 95e3 03bf f2ff 0abf
00000100: bc80 a8bf 9430 f3bf b782 2bc0 8e61 15be
00000110: 99fa 8fbf 685c 02bf 9337 fcbf e8df 68bf
00000120: caac 02c0 1fc9 26c0 10a3 57bf bfd6 18bf
00000130: a9ba 64bf c149 09c0 4497 b8bf 081e a4bf
00000140: dd8e c8bf f45c 45bf 693a c2bf 1c1c 9b3e
00000150: 1738 ffbe 4308 96bf deaf 09c0 91a3 3dc0
00000160: 7dec a9bf 2a20 a9bf aee7 7fbf f3ca 1ebf
00000170: 6519 75bf c7d1 84bf f2b3 813c 3dc7 6fbf
00000180: 4dc0 0bbf 58aa a93e 2de0 9ebf de73 acbe
00000190: cab5 6fbf 0e8a 19bf aae1 02c0 5b4d c3bf
000001a0: 24c2 a9bf 1d22 cebf 6c5b 15c0 adad b9bf
000001b0: 5412 10c0 c10b 82bf d47c a8bf e4d5 b9bf
000001c0: 2114 91bf 731d 28c0 57b7 bbbf b181 0cc0
000001d0: 68f8 7bbe 77c5 80bf 369c e8bf ae8c 20c0
000001e0: 56c7 6ebf 4d47 07bf 792a 5bbf 3b7c bbbf
000001f0: 0823 13bf 6910 36bf 7ef0 e9bf 07f9 f43d
-0.6938843 -1.0360233 -2.4949744 -0.9363062 -0.1576471 -0.76064146 -0.7922388 -1.5801351
-2.5231476 -1.368644 -0.71039575 -0.77927154 -0.6871814 -0.90427107 -1.7279078 -2.0214834
-0.7599243 -1.0474144 -0.85883623 -1.8559148 -2.7117682 -1.5792551 -1.9603186 -0.7725383
-2.7527952 0.52179176 -2.4969568 -1.2581846 -1.1318598 -1.3833418 -3.4252782 -0.68951714
-1.2712628 -2.9406624 -0.59346676 -1.6608517 -1.791881 -0.21540576 -3.2335405 -0.66011304
-0.88494664 -1.0545733 -1.4751723 -1.6497438 -2.115534 -2.995586 -1.1168627 -0.7284762
-0.9428897 -2.6142488 -1.0968667 0.05852836 -0.8766958 -0.6441405 -1.0165238 -1.6674958
-0.8978659 -0.9905282 -0.33781427 -1.3733318 -0.6722097 -0.8920843 -0.5151914 -0.5429679
-1.3164287 -1.89992 -2.6798532 -0.14587995 -1.1248351 -0.5092225 -1.970446 -0.90966654
-2.0417962 -2.6060255 -0.8423319 -0.59702677 -0.8934732 -2.1451266 -1.4421163 -1.2821665
-1.5668598 -0.7709496 -1.5174075 0.30294883 -0.4984748 -1.1721271 -2.151359 -2.9631083
-1.3275295 -1.3212941 -0.9996289 -0.62028426 -0.95741874 -1.0376519 0.015832875 -0.9366339
-0.545903 0.33137774 -1.2412163 -0.3368215 -0.93636763 -0.5997628 -2.0450234 -1.5257982
-1.3262372 -1.610416 -2.333705 -1.4506127 -2.2511187 -1.0159837 -1.3163095 -1.4518399
-1.1334268 -2.6267974 -1.4665326 -2.1954157 -0.24606478 -1.0060261 -1.8172672 -2.5085864
-0.9327291 -0.5284317 -0.85611683 -1.4647287 -0.5747533 -0.7111879 -1.8276517 0.11961561

layers.2.weight f4 [1, 128]
00000000: 4961 08bd 235e a7be 9dd6 073e d163 67be
00000010: 275a 8c3e b1da a8bd 390c c3bb 2076 483e
00000020: 6848 123e 5c88 4f3e c621 52be 6a13 553e
00000030: b3a6 62be ee05 06be 2760 273e d687 ae3d
00000040: 8efd 4cbe 54bf fabd 32f6 3bbe 78f8 393e
00000050: bf88 e63d f597 443e 5ae1 0e3e 961b 50be
00000060: 3663 053e caa0 28be 8e43 013e de4d 93be
00000070: 7142 a7be d28a 7ebe 4119 123e d561 263d
00000080: 9144 7b3e 887a f83d 2cff 07be e97a 8fbe
00000090: 97cd 493e 8bba 4bbf b695 c1bd 485b 55be
000000a0: 018f 37be aaa0 a8bb bba6 b0be 957e 343e
000000b0: 9497 ff3d 7792 cf3d 5ce9 3cbe eeb6 74bd
000000c0: 502f 0dbe 8cfa 0b3e 526f 0bbd ce4a 0dbe
000000d0: e776 fabd 234c 87bd f7a6 a8be 7d97 413e
000000e0: 12ab a5bd 00fd fcbc 27ce 96be 8693 84be
000000f0: eff4 ebbd 9298 d1bb 98bc 7bbe 0a47 a3bd
00000100: f54b a5be c5f8 cf3d 2210 073e 65db bbbe
00000110: de44 33bd 930c 75be 45fc 2c3e 5087 37bc
00000120: 6176 233e 9c0b 1d3e 8555 0bbd 8f7f 1bbe
00000130: 62ed 4c3c 9e44 a4be 4533 193e 66f7 943d
00000140: f4cd 193e a7bb 98bd 6e6d d9bd d50a 01bf
00000150: 5c44 753e 3619 17be fad2 433e 4a48 233e
00000160: c10e a7be 2e4a 193e 7f71 2f3e 156c 66be
00000170: aa79 55bc 8a9c adbd 34f7 983e 8283 37be
00000180: 2eb7 03be 8a74 22be 0b0c 6abe 66ca 6dbe
00000190: c20d 6abd 98e7 27be f2cc 7c3e 379b 3a3e
000001a0: 50bf 31be 3640 3f3e fdd2 e33d 4c1f 5dbe
000001b0: c198 4d3e 2b43 293e 0293 41be 8af2 293e
000001c0: 462a 9dbe f8f5 063e 746b f2bd d01f 503e
000001d0: b10b 89be 5c0a 44bd 7402 3e3e d05f 353e
000001e0: d357 073e 4d14 1fbe 5136 52bd 330c 463e
000001f0: ffc8 48bc eab6 38be 6d27 473e 1e8f 34be
-0.033295903 -0.32689008 0.13265462 -0.2259667 0.2741253 -0.08244837 -0.005952385 0.19576311
0.14285433 0.2026686 -0.20520696 0.20808187 -0.22133903 -0.130882 0.16345273 0.085220024
-0.20018598 -0.12243524 -0.18355635 0.1816119 0.11256551 0.19198592 0.13953152 -0.20323023
0.13026127 -0.16467586 0.12623426 -0.28770345 -0.32667878 -0.24857643 0.14267446 0.040620644
0.24537875 0.12132746 -0.13280934 -0.2802346 0.19707333 -0.79581517 -0.09452383 -0.20835602
-0.17925645 -0.005146106 -0.34502205 0.17626412 0.12480083 0.10135358 -0.18448395 -0.059744768
-0.1378758 0.13669795 -0.03404171 -0.13798067 -0.1222971 -0.06606319 -0.32939884 0.18905444
-0.0808927 -0.030882359 -0.29454157 -0.258938 -0.11521327 -0.0063963616 -0.24583662 -0.07972534
-0.32284513 0.10154871 0.13189748 -0.36690822 -0.04376685 -0.23930578 0.16893108 -0.011201695
0.15963127 0.1533646 -0.034017105 -0.15185378 0.012507768 -0.320836 0.14960964 0.0727375
0.15019971 -0.07457667 -0.10616575 -0.50407153 0.23951858 -0.14755711 0.1912345 0.15945545
-0.32628444 0.14969704 0.17133139 -0.22502168 -0.013029495 -0.08477123 0.298761 -0.1792126
-0.12862846 -0.15864769 -0.22856157 -0.2322174 -0.057142027 -0.1639694 0.24687555 0.18223272
-0.17358136 0.18676838 0.11124227 -0.2159397 0.20077802 0.16529529 -0.18903735 0.16596428
-0.30696315 0.13179767 -0.11836901 0.20324636 -0.26766732 -0.047861442 0.18555623 0.17712331
0.13217096 -0.15535088 -0.05132133 0.19340591 -0.012254952 -0.18038526 0.19448633 -0.1763272
