python/networks/testNE3_multi_param.pth (torch, 196416 bytes, 5 tensors)

layers.0.weight f4 [256, 57]
00000000: 2dd5 253d 18a0 09bd 058f 353d 4961 5f3c
00000010: bdaf 853d db3e f2bd f8cf 06bd 439f 6d3d
00000020: 8825 913d 677a 77bd 8c96 733d 63e9 0abd
00000030: be9b b0bc c40e c3bc 347b 793c 4ecc 46bd
00000040: 822a 5abd cba3 8c3d c75c 263d 3c6a 13be
00000050: 8faa 943d 6a6c 06bd 661a 5abd b737 b03c
00000060: 8e89 983d 5f1b 76bd 4a5c 533d 5eab f23b
00000070: 9142 57bc 1999 cf3c b297 4cbd c334 5d3d
00000080: 3fc9 163d 443e 583d 3053 0fbd f9c3 883c
00000090: 498e 6fbd 59cc 7cbc 2cae 3ebd 991b 773d
000000a0: 5fef fabc 8637 503c b437 e23c 4f3d 08bc
000000b0: 2478 adbc 6087 c9bf 8185 7bbf 18a2 bd3f
000000c0: 372a ecbd 3288 c63d 1793 ce3e 18a6 913e
000000d0: 312c 843e 1fa2 97be 55ac d2be 05c3 99be
000000e0: 6c53 2e3f c184 2bbd 75fd a0bc 1793 bcbd
000000f0: 4543 88bb 9a91 aabc 5c5f b33d 079b 1cbc
00000100: bdb0 ddbd b506 12bc 3bbe 233d 6b9c 8abd
00000110: 4ffb 1abe 759b c0bd bf7e 75bd 8152 21be
00000120: dabb 0fbb 34a1 193e 5b98 fe3d f3e2 b43d
00000130: 08bf 7bbc c4e0 21bc 7568 543d c669 36be
00000140: 9696 d0bd 310f 85bd 5280 873d 3e33 7c3e
00000150: 8d9c 243d 4160 7bbc d9e7 e93d b190 bebd
00000160: b25c b53b 9ee3 713d b80b a3bd 6aef e93c
00000170: 701e 033e e3e3 873d 3beb 0cbd 5d86 8d3c
00000180: 3232 fcbd cdaf c33d b6f0 0dbe 8d5a a2bd
00000190: d021 413d 9c65 2ebd 6e33 823c 7646 21bf
000001a0: 7b2e 89be a3e6 3dbe 2709 313e 86e4 c83c
000001b0: 75e8 f03e 71f6 54be db06 bcbe 01fa 0c3f
000001c0: 5c20 983d f602 4d3f 1667 f7bd b296 8f3c
000001d0: d92a 09be e53d 94be 0ec2 91be 7e9d 9abe
000001e0: f5be 2fbd ed36 aabd 5c27 0abd 1df2 b93e
000001f0: a043 11be 9873 613c c3c9 0dbd 2eb2 25be
00000200: a45c 29bd 5587 c7be c35a a1bc e7dc b43c
00000210: 84d8 c83d 1838 97bd 0100 6e3d 7561 2dbd
00000220: d14c 48be ff12 0fbc e14e 91be d4c7 903c
00000230: 09f8 fa3d df05 e4bd 020f 6dbe ba6d e5bd
00000240: 748d 963d 42f8 143e f8b5 ff3d 75df 3cbd
00000250: 8fd6 f33c 9bf5 0dbd 1fd6 343c 4090 b63d
00000260: 64cd 2abd 814c 413e 9421 f23d 98df 483e
00000270: bee0 94bd b6c0 acbd 1b5e aabd 9ff0 4e3f
00000280: 08c4 203f 27e8 a23e b913 cf3d 8272 793e
00000290: be21 0e3e 96b1 f5bc 3fef d23e 168a e7be
000002a0: a2af 48bf 5c7f 70bf e4ae 29bf 5bf2 0f3e
000002b0: e199 0cbe 9858 c63d 32e7 b7bd 8d02 033e
000002c0: ac3a 8d3d 3a38 c63d f0cf 163c 29ec c63d
000002d0: 58fb b0bc 7e60 e2bd 3f7c 4abe 39cd 1fba
000002e0: 0877 72bb 3a99 16bd 5a9b 09bd 98ac b73d
000002f0: b9a9 173e d7c7 513d fca5 903d d1e7 09bd
00000300: 9e37 033c f0d8 143e fea1 55bd d55e f93d
00000310: 9754 bebc 2b2b 413e 1eaa 033e 81fe 19bd
00000320: 751b 50bc 6c28 09be d8fc 2cbe 9d8f c3bd
00000330: 132d fe3d 73e2 1bbd 3165 1cbd acf6 de3b
00000340: 8beb 303d 8573 363e 1b27 e6bc f6d8 c03d
00000350: b4fc d6bd c991 103e d82f a8bc 2985 c0bc
00000360: d719 233e 40c1 693e c08c 883e 7d1c e1be
00000370: d086 06be 32a8 c9be e56e 72be 42b3 5a3e
00000380: d623 a4be 6ec0 9c3e 5f7d 6b3e 1356 073f
00000390: e636 babd 2bf0 16be 8e8a d4bb 65f4 8abd
000003a0: bdde f0bd e03d 30bd af98 34bd ab7d 29bd
000003b0: 03b4 0bbc 5f41 933c 69ab bb3d 6e81 2c3e
000003c0: c3ea b2bc 06e0 423e 1a75 4a3e 9d38 63bc
000003d0: 49b4 70bc 2a57 cfbd 7123 0abe dd99 a83d
000003e0: 1d68 bebc a662 db3c d47a a7bd 7d75 e5bd
000003f0: 767d f53c 6e45 93be dde5 40be 7331 dd3d
0.040486503 -0.033599943 0.044325847 0.013634034 0.0652766 -0.11828395 -0.03291318 0.058013212
0.07087237 -0.060419466 0.059469745 -0.03391398 -0.021558639 -0.023810752 0.015227128 -0.048534684
-0.053263195 0.068671785 0.040615823 -0.14395994 0.07259094 -0.032818235 -0.05324783 0.021510942
0.074481115 -0.060084697 0.051601686 0.0074056825 -0.013138429 0.025341557 -0.049949355 0.054005396
0.036813017 0.052793756 -0.034991443 0.01669501 -0.058485303 -0.01542958 -0.046552822 0.060329054
-0.03063172 0.01270855 0.027614452 -0.008315398 -0.021175452 -1.5744438 -0.98250586 1.4815092
-0.11531489 0.09693946 0.40346596 0.28447032 0.25814965 -0.29615876 -0.41147104 -0.300316
0.6809604 -0.04187465 -0.019652108 -0.09207743 -0.00415841 -0.020821381 0.08758423 -0.009558446
-0.10824726 -0.008912732 0.03997634 -0.067681156 -0.15134929 -0.09404651 -0.059935328 -0.15754129
-0.0021932037 0.150029 0.12431403 0.0883235 -0.01536537 -0.009880248 0.05185743 -0.17813787
-0.10184972 -0.06497038 0.06616272 0.24628922 0.04018836 -0.015342773 0.114211746 -0.093049414
0.005534732 0.059054963 -0.079612195 0.028556544 0.1280458 0.06635263 -0.03440402 0.017275983
-0.123142615 0.09555016 -0.13861355 -0.079274274 0.047151387 -0.04257737 0.015893664 -0.6299814
-0.26793274 -0.18545012 0.17288648 0.024523031 0.4705235 -0.20797135 -0.3672398 0.55068976
0.07428047 0.80082643 -0.12080209 0.017527912 -0.13395251 -0.28953472 -0.28468364 -0.30198282
-0.04290672 -0.083112575 -0.033728942 0.3631753 -0.14185953 0.01376047 -0.034616243 -0.16181251
-0.041348115 -0.38970438 -0.019696599 0.02207799 0.09806922 -0.07383746 0.058105472 -0.04232927
-0.19560553 -0.008732556 -0.28380492 0.01767341 0.1225434 -0.11133932 -0.23150256 -0.11202569
0.07351199 0.14547828 0.1248588 -0.046111543 0.029765395 -0.034658056 0.011037379 0.08914232
-0.041699782 0.1887684 0.11822811 0.19616544 -0.07269429 -0.08435194 -0.083187304 0.8083591
0.6279912 0.31817743 0.10111184 0.24360088 0.13880059 -0.029991906 0.41198155 -0.4522254
-0.78392994 -0.93944335 -0.66282487 0.14057295 -0.13730575 0.09684867 -0.08979644 0.12793942
0.068959564 0.09678693 0.00920485 0.09713013 -0.021604225 -0.11053561 -0.19773959 -0.0006095949
-0.0036997218 -0.036767222 -0.03359542 0.089684665 0.14810838 0.051215973 0.07062909 -0.033668343
0.008008866 0.1453588 -0.05215644 0.12176291 -0.023233695 0.18864124 0.12857863 -0.03759623
-0.012701859 -0.13394326 -0.16893327 -0.095488764 0.12410941 -0.038057756 -0.03818244 0.006804308
0.04319338 0.17817505 -0.028094819 0.09416382 -0.10497418 0.14118113 -0.020530626 -0.023500996
0.15927826 0.22827625 0.26669884 -0.43967047 -0.13137364 -0.39386135 -0.23675115 0.21357444
-0.3205859 0.30615562 0.22997044 0.52865714 -0.09092502 -0.14740054 -0.0064862436 -0.06784896
-0.11761234 -0.04302776 -0.044090923 -0.041379612 -0.008526805 0.017975507 0.09163553 0.16846249
-0.021840459 0.1903077 0.19771233 -0.013868478 -0.014691421 -0.10124047 -0.13490082 0.08232472
-0.023243004 0.026780438 -0.081777245 -0.1120405 0.029967051 -0.28763908 -0.18837686 0.10800447

layers.0.bias f4 [256]
00000000: 8cb5 7bbd 0545 583e eb1d b8be 39c4 e03d
00000010: d8c1 6cbd 01c2 aa3d 940a 8dbe 3af9 db3c
00000020: 9369 4abd 3f4e 98be 2bf4 dd3d 3ccb 0abe
00000030: 2161 333e ab2c a1bd 1823 adbe 9627 00bd
00000040: 653e bb3c dcd2 3c3c e360 363d 3f61 c33d
00000050: a4f5 c5bd 1791 7e3e d01c 313b 5d8c 9dbd
00000060: 9ec2 85bd f2a6 dabd 7b78 9fbd 9df1 c1be
00000070: 6408 59bd 6353 a13b 7e9a a3bc 5c00 18be
00000080: 0190 05be 01fa bcbc eb1b 30be f64d a1be
00000090: de61 abbd 11d6 a43d 2b91 e7bd 5876 fabd
000000a0: 3ae4 f4bd 4e8c 11be 06d0 7fbe 2907 273d
000000b0: 0697 4e3a 8116 59bd eb66 acbd 5658 c43b
000000c0: 7d72 033d b1d2 44bd 542d 83be 2634 78be
000000d0: cd1a a83d ed4e 6fbd 1118 49be 2f6e b53c
000000e0: a381 dfbe 9096 933d 0915 f63c 28a7 d9bd
000000f0: 97c6 9c3d d420 693d b3ee a73d d28f 3e3b
00000100: 7b7e 98be 228a 31be 3933 44bd 4ac6 07be
00000110: 060d c8be 1ba4 773b 601e 93be aefe 373c
00000120: d8b6 903b 29d2 12bd 9c6c 51bd 0981 fdbd
00000130: c506 1d3c 0ac6 60bd 6160 63be c27e 12bd
00000140: c997 72bc 29a4 57bd c679 6539 37d9 8abe
00000150: 2d1c b73d 4fce 29bd eeb2 6bbe b609 093e
00000160: 8342 6e3d 1c5b 0d3c 18fb e1bc 7f24 be3c
00000170: b80d 05bd 659d 18bd 47a2 423d b329 cf3d
00000180: fd0b 91bd 1c89 03be fe36 a5be 809e 133e
00000190: 1e05 b7bc f72f 61bd 9e1e ae3c 3816 473d
000001a0: f147 12be 44fc be3d d1a5 e1bd cde8 f63d
000001b0: c2f8 f03b 4d08 463d 5603 f23d 51f1 95bd
000001c0: bab9 e13d c715 96bc 1c21 d33c 16b0 4ebd
000001d0: 1649 babd c61a 9dbd 153e 37be e385 95bd
000001e0: e951 823b b129 bebd fb9d 9fbd 70ed 18be
000001f0: 6225 c2bb 8a15 cfbe f9c9 a43d 41ff ab3d
00000200: 05e4 06bd 81c5 f0bd 8b7b f4bb 60c7 063d
00000210: 6fd5 303e 1f93 debd 7711 2f3e 89c8 4d3d
00000220: e33d aa3c 0d66 553c 4c78 1ebe 145a a9be
00000230: 4cfe 80be 1762 853c 1a88 15be 31d6 dc3d
00000240: b0fb 8cbd 6e6a c8bd a50b 983c 7b1a dd3d
00000250: 4207 05bd bdf6 70bd 3559 0abd fee6 c7be
00000260: 993a 96be d729 34be 7238 ef3b 8899 b6bb
00000270: a7c3 36be 26d6 12bd 1bd5 20bd b89b dd3d
00000280: 2d6f b9bd 32e9 88be 800e 3cbc f9af d6bd
00000290: 9463 823c 2076 1e3d 4cdb dbbc aa50 b33d
000002a0: 63df 8b3d e0fe 1d3c 9be5 61bd 4036 13be
000002b0: 2005 dbbd d9c2 5c3d a9bf 1dbd 2b10 96be
000002c0: b641 43be 197a 8dbe 3d5e 2a3c d293 bfbd
000002d0: 62f5 1bbe ad7d adbd d27a 64bd 9720 0dbe
000002e0: 4869 d13c ed7e 7cbd 7158 0b3e 64e4 d6bd
000002f0: 4f0a 65be ed67 d8bd f5eb 563c b397 fcbd
00000300: cf42 833c 15d8 e5bd 811d 793d ada3 1cbc
00000310: 9955 53bc 97e3 f0bd 6b6c c0bd e801 61bc
00000320: 00a0 afbb ba49 a6be 7483 adbc 108a 1d3c
00000330: 6373 44bd 9d02 a63c 361d e33c 15f1 65bc
00000340: 0aa3 88bd 1abf 91be bc88 0b3c c437 6abd
00000350: 349c aa3d 34db 213c 86bf 2dbd 304c 4ebd
00000360: d1e4 a7bd afec 7ebe ade9 6bbd 37c2 6f3d
00000370: 8e39 3dbd b174 a43d df45 92bd 8d1f cb3c
00000380: 9aea bd3c 7468 cc3c 4791 b13c 6d0c f33d
00000390: 85c4 72be b466 27bd 837d e13d 3832 0abe
000003a0: b1eb 5ebd 52de 873d 0cc3 a5bd ae2a 853d
000003b0: 6f6e 453d 92bd a1bd 847d 103d 2338 9abd
000003c0: d296 98bd 0380 683d 29fe 67bd eb5f 85be
000003d0: 109c 263d af53 50bc c3db ae3d d06d a9bd
000003e0: f6f8 5dbd a6fb cabd 4ac5 93be cbca 97be
000003f0: 4965 cabd be3a 4bbd 38e5 8c3c 4248 f1bc
-0.061452433 0.21120079 -0.35960326 0.109749265 -0.05780205 0.083377846 -0.27547133 0.026852239
-0.04941709 -0.29747197 0.10837587 -0.1355409 0.1751752 -0.07869848 -0.33815837 -0.031287752
0.0228569 0.011524882 0.044525992 0.095400326 -0.09665993 0.24860035 0.002702523 -0.07692788
-0.06531261 -0.106763735 -0.07786652 -0.3787965 -0.052986518 0.0049232705 -0.019971129 -0.14843887
-0.13043214 -0.02306843 -0.1719815 -0.31504792 -0.08368276 0.080486424 -0.113069855 -0.122296035
-0.11957593 -0.14213678 -0.24981698 0.040778313 0.00078807806 -0.052999977 -0.084180675 0.005991976
0.032091606 -0.048052493 -0.2562052 -0.24238643 0.08208237 -0.05842488 -0.19638087 0.022147266
-0.43653592 0.07206452 0.030039327 -0.10627586 0.076550655 0.056916073 0.08199825 0.0029077423
-0.29783997 -0.1733785 -0.047900412 -0.13259235 -0.39072436 0.0037787023 -0.28734112 0.011230154
0.004416328 -0.035844956 -0.05112897 -0.12378127 0.0095841335 -0.054876365 -0.22204734 -0.035765417
-0.014806696 -0.05264679 0.00021884506 -0.27118847 0.08940921 -0.041456517 -0.23017475 0.1338261
0.0581689 0.008627679 -0.027585551 0.023210762 -0.032483786 -0.037259478 0.04751804 0.10115375
-0.07082365 -0.12845272 -0.32268518 0.14415932 -0.022341307 -0.054977383 0.021254834 0.048605174
-0.14285256 0.093254596 -0.11017955 0.12056122 0.007353873 0.04834776 0.118170425 -0.07321418
0.11021753 -0.018320931 0.025772624 -0.050460897 -0.09095971 -0.07671122 -0.17894776 -0.073009275
0.0039770496 -0.09285296 -0.07793804 -0.14934325 -0.0059248665 -0.4044612 0.08046336 0.08398295
-0.0329323 -0.11756421 -0.0074610165 0.032904983 0.17268918 -0.10867905 0.17096506 0.050240073
0.020781463 0.013024819 -0.15475577 -0.33076537 -0.25194013 0.016282124 -0.146027 0.10783041
-0.06883943 -0.09785925 0.01856024 0.107960664 -0.032477625 -0.058829058 -0.03377648 -0.3904342
-0.2934158 -0.17594086 0.00730043 -0.0055725016 -0.17848073 -0.03584876 -0.039265733 0.108207166
-0.09054408 -0.26740414 -0.011478066 -0.10482783 0.015916623 0.03868687 -0.026837967 0.0875562
0.06829717 0.0096432865 -0.05515061 -0.14376163 -0.10694337 0.05389676 -0.03851286 -0.2930921
-0.19068035 -0.27632216 0.010398445 -0.09354366 -0.15230325 -0.084712364 -0.055781193 -0.13781963
0.025562897 -0.061644483 0.13607956 -0.10492781 -0.22367214 -0.10566697 0.01311778 -0.12333622
0.016023068 -0.11222855 0.060819153 -0.009560508 -0.012898826 -0.11762159 -0.09395679 -0.013733365
-0.0053596497 -0.32478124 -0.021180846 0.009615436 -0.047961604 0.020264918 0.02772389 -0.014034529
-0.06671722 -0.2846611 0.008516487 -0.05718209 0.08330575 0.009878922 -0.04241898 -0.050365627
-0.0819794 -0.24894975 -0.057595897 0.058534827 -0.046197467 0.080300696 -0.07142233 0.024795318
0.023183156 0.02495215 0.021675719 0.118676044 -0.23707779 -0.04086943 0.110102676 -0.1349572
-0.05442399 0.06634201 -0.08093843 0.06502281 0.04820102 -0.07897486 0.03527595 -0.075302385
-0.07450642 0.056762706 -0.05663887 -0.26049742 0.040676177 -0.012715264 0.0853801 -0.08272898
-0.054192506 -0.099112794 -0.28861457 -0.29646906 -0.098826 -0.049616568 0.017199144 -0.0294534

layers.1.weight f4 [128, 256]
00000000: ccf2 e33d 91fd 48bd aa31 da3e 54e1 55bc
00000010: 53cb f73d 104f 36be ecc8 363e 7fb1 e23e
00000020: c752 40be bacd 973e 8be4 1b3e e470 e33e
00000030: 2cc4 edbe 647e 143f c193 e3be fb26 033f
00000040: 7794 02be 3758 23bf 123e 703c 0540 e2bd
00000050: b781 b13e 6816 01be d0f8 93be 4332 863c
00000060: 8d6c 333e 3e5c 1e3f f3c1 943e 81a7 9ebe
00000070: 5366 66bb 7b31 a43e eb96 a7be 0873 1f3f
00000080: 4c25 4f3d 733d ee3e 27bb 8e3e 0f76 54be
00000090: b3c7 e3be 6209 3fbd 84fe e43e 90cf 193e
000000a0: 4398 97be 3eac 7c3e 3932 093f 0810 6cbd
000000b0: 1073 323d 0ca7 db3e a4e4 473e f358 d1bd
000000c0: 42cc 29be ae55 c03c 2436 e3be 1ecb f83e
000000d0: ef41 6cbe 0fc6 663b 162e bb3e e666 833e
000000e0: 8108 70bf 0e27 0c3e 785c 8fbe f1dc 073f
000000f0: 7d5c 1bbf 6a98 71be b131 a0be e1c3 c1bd
00000100: 515c 7a3e 9754 333c 1c92 d4bd a683 823e
00000110: f254 c83e 7a7f 28be 18c8 603e 5397 643f
00000120: 778d 993e 1d16 40be 8eb4 ad3d 6a36 ac3e
00000130: 9073 86be a314 1fbe afc3 e7be 90ae 933e
00000140: 23ef 0c3d 6e46 823d a8da d13d bba5 203e
00000150: 9c48 4fbe 205b b4be 298d ccbd 4a41 b4bc
00000160: a37f e6be fb57 b0bc 74ca bdbd 225f 35be
00000170: 4e31 29be 640d 813e c54d 8fbe 8cce a63b
00000180: 9888 fa3e e005 fa3e 204f d43e a791 0bbe
00000190: 96ad 5ebe c93a fe3d 9c1e 333e bf27 d53e
000001a0: 2569 983e 388c 74be f9e8 8e3d e9cc af3b
000001b0: d049 efbe 0635 2abe 6ad7 b3bd 3a14 d53d
000001c0: 16cd 14be 204a debd e166 14bf b0b5 00be
000001d0: 8fe6 abbd 0f55 f1bd 3f86 293f dcfb 05be
000001e0: 6426 2ebd 26c2 2bbe cdfa 1b3f 4c9e 50be
000001f0: b048 90bd c426 0a3f fc71 86be c027 09bf
00000200: d2e0 2cbc e121 15be 8e91 a63e 4184 173d
00000210: a638 86be 1132 14be 6d97 e63d 0bb6 393e
00000220: 1127 7fbf 8f77 da3d 1959 053d 6866 babb
00000230: ad2a e1bd 1294 6e3d 8068 81bd 29e8 9a3d
00000240: 8490 8bbe e752 a2bd 32d0 41be 1410 fbbd
00000250: 4889 353d 2275 dc3c defe 203f 9fec a93e
00000260: e7d5 f4bd dada ae3d 481a abbe bda1 183f
00000270: f407 7c39 d6a8 13be ea90 9cbd 3070 ad3c
00000280: e280 c43c 9844 f03e 1099 e53d 1285 14be
00000290: ebc8 a63d 00da fbbc 25fc cc3d 2019 23be
000002a0: 8b08 43be 2c92 963d 8f97 8cbd c505 0d3f
000002b0: 5653 b73e 8639 ff3e 1008 5d3e 3ad7 8f3e
000002c0: 5c95 6abd 456b f23a a672 e03e f503 1abf
000002d0: 5afe c23e d88f 073f aca7 80bb 65ff 9ebe
000002e0: 12ab b43d 6348 40be 36f8 b7be 28d3 d13e
000002f0: 942e 9f3d a989 0f3e 06d6 113f 91ce 3d3e
00000300: d7e3 533e 56c1 5ebc 2d26 3cbd da5c b4be
00000310: 4bb7 033f f757 d93e 99b5 da3c 2b38 ad3e
00000320: 4743 af3b f66c 8e3d 8ec4 a93c 404d 3a3f
00000330: 1d78 ea3e 3f83 1d3d 752c ccbd c89d 2e3e
00000340: e1f8 2fbf 761e b73e 595a 1ebe 4009 26be
00000350: c119 f9bd 8e27 263f 9b74 56be ae05 48bb
00000360: 6019 563e 27d3 b8be 7732 85bd 44d2 31bf
00000370: 1954 6ebe b424 9ebc 3d7a 003f 3155 92be
00000380: 2af7 1a3f d83d 2cbe 4a9e f6bd 91bc 43bc
00000390: 2674 fbbe 63cc 14be fb1e 35be 74ed 503f
000003a0: 0e34 7c3e 4c54 24bf 2a4e 8abe e185 9dbd
000003b0: dffc 953e ffee ff3e b8e7 08be b9c9 ca3d
000003c0: 5cb4 333f 3c75 43bc dee5 25be 12b1 063e
000003d0: bfef 98bd c277 923d a20e 183e ea8d 14be
000003e0: f9fc 353f b94c f43e 7bdd 70ba c0c2 933d
000003f0: 4fe6 b4be c5f7 443d 869f 793e 186f 5fbe
0.11130294 -0.049069945 0.42616016 -0.013054211 0.12099328 -0.17803597 0.17850083 0.44276044
-0.18781577 0.29649144 0.15223901 0.44422066 -0.4643873 0.58005357 -0.44448665 0.51231354
-0.12751947 -0.6380648 0.014663236 -0.11047367 0.34669277 -0.12606204 -0.28900766 0.016381389
0.17521878 0.618595 0.29054222 -0.3098717 -0.0035156205 0.32069 -0.3273233 0.622849
0.05057268 0.46531257 0.2787716 -0.20748161 -0.44488296 -0.046639808 0.4472543 0.15020585
-0.29608354 0.2467508 0.5359226 -0.057632476 0.043566763 0.42900884 0.19520813 -0.10222044
-0.16581824 0.023478355 -0.44377244 0.48592466 -0.23072027 0.0035213267 0.36558598 0.25664443
-0.93762976 0.13686773 -0.28000236 0.53071505 -0.60688 -0.23593298 -0.31287912 -0.09461189
0.24449278 0.010945461 -0.10379431 0.25491065 0.39127308 -0.16454878 0.2195133 0.892934
0.29990742 -0.18758436 0.08481704 0.33635265 -0.26260042 -0.15535216 -0.45266482 0.28844118
0.034407746 0.0636109 0.102467835 0.15688221 -0.20242542 -0.35225773 -0.09987862 -0.022003789
-0.45019254 -0.021526327 -0.092671305 -0.17712072 -0.16522714 0.2520553 -0.2798902 0.0050905403
0.48932338 0.48832607 0.41466618 -0.1362978 -0.21745905 0.12413556 0.17492145 0.41631886
0.2976772 -0.23881614 0.0697803 0.0053650034 -0.46736002 -0.1662179 -0.08781321 0.104042485
-0.14531359 -0.10853982 -0.5796948 -0.12569308 -0.08393585 -0.11783802 0.6622047 -0.13084358
-0.04251708 -0.1677328 0.60929567 -0.20372885 -0.07045114 0.539654 -0.26258838 -0.5357628
-0.010551648 -0.14563705 0.32532924 0.03699136 -0.26215094 -0.14472224 0.11259351 0.1813585
-0.99668986 0.10667335 0.032555673 -0.0056884773 -0.10994468 0.05824668 -0.0631876 0.07563812
-0.27258694 -0.079259686 -0.18927076 -0.12258926 0.044320375 0.026911322 0.62888896 0.3318834
-0.11954861 0.085378364 -0.33418489 0.59621793 0.00024035556 -0.14419875 -0.07644828 0.02117166
0.023987237 0.46927333 0.11210835 -0.14503887 0.08143791 -0.030743599 0.1000903 -0.15927553
-0.19046228 0.07352099 -0.06864845 0.5508693 0.35805768 0.49848574 0.21585107 0.28093892
-0.057271346 0.0018495104 0.4383747 -0.6016229 0.3808468 0.52953863 -0.003926238 -0.31054226
0.088216916 -0.18777613 -0.35931557 0.40981412 0.07772556 0.14017357 0.569672 0.1853583
0.20692383 -0.0135959 -0.045934845 -0.3522709 0.5145156 0.42449924 0.02669792 0.33831915
0.0053485963 0.069543764 0.020723607 0.72774124 0.45794764 0.038455244 -0.09969417 0.17052376
-0.68739134 0.35765427 -0.15464152 -0.16214466 -0.12163115 0.64904106 -0.20942919 -0.0030520963
0.20908117 -0.36098596 -0.06503766 -0.69461465 -0.23274268 -0.01930461 0.5018652 -0.2858062
0.6053339 -0.16820467 -0.1204191 -0.011946813 -0.49112052 -0.14531092 -0.176876 0.81612325
0.24629232 -0.64191127 -0.2701276 -0.07691551 0.29294488 0.49987027 -0.13369644 0.09901757
0.7019708 -0.011929806 -0.16200969 0.13153484 -0.07467603 0.07151748 0.14849332 -0.14507261
0.7108913 0.47714785 -0.00091882766 0.0721488 -0.35331962 0.048087854 0.2437726 -0.21819723

layers.1.bias f4 [128]
00000000: a4cc 98be 7960 03be 5ed5 883d 6daa a53b
00000010: 2960 bbbd 9b4b 17bb 8891 0dbe 8448 4cbe
00000020: b503 2dbe 3c79 eebd 3990 06be 8414 a73b
00000030: f835 d4bc da16 82bd b6ef 40ba d6f3 91bd
00000040: 0682 84bd ca08 b43b 0fb1 acbc c2bf b33d
00000050: 8178 cdbb c816 283c dc2c 35be b01b 27bc
00000060: d092 0a3a f1c8 5dbe 1c02 5bbe 41ca aebd
00000070: 96c9 0bbe abe2 a8be 4053 38be d556 93bd
00000080: 4ab9 40be dfcc adbe 9183 94be e7f0 f9bd
00000090: eb37 58be bf3f 173e 7583 0cbe bb8e 6cbd
000000a0: 86dd 25be 560a 67bd e52b f93c 761e 97bd
000000b0: 77c8 c5bc a62f c7bd 6427 e0bd 9cb6 34bd
000000c0: dbb3 68bd 24d6 21be 9cc3 3f3c 4c26 94bd
000000d0: e471 80be 7d57 6ebe c3e1 d5bd 04f7 d9bd
000000e0: 4bb3 c5bd ad91 92be 85bd 87bc 4ef1 60be
000000f0: 26e1 1b3e 19dc e3bd a30b b5bc 8117 6a3e
00000100: 86d3 cabd 2ded 87bd 0c45 48be 9844 80bd
00000110: bf8b 52be eddf 85be a792 523b 7158 38be
00000120: 3fcc 44bc b5ab 7abd 25e8 04bb 1e05 13bc
00000130: 8353 f7bd 1a9a 67bc 12f8 50be d6c7 b43d
00000140: e5a3 62be b2c2 49bd 362a 85bc 9a0a 95be
00000150: 603a b8bc 1b91 43be 8641 1bbe 3704 00be
00000160: 1fb6 7fbe 8719 c53c 953a 0cbe 0d14 44be
00000170: 9502 b6bd bdd1 7abe ab30 9ebc d6f5 2fbc
00000180: 8f46 a33a 073a c7bd ff25 babd 1b8a c4bd
00000190: 7307 6fbd 2262 94bc ab3e 2cbc 46c4 2dbc
000001a0: c7bf 3dbe a0c2 14be a829 bfbd 4cc1 27be
000001b0: 4b32 6bbe 0958 613d 0c87 0a3d f388 f0bd
000001c0: 1d70 90be e921 2e3e e292 02be 711f 7c3d
000001d0: 5215 24bd f309 36bc a140 f6bd dbda 15bc
000001e0: b4da ec3c 177d ec3c 56af b4bc 6e60 7fbd
000001f0: f905 8ebd 20c8 473a 5a44 7cbe 93f8 253e
-0.29843628 -0.1282977 0.066813216 0.0050557167 -0.091492005 -0.0023085836 -0.13825047 -0.19949538
-0.16895945 -0.11644217 -0.13140954 0.005098881 -0.02590464 -0.06352015 -0.00073599385 -0.07126586
-0.064701125 0.005494212 -0.021080522 0.08776809 -0.0062704687 0.010259338 -0.17692894 -0.010199472
0.0005286159 -0.21658684 -0.21387523 -0.085346706 -0.13651118 -0.32985434 -0.18000507 -0.07194296
-0.18820682 -0.33945367 -0.29006627 -0.122041516 -0.21115081 0.14770411 -0.13722022 -0.057753306
-0.16197786 -0.05640634 0.030416438 -0.07378857 -0.02414344 -0.09725885 -0.10945013 -0.044119462
-0.05681215 -0.15804344 0.011704352 -0.07233867 -0.25086892 -0.23275562 -0.10443451 -0.106428176
-0.09653338 -0.28626767 -0.016569862 -0.2196705 0.15222606 -0.11125965 -0.022100275 0.22860529
-0.09903626 -0.066370346 -0.1955759 -0.06263083 -0.20561121 -0.26147404 0.0032130869 -0.18002488
-0.012011587 -0.06119891 -0.002027997 -0.008973388 -0.120764755 -0.014135862 -0.20407131 0.08827178
-0.22132833 -0.04925794 -0.01625548 -0.2910965 -0.022488773 -0.19098322 -0.15161714 -0.12501608
-0.24971817 0.024060024 -0.13694222 -0.19148274 -0.08887211 -0.24494071 -0.019310316 -0.010739764
0.0012456941 -0.09727865 -0.090892784 -0.09596654 -0.058356714 -0.0181132 -0.010512988 -0.010605877
-0.18530189 -0.14527369 -0.09334117 -0.1638233 -0.22968404 0.055015597 0.033820197 -0.11744871
-0.28210536 0.17005123 -0.12751344 0.061553422 -0.040059395 -0.0111107705 -0.12024046 -0.0091464175
0.02891288 0.028868241 -0.022056263 -0.062347822 -0.06934733 0.00076210685 -0.24635449 0.16208105

layers.2.weight f4 [1, 128]
00000000: a88d 1f3f 7411 893f 71a0 0d3c 989a bc3d
00000010: f3cf 0640 99a7 eabc c68b bd3f c24b 0e3f
00000020: 502b ab3e 403d 9f3d fefe e53c 236c 6ebf
00000030: 753e 563d a8bc 75bf bc20 97bd 707d dcbd
00000040: cf7a 70be 567f 2a39 9c17 a1be 7990 4abd
00000050: b59a 783d b558 dc38 c5a7 1d3e 6c56 69bc
00000060: c111 f4bd 2c99 513f e1f7 853f fb01 3e3e
00000070: 5dbf a9be ba1a 8b3e d3eb 853f 6196 9dbb
00000080: ee76 b63e d544 cb3f be8f 913f f1c0 433d
00000090: 3bae e13d e4cc 72be 6285 4c3e 0599 033d
000000a0: dedd c13e 5960 8d3e 4562 6ebd c75b f63d
000000b0: d36b 87be 7cca f93f f4fc 253e 0a91 6dba
000000c0: abe0 363e 6ed0 893f 12ec 81bb 3c1c 9c3d
000000d0: 3eef 0d3f dee7 4a3e e285 76bf c096 db3d
000000e0: 715d 9f3a 481e 753f 6362 bb3a 07b4 9e3f
000000f0: 7c07 1fbe dd15 aa3d f59a 45bc 7c7a 46be
00000100: e7b4 703f bd88 0bbb 9fe7 4b3f cfca d23d
00000110: 0fa2 b93e 85b0 3f3e 2d93 113c 61c1 b83e
00000120: 2a29 4bbf 3519 983e a540 c73d b5ed 2dba
00000130: 22d7 b63e 572a afbc cc0e 9b3e e515 55bd
00000140: bd30 b83e 9a1a c6bf ef0d b9bc 00ff 103e
00000150: 3f02 e7ba ad4f 093f 13bb 4a3e cdca 4c3f
00000160: 2c5a 143e 142a 633c 9a78 0e3e 27a9 4b3e
00000170: c2cb 213d 5dfc be3f 0497 e2ba 0e71 5e3d
00000180: 9341 9c3d b739 79bb b4c1 2c3f a986 1c3a
00000190: 1404 bf3a c9dd 8e3d eea5 453d 8220 bfbd
000001a0: 9d6a 8f3f d825 6b3e bf9e b53d f1ce 3d3f
000001b0: 570e 563e 0587 93bb a1ca bd3c f194 aa3f
000001c0: 14d4 aa3e 9cb4 53be 4bff 083f 0e78 c9be
000001d0: d1bc 5a3d b700 b03d 565e 57bf d954 903d
000001e0: 0d93 6cbf 1c8c 873f 2227 dfb9 b111 963d
000001f0: bc9c 6c3e b033 d43d d62f 863f cd3c efbd
0.62325525 1.0708451 0.008644209 0.09209174 2.1064422 -0.02864437 1.480828 0.5558435
0.33431482 0.077753544 0.028075691 -0.93133754 0.052305657 -0.9599099 -0.073792905 -0.10766113
-0.23484348 0.000162599 -0.31463325 -0.049454186 0.060694415 0.000105069405 0.1539603 -0.014241796
-0.11917449 0.81874347 1.0466272 0.18555443 -0.3315381 0.27168828 1.0462593 -0.0048091863
0.3563761 1.5880381 1.1371992 0.047791425 0.1101956 -0.23710972 0.19972757 0.032128353
0.37864584 0.2761257 -0.058199186 0.12029224 -0.2644945 1.9514918 0.16209775 -0.0009062445
0.17859142 1.0766733 -0.0039649094 0.07622573 0.5544318 0.19815013 -0.9629804 0.10722113
0.0012158585 0.9574933 0.0014296289 1.239869 -0.15530199 0.08304951 -0.01206087 -0.19382662
0.94026035 -0.002129122 0.796503 0.10292589 0.36256453 0.1871968 0.008885187 0.36085036
-0.79359686 0.2970673 0.09729127 -0.00066348474 0.35711008 -0.021382494 0.30284727 -0.052022833
0.35974684 -1.5476868 -0.022589652 0.14159775 -0.0017624571 0.536372 0.19797926 0.7999695
0.14487523 0.013865013 0.13913193 0.19888745 0.03950096 1.4920765 -0.0017287438 0.054307036
0.07629695 -0.0038028785 0.6748307 0.00059709937 0.0014573359 0.06975896 0.048253946 -0.09332372
1.1204411 0.22963655 0.08868169 0.7414389 0.20903908 -0.0045021796 0.02316791 1.3326703
0.33364928 -0.20674366 0.53514546 -0.39349407 0.053402726 0.08593886 -0.8412832 0.070474334
-0.9241188 1.0589633 -0.0004256303 0.07327593 0.23106664 0.10361421 1.0483348 -0.11681519
