python/networks/testNE1_single.pth (torch, 21972 bytes, 7 tensors)

layers.0.weight f4 [64, 23]
0	0xbf04fdf2	-0.5194999
1	0xbeacb762	-0.3373366
2	0xbea491f7	-0.32142612
3	0xbe989176	-0.29798478
4	0x3f402b69	0.7506624
5	0x3edc383d	0.43011656
6	0xbe8b2fc6	-0.27184886
7	0x3e8caf5c	0.2747754
8	0x3e75c4b5	0.24000819
9	0xbe0e5ef9	-0.13903417
10	0xbe315335	-0.17316897
11	0xbeed29df	-0.46321008
12	0x3ecfb376	0.40566605
13	0x3e13f1cf	0.14447711
14	0x3eb426ce	0.35185856
15	0x3e9c89df	0.30573937
16	0xbe4eb802	-0.20187381
17	0x3e9279a1	0.2860842
18	0xbd4a33b5	-0.049365718
19	0xbe075317	-0.1321529
20	0xbdd0e90b	-0.102006994
21	0x3e640679	0.22268094
22	0xbf266d2f	-0.6501035
23	0x3ee67ca5	0.4501697
24	0x3ec5e008	0.38647485
25	0x3ebca36d	0.36843434
26	0x40429512	3.0403485
27	0xc00d0b66	-2.2038207
28	0xc0531185	-3.2979443
29	0xbee63902	-0.44965369
30	0xbd439e09	-0.047758136
31	0x3faa2831	1.3293515
32	0xbe789249	-0.24274553
33	0x3e2a26c7	0.16616355
34	0x3eb756de	0.35808462
35	0x3c010e42	0.0078769345
36	0x3f82bc43	1.0213703
37	0x3e86198e	0.26191372
38	0x3fa3dd8c	1.2801986
39	0x3fe35339	1.7759773
40	0x4114a340	9.289856
41	0xc12b1738	-10.693169
42	0xbf671cb9	-0.902782
43	0xbf4432b9	-0.76639897
44	0x41a7d011	20.976595
45	0xc1a473c7	-20.556532
46	0xbd6cb2a4	-0.057787552
47	0xbdf44256	-0.11926715
48	0xbd69f8e3	-0.057122122
49	0xbe097fd9	-0.13427676
50	0x3ce667bc	0.028125636
51	0x3e4f5590	0.20247483
52	0x3e67c145	0.2263232
53	0x3d79900f	0.0609284
54	0xbe216c43	-0.15763955
55	0x3e0f1e91	0.13976504
56	0xbe17a6bc	-0.14809698
57	0xbe3923a9	-0.1808001
58	0xbde5afb9	-0.11215157
59	0xbe695302	-0.22785571
60	0xbd746d59	-0.059674595
61	0x3ea09336	0.31362313
62	0x3e34b4dc	0.17647117
63	0x3f102da9	0.5631967
64	0xbd395d69	-0.0452551
65	0xbdf9b071	-0.12191857
66	0xbe0e8c95	-0.13920815
67	0x3e92f91e	0.28705686
68	0xbf0956b6	-0.53647935
69	0x3f0d8b33	0.55290526
70	0x3f0bce60	0.5461178
71	0x3eb98aea	0.36238796
72	0x3fd31b41	1.6492692
73	0xbec42980	-0.38312912
74	0xc05c1d95	-3.4393055
75	0xbfc06094	-1.5029473
76	0xbf71e448	-0.94488955
77	0x402f117d	2.7354424
78	0x3eec1885	0.46112457
79	0xbf11a001	-0.5688477
80	0x3f58a3a4	0.84624696
81	0x3f9445d2	1.1583807
82	0xbee8b7b2	-0.45452648
83	0x3ed9a2d8	0.42507052
84	0x40822e99	4.068188
85	0x411ae78c	9.68153
86	0xc14139e8	-12.076637
87	0x40f89b9c	7.7689953
88	0xc1486e7b	-12.526973
89	0xbf12e791	-0.5738459
90	0xc17a3e11	-15.640153
91	0x4189c700	17.222168
92	0xbf0ed7c6	-0.55797994
93	0xbebfaec9	-0.37438038
94	0xbea90121	-0.33008674
95	0x3e2e57f3	0.17025737
96	0x3e857157	0.26063034
97	0xbd1f9a1a	-0.038965322
98	0xbe194f06	-0.14971551
99	0xbf1c4db6	-0.6105608
100	0xbe752752	-0.23940781
101	0x3e0e850f	0.13917945
102	0x3d85e818	0.06538409
103	0x3e4e5b98	0.20152128
104	0xbe873141	-0.26404765
105	0xbe3f1eec	-0.1866414
106	0xbe1b5b94	-0.15171653
107	0x3ebb414a	0.3657325
108	0xbf826652	-1.0187476
109	0x3f7b742b	0.98224133
110	0x3f8efe99	1.1171447
111	0x3ec9e441	0.39431956
112	0xbf6ef3e4	-0.933409
113	0x3edddaf9	0.43331125
114	0x3f5d9bd5	0.86565906
115	0xbe8075e0	-0.2508993
116	0x3dc43f38	0.095823705
117	0xbe84be05	-0.25926223
118	0xbd07d553	-0.033162426
119	0xbdf6215d	-0.12018082
120	0x3e1ae6c9	0.151271
121	0x3d5fddee	0.054655008
122	0xbd1389aa	-0.03601996
123	0x3ced1676	0.028941374
124	0xbda51d93	-0.080622815
125	0xbd7d940f	-0.061908778
126	0xbd81304a	-0.063080385
127	0xbde93905	-0.11387829
128	0x3a1dc629	0.0006018603
129	0x3e1a94e5	0.15095861
130	0x3e54205e	0.20715472
131	0x3e12b492	0.14326695
132	0x3e08eaf3	0.13370876
133	0xbc044595	-0.00807323
134	0x3be02d78	0.006841358
135	0xbc31c340	-0.010849774
136	0x3b448554	0.0029986696
137	0x3e53f6ef	0.20699666
138	0xbed03919	-0.40668562
139	0xbe92ef28	-0.28698087
140	0xbee90762	-0.45513445
141	0x3bd898ea	0.0066100257
142	0x3ea79426	0.32730216
143	0x3e8bf534	0.27335513
144	0xbe77e649	-0.2420894
145	0x3eb9c90c	0.362862
146	0x3ebdbc9b	0.37057957
147	0xbe725984	-0.2366696
148	0xbe4b5b76	-0.19859108
149	0xbe944a3e	-0.28962892
150	0x3de2e554	0.11078897
151	0xbdd4ba76	-0.10387127
152	0x3ddb0a83	0.10695364
153	0x3f1d129e	0.6135653
154	0x3e852edb	0.2601231
155	0x3eb2df6e	0.34936088
156	0xbe737192	-0.23773792
157	0x3e31827f	0.17334937
158	0xbf121ff9	-0.57080036
159	0x3f1e2750	0.61778736
160	0xbede17c0	-0.43377495
161	0xbebf1103	-0.37317666
162	0xbecd2078	-0.40063834
163	0xbdda4706	-0.10658078
164	0xbd6f2115	-0.05838116
165	0x3e402efa	0.1876792
166	0x3dd355ee	0.10319124
167	0x3ec08c98	0.37607265
168	0x3eec639d	0.4616975
169	0xbde225f9	-0.11042399
170	0x3d8b604a	0.06805475
171	0x3e696fbd	0.22796531
172	0x3d88d61c	0.06681463
173	0x3e23ca7c	0.1599521
174	0xbe03e6b6	-0.12880978
175	0x3d1db9c8	0.038507253
176	0xbe809f07	-0.25121328
177	0x3db04ed3	0.086087845
178	0x3e8e8cce	0.278418
179	0xbf230d50	-0.6369219
180	0xbe3d0563	-0.18459086
181	0xbd29e7dd	-0.041480888
182	0xbd9c9cd1	-0.07647098
183	0xbf38b938	-0.7215762
184	0xbec7d6fe	-0.39031214
185	0xbe80bc50	-0.2514367
186	0xbdb5b64f	-0.08872663
187	0xbd5413e4	-0.05177678
188	0x3f34312d	0.70387536
189	0x3e431752	0.19051865
190	0x3c37ffc4	0.011230413
191	0xbe3293e3	-0.17439227
192	0x3d878eb6	0.06619017
193	0xbd8b44ec	-0.06800255
194	0xbc913fa2	-0.017730538
195	0x3cbe0887	0.023197426
196	0x3c03b216	0.008038064
197	0xbde9726b	-0.113987766
198	0x3e321ae5	0.17393072
199	0x3ddb09db	0.10695239
200	0x3e22f3e5	0.15913351
201	0x3edc7777	0.43059894
202	0x3ed0bd42	0.40769392
203	0xbe776ccf	-0.24162601
204	0x3ce6eada	0.028188158
205	0x3f553849	0.8328901
206	0xbf30762d	-0.6893032
207	0xbecc0dcf	-0.39854285
208	0xbe65c45e	-0.2243819
209	0xbee8d5ea	-0.45475703
210	0x3e40775a	0.18795529
211	0x3d8738da	0.066026405
212	0xbde665c3	-0.11249878
213	0x3ed1054b	0.4082435
214	0x3deffe4e	0.11718427
215	0xbe207601	-0.15670015
216	0x3e1e3cae	0.15452835
217	0x3e7d9958	0.24765527
218	0x3e1f1a9d	0.15537496
219	0xbe41f2f3	-0.18940334
220	0xbecb2b97	-0.39681694
221	0xbe75a08e	-0.23987028
222	0x3ced2f8d	0.028953338
223	0x3df9a311	0.121893056
224	0xbe754800	-0.23953247
225	0xbdd69542	-0.104776874
226	0xbd389a17	-0.045068827
227	0x3e0218bc	0.12704748
228	0xbbfa52ab	-0.0076392493
229	0xbd89da1d	-0.06731055
230	0x3e9ecd03	0.31015787
231	0x3e851df9	0.2599943
232	0x3eac24bc	0.33621776
233	0x404c1d84	3.1893015
234	0xc093a647	-4.6140475
235	0xc075440c	-3.8322783
236	0xbd87bdc8	-0.06627995
237	0xc00a743e	-2.1633449
238	0x3ecd2ebc	0.40074718
239	0x3f089ff0	0.53369045
240	0x3f95416c	1.166059
241	0xbfec7cff	-1.8475646
242	0x3f13f1c4	0.5779078
243	0xbfca25bc	-1.5792766
244	0x3fd1e203	1.6397098
245	0xc11fe709	-9.993905
246	0x3fd55d10	1.6669025
247	0xc182702c	-16.304771
248	0x41995bd7	19.169844
249	0x40191f50	2.3925362
250	0x40c51bae	6.159629
251	0xc1052c42	-8.323305
252	0x40c0f8ee	6.030387
253	0xbe87c052	-0.26513916
254	0xbddeb3bd	-0.10874126
255	0xbebe0e34	-0.3712021

layers.0.bias f4 [64]
0	0xbf2511e0	-0.644804
1	0xc0142429	-2.314707
2	0xbeb028a3	-0.34406003
3	0xc0501be9	-3.2517035
4	0xbf25a9db	-0.64712304
5	0x3d22adfe	0.039716713
6	0xbd625340	-0.055255175
7	0xbe51df0b	-0.2049524
8	0xbe4e2ee9	-0.20135082
9	0xbe8ea10c	-0.27857244
10	0xc001d385	-2.0285351
11	0xbe4b1c30	-0.19834971
12	0xbe0daff2	-0.13836649
13	0xbea08852	-0.31354004
14	0x3d6c7582	0.05772925
15	0xbe7e5f30	-0.24840999
16	0xc03300a5	-2.7969143
17	0x3d148d1f	0.036267396
18	0xbe7132fb	-0.23554604
19	0xbebd2792	-0.36944252
20	0xbe86b620	-0.26310825
21	0xbfc383e8	-1.527463
22	0x3daec9b7	0.08534568
23	0xbe089136	-0.13336644
24	0xbecf038e	-0.404324
25	0xc011c7be	-2.2778163
26	0xbea8b706	-0.32952136
27	0xbf2a0fb5	-0.6643022
28	0xbe8bedf7	-0.2732999
29	0xbe131a9f	-0.14365624
30	0xbebdf7a5	-0.37103
31	0x3e105d9d	0.1409821
32	0xbca90c4f	-0.020635752
33	0xbe0acb55	-0.13554128
34	0xbfec2f30	-1.84519
35	0xbe857671	-0.26066926
36	0xbeba2e13	-0.36363277
37	0xbe2b7a5b	-0.16745894
38	0xbf6ae4e7	-0.9175553
39	0xc14b0cd2	-12.69063
40	0xbe37275a	-0.17886105
41	0xbd92d4c3	-0.07169487
42	0x3d7e7401	0.06212235
43	0xbe91bac8	-0.28462815
44	0xbe7acc7e	-0.2449207
45	0xbd5ae0f2	-0.05343718
46	0xbf521496	-0.8206266
47	0xbe69980d	-0.22811909
48	0xbe4575c4	-0.19283205
49	0xbecc3ffb	-0.39892563
50	0xbde3bc50	-0.11119902
51	0xc077d6b6	-3.87248
52	0x3dcf6a35	0.10127679
53	0xbea4485a	-0.3208645
54	0xbe270806	-0.16311654
55	0xc0ebba87	-7.3665195
56	0xbfbe91ac	-1.4888206
57	0xbe4241bb	-0.18970387
58	0xbe6ec4de	-0.23317286
59	0xbe5f53ba	-0.21809283
60	0xbf7fd0f0	-0.9992819
61	0xbec6e288	-0.38844705
62	0xbf32dc6b	-0.6986758
63	0xbe3c84bd	-0.1841001

layers.1.weight f4 [32, 64]
0	0xbe1c69fd	-0.15274806
1	0xbeb18209	-0.3466952
2	0xbdf6e11a	-0.120546535
3	0xbec8ff9c	-0.39257514
4	0x3d5ec3cc	0.054385945
5	0x3cfbef17	0.030753655
6	0xbdccc2a4	-0.09998062
7	0xbcb01532	-0.021494482
8	0xbdb10c1c	-0.08644888
9	0x3b22b5d9	0.0024827628
10	0xbe9cb604	-0.30607617
11	0xbc29b400	-0.010357857
12	0xbdd3d34d	-0.10343037
13	0xbe034f23	-0.12823157
14	0x3cdc9c50	0.026930004
15	0xbdf13444	-0.11777547
16	0xbee11f2f	-0.43969104
17	0x3c824255	0.01590077
18	0x3d4c8cdf	0.049939033
19	0xbd59c346	-0.053164743
20	0xbd26f0a0	-0.04075682
21	0xbed76aec	-0.42073762
22	0xbb37baf3	-0.0028035014
23	0xbc94b75c	-0.018153839
24	0xbd94a028	-0.0725711
25	0xba8336ac	-0.00100108
26	0x3ce95cb8	0.028486595
27	0xbd5100aa	-0.051026024
28	0xbd351179	-0.044206116
29	0xbe8adc61	-0.2712126
30	0x3d719ba3	0.058986317
31	0x3b9d3480	0.0047975183
32	0xbe1fea3c	-0.15616697
33	0xbc757f55	-0.014983972
34	0xbde91c78	-0.11382383
35	0xbdc30d45	-0.09524015
36	0xbe8c9839	-0.27459887
37	0xbdfdeda6	-0.123988435
38	0xbdb50f2d	-0.08840785
39	0xbec49e91	-0.38402227
40	0x3de86552	0.1134745
41	0x3ae0448c	0.0017110272
42	0x3daebf02	0.085325256
43	0xbdc708db	-0.09718486
44	0xbe6d3f10	-0.23168588
45	0xbd15904d	-0.03651457
46	0x3e3fc399	0.18726958
47	0x3d44be28	0.04803291
48	0x3d98f684	0.07468894
49	0xbdb05433	-0.0860981
50	0xbee6c1a5	-0.45069614
51	0xbdeddb6e	-0.116141185
52	0x3cc9f310	0.024652034
53	0xbc4b1353	-0.012394744
54	0xbe70ae8c	-0.23504084
55	0xbed5855f	-0.41703317
56	0xbe069161	-0.13141395
57	0xbe31df99	-0.17370452
58	0xbcda7328	-0.026666239
59	0xbe10109f	-0.1406884
60	0xbd8ce2cd	-0.06879196
61	0xbe978fe1	-0.29601958
62	0xbdc89927	-0.097948365
63	0xbdb1dade	-0.08684324
64	0xbe7b3fbe	-0.24536034
65	0x409ba712	4.8641443
66	0x3dc50538	0.09620136
67	0x3f2bd709	0.6712499
68	0xbef1035e	-0.4707288
69	0x3da031b7	0.07821982
70	0x3c48a0e5	0.0122453915
71	0xbd193a9e	-0.037409417
72	0xbd2f5aba	-0.042811133
73	0x3ce094c3	0.027414685
74	0x403955a6	2.8958526
75	0x3dc3802a	0.0954593
76	0x3d5233f2	0.05131907
77	0x3d42c7f7	0.047553983
78	0xbdc906e8	-0.098157704
79	0x3dc0b3c6	0.09409289
80	0xbe007fa6	-0.12548694
81	0xbd6dd4df	-0.058064338
82	0x3d5142a7	0.051088955
83	0x3eb990a8	0.36243176
84	0x3ca4ed68	0.020132735
85	0x3fca1c79	1.5789939
86	0x3d3164fb	0.043309193
87	0xbdb47dfe	-0.088130936
88	0x3ea11d12	0.3146749
89	0x3f8fdacf	1.123865
90	0xbdfcc42f	-0.123421066
91	0x3dd773bc	0.105201215
92	0x3e382f1e	0.17986724
93	0x3d04fd0b	0.032467883
94	0xbd07e981	-0.03318167
95	0xbb96a42b	-0.004597207
96	0x3ba66f42	0.005079181
97	0x3e2ff487	0.17183124
98	0x3da2bbac	0.07945952
99	0xbe84dc70	-0.2594943
100	0x3dbf344a	0.09336145
101	0x3dc33ec8	0.09533459
102	0x3ea2a659	0.31767538
103	0xc05a06b5	-3.4066594
104	0x3e543854	0.20724612
105	0x3c9db125	0.019249508
106	0xbdc78d06	-0.09743695
107	0x3eb1c173	0.34717903
108	0xbc42397c	-0.011854526
109	0x3c6dd3d6	0.014515838
110	0x3ec6700d	0.38757363
111	0xbde69db6	-0.1126055
112	0x3c03e2cc	0.008049678
113	0xbdd6c3b9	-0.1048655
114	0xbcec716e	-0.028862681
115	0xbfcaaee4	-1.5834622
116	0xbd61804f	-0.055054005
117	0xbda3d8ca	-0.080003336
118	0x3dbf6e90	0.0934726
119	0x3f498470	0.7871771
120	0xc0590da8	-3.3914585
121	0xbccbbe27	-0.024870945
122	0xbe038a20	-0.1284566
123	0x3c798772	0.015230047
124	0x3f0e0e39	0.5549045
125	0x3cd89f55	0.026443163
126	0x3db4c60b	0.08826836
127	0x3e2ec805	0.17068489
128	0xbd73ab87	-0.059489753
129	0x4045bbd3	3.0895889
130	0xbbd89820	-0.0066099316
131	0x3ef433e8	0.4769585
132	0xbe97839d	-0.295926
133	0xbdc269dc	-0.09492847
134	0xbe502cd2	-0.20329598
135	0x3c85be88	0.016326204
136	0x3cf38bd3	0.02972976
137	0x3d308ad1	0.043101136
138	0x4037755c	2.866538
139	0x3d769cc9	0.060208116
140	0x3da1deea	0.079038456
141	0x3dc7c3aa	0.09754117
142	0xbcc4c967	-0.024021817
143	0xbc8cb134	-0.01717434
144	0xbb1c0979	-0.0023809357
145	0xbcb5cc68	-0.022192195
146	0xbe0202ed	-0.12696429
147	0x3e8ac415	0.27102724
148	0xbdae65b9	-0.08515496
149	0x3faad0ed	1.3345009
150	0x3cd53a88	0.026028886
151	0x3c79de49	0.015250751
152	0x3e4d67b4	0.20059091
153	0xbe93cdb6	-0.28867882
154	0xbe5cb5a2	-0.21553662
155	0x3b2ac542	0.0026057516
156	0x3e170760	0.14748907
157	0x3e09b877	0.13449274
158	0x3d4be532	0.049779125
159	0x3ce465ac	0.027880512
160	0x3c691338	0.0142257735
161	0xbcf9765a	-0.030451942
162	0x3e62fcdb	0.22166769
163	0xbd55c480	-0.05218935
164	0x3d62d0e5	0.055375
165	0x3d453618	0.04814729
166	0x3dbd5ee7	0.09246617
167	0xbf1cc4ec	-0.6123798
168	0x3e3d7fd6	0.18505797
169	0xbe3510c9	-0.17682184
170	0x3def1a00	0.11674881
171	0xbe2170f4	-0.15765744
172	0x3deb7ef7	0.11498826
173	0x3e4dcb86	0.2009717
174	0x3eea0ed7	0.45714447
175	0x3d7a2806	0.061073326
176	0x3d26c598	0.040715784
177	0x3d6aa97a	0.05729053
178	0x3d729dbd	0.059232462
179	0xc0161738	-2.3451672
180	0xbc86f633	-0.016474819
181	0xbdd61db9	-0.10454888
182	0xbde15223	-0.110019945
183	0xc09088ee	-4.516715
184	0xbf3eb2c9	-0.74491554
185	0xbe310dbd	-0.17290397
186	0xbd823a9e	-0.063588366
187	0xbd9ade91	-0.075619824
188	0x3f039ded	0.5141285
189	0xbdc8b830	-0.09800756
190	0x3e580fd4	0.21099788
191	0xbcd08f70	-0.025459021
192	0xbd1d1740	-0.03835225
193	0xbc59ee9b	-0.013301517
194	0xbe09fdd7	-0.13475738
195	0x3b9ac13d	0.004722743
196	0xbe0a059b	-0.13478701
197	0xbd2cd319	-0.042193506
198	0x3cff0da4	0.031134434
199	0xbd3a0266	-0.045412444
200	0xbc9cec3a	-0.01915561
201	0xbe21ac1f	-0.15788315
202	0xbd8467e9	-0.06465132
203	0xbda9d398	-0.082923114
204	0xbd74bf1f	-0.05975258
205	0xbda49796	-0.08036725
206	0xbdb74b4b	-0.08949908
207	0x3de45e49	0.11150796
208	0xbe891db8	-0.26780486
209	0xbbb07839	-0.0053854254
210	0x3bbd1ece	0.0057714945
211	0xbe3b0870	-0.18264937
212	0xbe00d5a7	-0.12581502
213	0xbe91b9a2	-0.2846194
214	0x3d4a804c	0.04943876
215	0x3ac2aa70	0.001485182
216	0xbde4e9a2	-0.111773744
217	0xbe621a93	-0.2208045
218	0xbd966c3e	-0.07344864
219	0xbd57f7fc	-0.05272673
220	0xbe215804	-0.15756232
221	0x3d5a7155	0.053330738
222	0xbdcbfed2	-0.099607125
223	0x3d5f7699	0.054556463
224	0xbdf911e7	-0.12161618
225	0xbc5b0626	-0.013368165
226	0xbde70b71	-0.11281479
227	0x3a73a2c6	0.00092939695
228	0xbe231e36	-0.15929493
229	0x3a7bd300	0.00096063316
230	0xbcbb96f3	-0.022899127
231	0xbee18d22	-0.44052988
232	0xbbd6fd20	-0.0065609366
233	0xbe282b53	-0.16422777
234	0xbdcd93de	-0.10037969
235	0x3d4372fa	0.047717072
236	0x3badaf70	0.005300455
237	0x3d3cd54f	0.046101864
238	0xbdcd456a	-0.10023005
239	0x3d9eb648	0.07749611
240	0xbd8eeefa	-0.06979175
241	0xbcdc89b8	-0.026921138
242	0xbe37ac6d	-0.17936869
243	0xbe118e4f	-0.14214443
244	0x3c0605c0	0.008180082
245	0xbe14a660	-0.14516592
246	0xbe0d61ef	-0.1380689
247	0x3bf90094	0.007598946
248	0xbcfdc57d	-0.030977959
249	0xbe2c7a5c	-0.16843551
250	0xbc02779e	-0.007963089
251	0xbd9c7f2c	-0.076414436
252	0x3c50a540	0.012734711
253	0xbc7beaf4	-0.015375841
254	0x3df147ad	0.11781249
255	0xbd3682dc	-0.04455839

layers.1.bias f4 [32]
0	0xbf09f76a	-0.5389315
1	0xc1468323	-12.407016
2	0xc0765b6e	-3.8493304
3	0xbe94a844	-0.29034626
4	0xbf280a0d	-0.65640336
5	0xbce6a7b7	-0.028156145
6	0xbf095218	-0.5364089
7	0xbe9fa30c	-0.31179082
8	0xc0e6d602	-7.213624
9	0xc1a0d8b7	-20.105818
10	0xbee1ec88	-0.44125772
11	0xc0d7cbc1	-6.7436223
12	0xbfbde3a4	-1.4835095
13	0xc19ef9c0	-19.871948
14	0xc178c948	-15.549141
15	0xc106a063	-8.414157
16	0xc16ecb94	-14.924702
17	0xbe953ebd	-0.29149428
18	0xbea1feaf	-0.3163962
19	0x3db17d3d	0.086664654
20	0xbe8ac49c	-0.27103126
21	0xc1213959	-10.076501
22	0xbeb70cba	-0.35751897
23	0xbd841c27	-0.06450682
24	0xc12ba003	-10.726565
25	0xc1054d75	-8.33141
26	0xbebf6e75	-0.3738896
27	0xbfdbfb8e	-1.7186143
28	0x412135bd	10.07562
29	0xbf1f4787	-0.6221852
30	0xbe2664df	-0.16249417
31	0xbef3c73f	-0.4761295

layers.2.weight f4 [16, 32]
0	0xbdd42fbb	-0.10360666
1	0xbda4dbfb	-0.080497704
2	0xbde30ac2	-0.11086036
3	0xbde24c2c	-0.11049685
4	0x3e9f2c58	0.3108852
5	0x3d148b0d	0.03626542
6	0x3dee8df1	0.11648167
7	0x3d2682a0	0.040651917
8	0xbe2a8c24	-0.16655022
9	0xbd8593f4	-0.065223604
10	0xbd2336be	-0.039847128
11	0xbda12714	-0.07868782
12	0xbd65bb8a	-0.056087054
13	0x3d99745a	0.074928954
14	0xbe40511e	-0.18780944
15	0xbe5bf55e	-0.21480319
16	0xbe080583	-0.13283353
17	0xbebeb16e	-0.37244743
18	0xbc2e58a4	-0.010641251
19	0xbe1156fd	-0.1419334
20	0x3e0db530	0.13838649
21	0xbef769be	-0.48322862
22	0x3f202003	0.62548846
23	0xbd185f5b	-0.037200313
24	0x3de14e34	0.11001244
25	0xbf1ddf71	-0.6166907
26	0x3eb6c89f	0.35699937
27	0xbe5ffa98	-0.21872938
28	0xbdd8429b	-0.10559579
29	0xbd98bb36	-0.07457583
30	0x3e77c1b3	0.24194984
31	0xbcb46b3c	-0.02202379
32	0x3d6bcab9	0.05756638
33	0xbed4c7b0	-0.415586
34	0xbc3c35a3	-0.011487397
35	0xbd90dc97	-0.07073324
36	0xbe2e244e	-0.17006037
37	0x3daf73dc	0.0856702
38	0xbdb651b6	-0.08902304
39	0x3ca04968	0.019566253
40	0xbe67ac8e	-0.22624418
41	0xbe437ca2	-0.19090512
42	0x3d437f84	0.04772903
43	0x3be3596e	0.006938151
44	0xbec1fcd8	-0.37888217
45	0xbdc08086	-0.09399514
46	0x3d061f67	0.03274479
47	0xbd48ee9a	-0.049055673
48	0xbdec6544	-0.115427524
49	0x3c2d0651	0.010560588
50	0x3e265c3b	0.1624612
51	0xbdb7a0e6	-0.08966236
52	0x3d9c9b66	0.076468274
53	0xbe85a71b	-0.26104054
54	0x3d79d9cf	0.060998734
55	0xbdd7509c	-0.10513422
56	0xbd0350e6	-0.032059573
57	0xbe86ba96	-0.2631423
58	0xbdabb3e1	-0.083839186
59	0xbe77368e	-0.24141905
60	0xbd2ca71f	-0.042151567
61	0x3c8e8f8c	0.017402433
62	0xbde8abc4	-0.11360887
63	0x3d237414	0.039905623
64	0xbe15e314	-0.14637405
65	0xbe0ee13c	-0.13953108
66	0xbdf6f9df	-0.12059378
67	0xbbefe403	-0.0073208823
68	0xbe1dda86	-0.15415391
69	0xbe648d5d	-0.22319551
70	0xbc82cf84	-0.015968092
71	0xbde76056	-0.112976715
72	0x3d1a2e79	0.037641976
73	0xbeec93d9	-0.4620655
74	0x3e08b98b	0.13352029
75	0xbeb6a8e2	-0.35675722
76	0x3d7b2278	0.06131217
77	0xbe1e8f91	-0.15484454
78	0xbd321c09	-0.043483768
79	0xbe4db765	-0.2008949
80	0xbe765e5a	-0.2405943
81	0x3d2f88d6	0.042855106
82	0xbdc4a623	-0.096020006
83	0x3a942b54	0.0011304417
84	0x3d5b5c97	0.053555097
85	0xbe2e514e	-0.17023203
86	0x3d9bddd8	0.07610673
87	0xbdef3941	-0.11680842
88	0xbdce32ae	-0.1006826
89	0xbeaee327	-0.34157678
90	0x3d880c6d	0.06642995
91	0xbe6e20c5	-0.23254688
92	0xbdcba5d8	-0.099437416
93	0x3d5cdf32	0.053923793
94	0x3d88d22a	0.066807106
95	0xbdeda763	-0.11604192
96	0xbcd7d445	-0.026346335
97	0xbf85ecd7	-1.0462903
98	0xc0d979ba	-6.796109
99	0x3f11c1ab	0.5693614
100	0x3e325870	0.17416549
101	0x3db8d6b1	0.09025324
102	0x3e574034	0.21020585
103	0x3e3dfe29	0.18553986
104	0xc0218c29	-2.5241797
105	0xc0318e38	-2.7743053
106	0xbe0d883a	-0.13821498
107	0x3d5fdf1c	0.054656133
108	0xc02a02e2	-2.656426
109	0x40023dac	2.0350142
110	0xc015e553	-2.3421218
111	0xbf083326	-0.53203046
112	0x3e940a44	0.28914082
113	0xbd8dd7ec	-0.069259495
114	0x3eade0ce	0.33960575
115	0xbf00e820	-0.50354195
116	0x3d1d71d6	0.03843864
117	0xc0931b9e	-4.5971212
118	0x3f4e0488	0.80475664
119	0xbe3483e7	-0.17628442
120	0xbfc0daa9	-1.506673
121	0xc0533a14	-3.3004198
122	0xbc44a60e	-0.012002481
123	0xbe8f0192	-0.27930886
124	0xbf04ff96	-0.51952493
125	0x3ea23279	0.31679133
126	0xbe04106d	-0.12896891
127	0x3c95416a	0.018219668
128	0xbd5e758a	-0.054311313
129	0xbf1bb750	-0.6082659
130	0xbf4273fd	-0.75958234
131	0x3f29e3f1	0.66363436
132	0xbe593586	-0.21211824
133	0xbdea586e	-0.11442648
134	0x3cce4886	0.025181066
135	0x3ce2e472	0.027696822
136	0xbf005738	-0.50133085
137	0x3d13c04b	0.036072057
138	0x3e097631	0.13423993
139	0xbfb0d231	-1.3814145
140	0x3e0c6db1	0.13713719
141	0x3e056008	0.13024914
142	0xbf7a418a	-0.97756255
143	0xbf0e012f	-0.55470556
144	0xbf6b284b	-0.9185836
145	0xbc4f9d47	-0.012671775
146	0x3e72b612	0.23702267
147	0x3f00a425	0.50250465
148	0x3e27d1bd	0.16388603
149	0xbf475cda	-0.77876055
150	0x3f22769a	0.6346222
151	0x3d8f1522	0.06986453
152	0xbe3316c7	-0.17489158
153	0xbe756bbd	-0.2396688
154	0x3db5231a	0.08844586
155	0xbfce15e4	-1.610043
156	0xbc875c19	-0.016523408
157	0xbd313738	-0.04326555
158	0xbe7b1701	-0.24520494
159	0x3ca90ff9	0.0206375
160	0x3d8bcb2c	0.06825861
161	0xbde54a3a	-0.11195798
162	0xbe353b4b	-0.176984
163	0xbe2eced3	-0.17071085
164	0xbe136192	-0.14392689
165	0x3de8845f	0.11353373
166	0xbe07f164	-0.13275677
167	0x3d2da28b	0.04239134
168	0xbe3b76f4	-0.18307096
169	0xbe8049a6	-0.2505619
170	0x3de585c7	0.11207157
171	0x3ce3a0ce	0.027786639
172	0xbe3a06cd	-0.18166657
173	0xbed850e3	-0.42249212
174	0xbd39159c	-0.045186624
175	0xbeb96348	-0.36208558
176	0xbd5034bc	-0.05083154
177	0x3dbdc346	0.09265761
178	0xbdbf0072	-0.09326257
179	0x3dc54a46	0.09633307
180	0x3d44ba8d	0.04802947
181	0xbea6221a	-0.32447892
182	0xbd9155d9	-0.07096452
183	0x3e291589	0.16512121
184	0xbea6707d	-0.32507697
185	0xbf4145c3	-0.7549707
186	0xbe0791b8	-0.13239181
187	0x3d34cf76	0.044143163
188	0xbe048c37	-0.12944113
189	0xbd3473f3	-0.04405589
190	0x3ce289f0	0.027653664
191	0x3d27a5b1	0.0409295
192	0xbd83b6eb	-0.06431373
193	0xbeee1c59	-0.46506003
194	0xbed39e26	-0.41331595
195	0xbe232abb	-0.15934269
196	0xbe125653	-0.14290743
197	0xbb2b7568	-0.002616251
198	0x3e237c94	0.15965492
199	0xbbf46282	-0.007458032
200	0xbec2afdb	-0.38024792
201	0xbf0ff0cc	-0.562268
202	0x3b753de4	0.0037420923
203	0xbe35ce6f	-0.1775453
204	0xbeb71672	-0.35759312
205	0xbe515eb8	-0.20446289
206	0xbe4da4a7	-0.20082341
207	0xbe5fff0e	-0.2187464
208	0xbeee0621	-0.4648905
209	0x3e30412b	0.1721236
210	0x3d4f0903	0.050545704
211	0xbc6469d7	-0.01394125
212	0xbe577c4f	-0.21043514
213	0xbdd6f074	-0.104950815
214	0xbe5d4bee	-0.21610996
215	0xbe3fa931	-0.18716885
216	0xbe9a308d	-0.30115166
217	0xbeb54aa5	-0.35408512
218	0x3ccae6f3	0.024768328
219	0xbdd5940f	-0.104286306
220	0xbe11ac6c	-0.1422593
221	0xbe181160	-0.14850378
222	0x3d84339e	0.06455158
223	0xbdba4795	-0.090956844
224	0x3e0f69df	0.1400523
225	0xbfb7ab36	-1.4349124
226	0x40127fdf	2.2890546
227	0xbd0377d4	-0.0320967
228	0xbef42e6b	-0.47691664
229	0x3e1c91da	0.15290013
230	0x3d8b2e0f	0.06795894
231	0xbe099e1a	-0.13439217
232	0x4015c068	2.3398685
233	0x3ff974af	1.9488734
234	0x3d9e3c20	0.07726312
235	0xbf1fef94	-0.6247494
236	0x4015a729	2.3383276
237	0xc09434e3	-4.631456
238	0xc0d9170a	-6.7840624
239	0xbf8e77ee	-1.113035
240	0xbeb05957	-0.3444316
241	0xbd31ea02	-0.043436058
242	0xbc6bb91c	-0.014387395
243	0x3fbfb99b	1.4978517
244	0xbe0deaad	-0.13859053
245	0x3fa78559	1.308757
246	0xbcd0e474	-0.02549956
247	0xbe4919b4	-0.19638711
248	0x3f42d638	0.7610812
249	0xbf22a83e	-0.6353797
250	0xbdb2070e	-0.08692752
251	0x3df97ed1	0.121823914
252	0x3f6b2956	0.9185995
253	0x3dec7972	0.11546601
254	0x3e0342ec	0.12818497
255	0x3dc8c271	0.09802712

layers.2.bias f4 [16]
0	0xbf816c41	-1.0111161
1	0xbf427a1d	-0.7596758
2	0xbf410bc6	-0.7540859
3	0xc0d20617	-6.5632434
4	0xbff325c0	-1.8995895
5	0xbfa20185	-1.2656714
6	0xbf89a1e9	-1.0752536
7	0x3dc9a0e9	0.09845144
8	0xbeb3e62d	-0.35136548
9	0xbf39caf8	-0.7257533
10	0xbfdaeff4	-1.7104478
11	0x410c5bdb	8.772426
12	0xbf84ed62	-1.0384943
13	0xc11875e0	-9.528778
14	0xc0e2cede	-7.0877523
15	0xbf871733	-1.0553955

layers.3.weight f4 [1, 16]
0	0x3da17df5	0.078853525
1	0xbd0690f1	-0.03285307
2	0xbe3768bc	-0.17911047
3	0xbe310fd5	-0.17291196
4	0x3e92c9e0	0.28669643
5	0xbd60d788	-0.054893047
6	0xbe847c01	-0.25875857
7	0x3e5a87e0	0.21340895
8	0xbe9c1500	-0.30484772
9	0xbe38de94	-0.18053657
10	0xbe413372	-0.18867281
11	0xbeb3438c	-0.35012472
12	0xbcf854a5	-0.0303138
13	0x3ecf7bb5	0.40524068
14	0xbdbfa775	-0.09358112
15	0xbe17988d	-0.14804287
