python/networks/testNE3_single_param.pth (torch, 161610 bytes, 5 tensors)

layers.0.weight f4 [256, 23]
000000 48 c2 ac bf 76 62 bf bf 30 4e bc bf 64 c5 8a 3f
       -1.349679 -1.4951923 -1.4711361 1.0841489
000010 82 21 3b bd 45 19 63 bf c4 eb 25 bd ae ca fa 3d
       -0.045686252 -0.88710433 -0.040508047 0.12245689
000020 da 49 a8 3e 22 28 50 c0 92 5e 4b 3f 2a 3f cc 3e
       0.32868844 -3.2524495 0.7944118 0.3989194
000030 4b 39 9d be 4a 75 2e 3f 62 42 df be 4b a9 45 c0
       -0.30707774 0.6814772 -0.43605334 -3.0884578
000040 66 cb 64 3e 12 49 53 3f dc 36 37 bf f0 5f 76 40
       0.22343215 0.8253337 -0.71568084 3.8496056
000050 a5 cb 56 bf 39 aa e4 3f c7 05 57 bf 14 c8 d0 be
       -0.83904487 1.7864448 -0.8399319 -0.40777647
000060 4c 6b bd be 6d 6c 11 bf 88 e3 42 bd 09 62 00 be
       -0.36995924 -0.5680607 -0.047580272 -0.12537397
000070 4a 98 0f 3c d6 95 2d bc aa d4 40 3e 7b 38 92 be
       0.008764336 -0.010594806 0.18831125 -0.28558716
000080 1c 3c 1d be 20 02 24 bf e3 53 ee 3d 3e cc 3c 3e
       -0.15354961 -0.6406574 0.11637094 0.18437287
000090 49 ab b5 3d 05 51 19 3d be 17 c6 3e 15 a7 bd 3e
       0.08870561 0.037430782 0.3868999 0.37041536
0000a0 15 c5 e6 bd 5d 89 1e bf 01 c4 67 be 6c af 44 be
       -0.11268059 -0.6192835 -0.22633363 -0.19207543
0000b0 e0 91 0b bf 1b bc 44 bf 8e 12 9d 3e fb 9d e1 3e
       -0.5451946 -0.76849526 0.3067822 0.44065842
0000c0 a2 2d bd 3e a0 c3 39 3e 30 5d 53 be c2 d6 a7 be
       0.36948878 0.18141031 -0.20641017 -0.32781035
0000d0 7b e1 99 3e 50 33 2f 3e 12 28 e4 be 07 5c de bd
       0.3005484 0.17109418 -0.4456182 -0.108573966
0000e0 d9 74 25 3e e1 ba 5c bc e3 aa 9d 3e 1c 43 dc 3c
       0.16157855 -0.01347229 0.3079444 0.026887469
0000f0 b6 09 35 bd 39 b8 24 c0 c2 10 46 40 a6 4a be 3f
       -0.044198714 -2.573744 3.0947728 1.4866531
000100 ab f5 3f 3f c4 aa 43 c0 24 b4 0f 40 e1 7c 3d bf
       0.74984235 -3.0572977 2.24537 -0.74018675
000110 65 05 91 bf fb d4 d1 be de fd ab be 9b 1c c4 be
       -1.1329771 -0.40982804 -0.33592123 -0.38303074
000120 72 c3 c6 3f 43 36 30 be b4 80 e0 bf bc 6b 97 bf
       1.5528395 -0.17208199 -1.7539277 -1.1829753
000130 b9 a1 0f be b1 9c 80 3f 4e 97 c2 3e 34 89 23 3f
       -0.14026536 1.0047818 0.3800606 0.6388123
000140 1a bf a5 be 60 4b 12 bf b7 c2 4d 3f 16 4c dc 3d
       -0.3237236 -0.57146263 0.80375236 0.107567
000150 37 c8 90 bf 9a 48 00 3e 39 d7 cb 3f 7f d1 b7 3d
       -1.1311101 0.12527695 1.5925056 0.08975505
000160 c4 77 74 bf 47 07 6a 3f 72 06 81 bf ee 06 6e bf
       -0.9549525 0.91417354 -1.0080092 -0.92979324
000170 8c 68 91 bb 8d b7 c8 3e 98 e4 99 be c1 6b 4c be
       -0.004437512 0.39202538 -0.30057216 -0.1996298
000180 d0 82 43 3e 04 b8 88 3c 51 da d3 3d 7f 99 4e be
       0.1909287 0.016689308 0.10344375 -0.20175742
000190 aa 48 d9 bd 6f b1 18 be 8c 6b 5a 3d bd 0f 20 be
       -0.10609563 -0.14911436 0.05332522 -0.15631004
0001a0 0e 0e 14 be 93 65 14 3e 35 fe 7c be e2 95 61 c0
       -0.14458486 0.14491872 -0.24706347 -3.5247731
0001b0 30 27 45 c0 66 e2 04 40 a6 81 84 3f 28 fd 59 40
       -3.0805168 2.0763183 1.0352066 3.4060764
0001c0 11 76 44 40 3a 92 cd bf eb 2e dd bf 5d f2 e8 3d
       3.0697062 -1.606025 -1.7279943 0.11374352
0001d0 44 e4 cd 3e 28 cc b1 bd 02 03 8b be 68 a7 ff bd
       0.40213215 -0.08681518 -0.27150732 -0.12483102
0001e0 4e ea 42 3e eb b1 aa 3d 31 bc 6c bc a6 d4 6c be
       0.19034693 0.083347164 -0.014449165 -0.23127994
0001f0 fe 0c 46 3e 8b 4f a5 3d af 69 47 bf f5 7b b2 be
       0.19340894 0.08071812 -0.77895635 -0.34860197
000200 5d 1b df bc 3b e3 89 be 25 d9 63 40 7f 0e 80 3f
       -0.027234728 -0.26931176 3.5601285 1.0004424
000210 9e 79 6c be ee f1 5a 40 89 40 01 c0 78 ea 1c c0
       -0.23093268 3.4210162 -2.019564 -2.4518108
000220 9a dd e6 bf 77 4d 18 bf 20 20 c1 3e 9a 06 27 3f
       -1.8036377 -0.594932 0.37719822 0.6524445
000230 93 5c 14 3f 4c c3 07 3e c5 85 1e 3e ff e3 e6 be
       0.5795376 0.13258094 0.15480717 -0.45095822
000240 cc 7e 16 bf f0 63 32 3d c2 9e 56 3f 8d 92 be 3e
       -0.58787227 0.04355234 0.83835995 0.37221184
000250 5c 1f 46 3e 22 12 a0 3e 51 d7 da be 73 43 a2 bd
       0.193479 0.31263834 -0.42742398 -0.07923021
000260 39 dc 6b bc d2 88 1e c0 5b d5 89 3f 4e fa 1a c0
       -0.014395767 -2.4771008 1.0768236 -2.4215274
000270 4f e9 84 3f f8 43 72 bf c9 9a e2 3f 90 9c c6 bf
       1.03837 -0.9463496 1.7703487 -1.5516529
000280 0a da 47 40 9f 7e 77 bf cf 7b 20 bf 75 37 94 bf
       3.122683 -0.96677583 -0.62688917 -1.1579424
000290 96 ed 9a be fc 20 00 bd 17 fe a0 3e b1 44 c0 3e
       -0.3025939 -0.031281456 0.31443855 0.37552407
0002a0 3d 6a 3e 3d a4 4f 79 be 47 ba 9d be af 3d b4 be
       0.046488035 -0.24346787 -0.3080618 -0.3520331
0002b0 0e 7a 48 be ab 39 25 3e 5a b8 21 3d 02 e4 8e bb
       -0.1957781 0.1613528 0.039482452 -0.0043606767
0002c0 5d 77 21 3f 17 39 1c 3f d7 6d 1a 3f 22 d4 4b bf
       0.6307276 0.6102461 0.6032385 -0.79620564
0002d0 3f e1 d1 3c 5f 01 1c be 95 6e 8a 3f 6b d7 7e bf
       0.025620101 -0.15234898 1.0814997 -0.9954745
0002e0 a4 97 08 bf 77 38 80 be a7 52 0c bf 5e ea be 3e
       -0.53356385 -0.2504308 -0.5481362 0.37288183
0002f0 ff 28 62 bd a3 5e 3c be 02 bc 37 3e e8 83 7e bd
       -0.05521488 -0.18395476 0.17942813 -0.062137514
000300 45 d0 f0 bc a5 dc 3c be 7a 2e 50 3e bd e2 f7 3d
       -0.029396186 -0.18443544 0.2033023 0.12103794
000310 76 b0 8b 3f 29 18 9d 3d a5 d0 15 c0 a0 b9 4c 3e
       1.0913227 0.07670624 -2.3408597 0.19992685
000320 9d de 62 be 96 ce fc bd 42 43 94 40 d8 10 ef bc
       -0.22155233 -0.12344091 4.63321 -0.029182836
000330 33 fb 88 3e 46 cd 1a 3e 0b 25 94 c0 37 d6 35 bf
       0.2675415 0.15117368 -4.629522 -0.7102999
000340 fc 59 b8 be f5 9d 10 bf 0c ce d7 3c 7e 29 c5 3d
       -0.36006153 -0.56491023 0.026343368 0.09627055
000350 f0 24 8a 3e 86 16 ef 3e 8a c9 06 bd 74 0e 91 3d
       0.26981306 0.46696872 -0.032907046 0.07082835
000360 e2 0e 95 3e a6 86 a6 3d 08 46 e7 bf 74 b1 f9 be
       0.29112917 0.08131151 -1.8068247 -0.48768198
000370 cd 87 db bc 2d 5e d3 3f 90 d2 29 bd 31 77 14 c0
       -0.026798153 1.6513115 -0.041460574 -2.3197749
000380 82 3c bd 3d ac 05 73 40 c0 1f 1e bf c0 7a 2b 40
       0.092400566 3.7972212 -0.61767197 2.679367
000390 5b 36 b9 bd 7f 93 70 c0 a8 25 c3 bf 38 84 8e bf
       -0.090435706 -3.7590024 -1.5245867 -1.11341
0003a0 05 dc 99 bf 41 c8 3e 3f 4b b6 df 3d 7f e6 99 be
       -1.202027 0.74524313 0.109234415 -0.30058667
0003b0 9a b6 a8 3e de 61 22 be 72 ec d9 be 62 0c 0f be
       0.32951814 -0.15857646 -0.42563206 -0.13969567
0003c0 ac 10 8d be 23 f2 33 bf 7f aa f1 3d 1c cb ff be
       -0.27551782 -0.70291346 0.11800098 -0.49959648
0003d0 29 59 00 be 01 66 de bf 33 3f 72 bf f7 84 fa bf
       -0.12534012 -1.7374879 -0.94627684 -1.9571828
0003e0 15 ca 98 3f d9 2c 1c 3f 7f ed bf 3f 08 2b 86 c0
       1.193667 0.6100593 1.4994353 -4.192753
0003f0 73 ba 8f 3d cf 39 66 bd 00 9a 36 be 03 1b 60 bd
       0.07017984 -0.056207474 -0.17832184 -0.05471326

layers.0.bias f4 [256]
000000 53 15 4c bf be 33 6f bf af 0e 84 bf 18 1a a7 3d
       -0.7972004 -0.9343833 -1.0316981 0.08159274
000010 25 14 3f bf 37 e7 64 bf 7b 3f b6 bf d9 66 da bf
       -0.74640113 -0.89415306 -1.4238123 -1.7062637
000020 af e1 d2 bf ec 15 d1 bf d8 b9 bd bf bc bb 9d be
       -1.6475123 -1.6334815 -1.482234 -0.30807292
000030 f5 79 55 bf f1 23 d9 3b 40 e0 cb bf ec 42 dc bf
       -0.83389217 0.006626599 -1.5927811 -1.7207923
000040 5e 3a 28 3e 11 ad ca bf d2 70 aa bf 47 e4 6f bf
       0.16428515 -1.5834066 -1.331568 -0.937077
000050 55 4c 80 bf 95 8e 91 bf 60 23 6e be 6d 7c 97 bf
       -1.0023295 -1.1371638 -0.23255682 -1.1834847
000060 48 ab 4f bf 73 9e a0 be f6 95 dd bf 5b 11 d5 bf
       -0.8112073 -0.31370887 -1.731139 -1.6645921
000070 4f 12 bf bf aa 74 1f bf b4 3b 9c bf c1 a7 85 be
       -1.4927462 -0.6228739 -1.220572 -0.2610455
000080 ba 66 35 bf b3 4e 83 3d 44 b1 c8 bf cf c5 89 3d
       -0.70859873 0.06411495 -1.5679097 0.06727182
000090 b9 d4 65 bf 0f bb 9e bf de d2 a5 bf 72 e6 b7 bf
       -0.89777714 -1.2400836 -1.2954977 -1.4367201
0000a0 b9 8a bf bf e8 cc fa bf e7 a8 c0 bf 21 14 31 bd
       -1.496421 -1.9593782 -1.5051545 -0.043232087
0000b0 dd 0f d9 bf f1 86 96 bf bf f6 4e bf 04 f9 e3 3e
       -1.6957966 -1.1759931 -0.80845255 0.4452592
0000c0 46 78 82 bf 3a f4 fd 3d 11 52 92 bf 8a 38 59 bf
       -1.0192955 0.12400098 -1.1431295 -0.84851897
0000d0 2b e9 ea be f2 20 54 be c4 0f 00 bf 27 14 1c bf
       -0.45881018 -0.20715693 -0.50024056 -0.6096825
0000e0 d4 e8 ba bf dc 89 aa bf 7b d6 a5 bf 70 87 93 bf
       -1.4602304 -1.3323321 -1.2956079 -1.1525707
0000f0 c5 f0 24 bf 2e 23 f9 bf bb 0e 7d bf 4a b5 4b 3e
       -0.64429885 -1.9463861 -0.988506 0.19893375
000100 4a 60 92 bd 38 05 65 3f 4a 5e 6e bf 02 47 2a bf
       -0.07147272 0.8946109 -0.93112624 -0.665146
000110 d8 12 b5 bf 01 23 4d be 9f 41 a4 bf e3 ee 46 3f
       -1.4146376 -0.20032884 -1.2832526 0.7770826
000120 38 88 01 c0 91 f6 af be f8 74 19 bf 64 24 a9 bf
       -2.0239391 -0.34367803 -0.59944105 -1.321423
000130 c7 ae 67 3e cc 6c 3a bf 5a 31 6f bf e7 57 3b bd
       0.22625266 -0.7282226 -0.9343468 -0.045738127
000140 eb 5c 7d bf 94 ee a6 bf c4 b2 c9 be d1 90 63 3f
       -0.98969907 -1.3041558 -0.393942 0.8889285
000150 11 49 aa bf 5b 02 97 bd dc d5 d7 bf 97 7c cf bc
       -1.3303548 -0.07373496 -1.686214 -0.025327964
000160 2c d4 f9 ba 1b 8d 95 bf 2c ad 62 bc 3b c6 b5 bf
       -0.0019060425 -1.1683687 -0.013835233 -1.420112
000170 3c d3 3a bf 7f 1e 8c be 30 df 83 3e 8d 53 c9 bf
       -0.7297857 -0.27367017 0.25756216 -1.5728623
000180 12 93 56 be 07 3d 90 be 24 05 41 bf 2c 05 cc bf
       -0.2095454 -0.2817156 -0.7539847 -1.5939078
000190 81 31 84 be 1e 2b 02 c0 13 51 48 3b 08 09 f2 bf
       -0.25819018 -2.0338817 0.0030565902 -1.8909006
0001a0 be 93 c4 bf 92 e6 f5 bf eb e0 e8 bf a7 55 66 bf
       -1.5357587 -1.921099 -1.819364 -0.89974445
0001b0 59 9d c8 bf 45 fb 05 3e d3 69 3f bf f5 c0 d3 bf
       -1.5673019 0.13084133 -0.7477085 -1.6543261
0001c0 ec 18 be bf 5c b5 ec bf f2 0e 88 be cf 14 b2 bf
       -1.4851356 -1.8492846 -0.26573902 -1.39126
0001d0 47 76 0e be 31 ec 65 be 9f a1 1e bf f6 74 ce bf
       -0.13912307 -0.22453381 -0.61965364 -1.6129444
0001e0 b8 9e 60 bf 01 93 bd bf 30 9b f8 be fb bf 1d bf
       -0.87742186 -1.4810487 -0.485559 -0.61621064
0001f0 c1 3c b0 3f 30 17 06 c0 87 ea d2 bf 96 14 05 bf
       1.3768541 -2.0951653 -1.6477822 -0.51984537
000200 1a f5 1b c0 b2 5a 81 bf 7f 74 ef bf c7 42 cc be
       -2.4368348 -1.0105803 -1.8707427 -0.39894697
000210 7f 22 7b bf 99 3a 94 bf 39 7e 76 bf 59 5f 56 bf
       -0.9809951 -1.1580383 -0.9628635 -0.8373924
000220 87 ea 39 bf 66 e2 ae be 76 00 4e bf aa 8c 14 bc
       -0.72623485 -0.34157103 -0.80469453 -0.00906674
000230 0e 59 4d bf 8b 7b d1 3e e3 e5 95 bf c1 fb 86 bf
       -0.8021401 0.40914568 -1.1710781 -1.0545579
000240 aa 9c 9a be 2a 3c d0 bf 5d e0 ed be 0e dc 34 be
       -0.3019765 -1.6268361 -0.46460238 -0.17662069
000250 81 51 b2 bf d8 4d 1f 3e ed e6 7e 3e 72 20 7a bf
       -1.3931123 0.15557039 0.24892779 -0.9770576
000260 86 fa fe bf 46 be 3c bf 82 50 03 be 01 81 69 bd
       -1.9920204 -0.73727834 -0.1282368 -0.057007793
000270 8f a3 1e be c1 77 83 be 2c 6e f4 bf 07 8a cc be
       -0.1549208 -0.25677302 -1.9096122 -0.39949057
000280 29 44 e6 bd 39 09 82 bd bc 53 7b be 82 0d 7a bd
       -0.11243469 -0.06349415 -0.24543661 -0.06104804
000290 ff 1d 3f bf f7 30 83 bf f1 a7 d6 bf 4b d9 3c bf
       -0.74655145 -1.0249318 -1.6770002 -0.7376906
0002a0 eb 45 01 bf 39 9f d5 be 9f 7e c4 bf a6 44 81 bf
       -0.5049731 -0.4172304 -1.5351142 -1.0099075
0002b0 e8 9a 99 bf 9d 69 73 bf 93 e0 0a c0 a7 6c c2 bf
       -1.2000399 -0.9508303 -2.169957 -1.5189408
0002c0 3d f3 ef be cb 3d b1 be f7 3d c6 3b 2a ae a1 be
       -0.46865264 -0.34617457 0.0060498673 -0.3157819
0002d0 65 fb d8 bf 0f 5e e5 be 4c 50 9e bf 60 9a cc 3e
       -1.695172 -0.44798324 -1.2368255 0.3996153
0002e0 b9 cd 63 be d7 d9 0f be 99 48 49 bf de ef 03 3e
       -0.22246446 -0.14047943 -0.786264 0.12884471
0002f0 4b 68 f0 bf 83 b8 6d bf 00 7b 8d be 4b 95 0f c0
       -1.8781828 -0.9285967 -0.27632904 -2.2434871
000300 08 50 ac 3e 3d 2f 0b c0 de a6 07 bf 11 bb e3 bf
       0.3365481 -2.1747582 -0.52988994 -1.7791463
000310 b7 51 d3 bf ba ed c8 bf c0 0a ac bf 1a 8c ed bf
       -1.6509312 -1.5697548 -1.3440781 -1.8558381
000320 e0 62 d9 bd fb 43 aa bf 67 48 8d bf 7f 0b 8c bf
       -0.10614562 -1.3301996 -1.103772 -1.0941008
000330 6b 97 9d bf 90 b7 9d bf 06 df b9 bf 53 23 b3 bf
       -1.2311834 -1.2321644 -1.4521186 -1.3995155
000340 59 c4 db bc ad 38 08 3f 0d 77 b7 bf bb 06 b7 bf
       -0.026827024 0.5321148 -1.4333206 -1.4298929
000350 57 af f8 bf cf 30 8e bf 85 22 0b 3d b7 d0 b1 bf
       -1.942851 -1.1108645 0.033968467 -1.389182
000360 ce ff e6 ba 5b 07 8b bf 64 9f 16 3e 93 4d 7b bf
       -0.0017623843 -1.086162 0.1470924 -0.98165244
000370 62 5d f3 bf 2a c9 70 bf fd 4e 35 3e 41 98 62 3e
       -1.9012873 -0.9405695 0.17705913 0.22128393
000380 f4 0a b6 bd c2 ed c3 bf 8d bc 9e be 87 a0 d6 bf
       -0.08888808 -1.5306933 -0.31003228 -1.6767739
000390 ba 1d 39 be 9d bc e1 bf 63 7e 11 bf 1e e4 d9 be
       -0.18077746 -1.7635685 -0.56833476 -0.42556852
0003a0 f2 4c 9c be 81 aa c1 bf 4c 91 24 bf d9 3c 88 3e
       -0.30527455 -1.5130159 -0.64284205 0.26608923
0003b0 cd e9 e5 bf 77 33 31 bf f7 62 81 bf d1 02 cd bf
       -1.7961975 -0.69219154 -1.0108327 -1.6016484
0003c0 59 e4 a1 be 7a 22 f5 bf 0a 29 69 bf 51 f6 b8 bf
       -0.31619528 -1.9151146 -0.91078246 -1.445017
0003d0 c0 b7 c9 bf a3 f3 8b bf e3 39 9f bf 0c c9 6c be
       -1.5759201 -1.0933727 -1.2439541 -0.23123568
0003e0 97 e8 a9 3b 32 a0 e6 bf 6d 8e 9c bf 87 05 21 bf
       0.0051851976 -1.8017638 -1.2230965 -0.6289906
0003f0 47 44 58 3e df d5 83 bf ba 0a 02 c0 1c 8f eb bf
       0.21119796 -1.0299643 -2.0319047 -1.8403049

layers.1.weight f4 [128, 256]
000000 23 22 3e 3c db 19 dd 3e 32 a7 76 3e 19 cd 1a bf
       0.0116048185 0.4318379 0.24087217 -0.60469204
000010 f5 6e 49 c0 b6 a8 20 bf 9c dd 89 3e 75 a2 e9 3e
       -3.1473973 -0.6275743 0.26926887 0.45631757
000020 8c e9 34 c0 dc 96 24 c0 25 b6 b7 3e 70 8c c0 be
       -2.8267546 -2.5717077 0.35881153 -0.37607145
000030 f9 c8 a3 be 1d fd c5 bf c2 12 13 3f 99 aa 07 c0
       -0.31989267 -1.5467869 0.574505 -2.1197875
000040 54 2d 1f bf 54 c2 2a 3f e0 f5 16 3f 7b 67 2b be
       -0.6217854 0.6670277 0.58968925 -0.16738693
000050 e9 75 a9 be 8b f4 15 3f 90 ad 78 bd 1e 52 b4 3c
       -0.3309777 0.5857627 -0.060712397 0.022011813
000060 86 ca 04 3e a5 e3 2e bf 1a ee a3 bd 2b 21 23 3f
       0.12967882 -0.6831611 -0.08004399 0.63722485
000070 c5 05 13 3f dc 2a c5 3e 67 24 db be cd a5 b0 bf
       0.5743068 0.38509262 -0.4280121 -1.3800598
000080 ce 6e ef 3e d4 57 0f bf 85 2d 74 3d 6b bd 19 c0
       0.46764225 -0.5599339 0.059613723 -2.4021862
000090 b6 51 f4 3e 77 70 fa 3e 61 60 6e 3f 1b 3e 70 bb
       0.4771859 0.4891393 0.9311581 -0.0036658111
0000a0 ef 58 1b 3f 57 92 89 3d ac 18 aa 3f b5 21 02 bf
       0.60682577 0.06717365 1.3288779 -0.5083268
0000b0 31 91 fd 3e e8 85 e0 3e fb ec c1 3e ef d9 5d bf
       0.49524835 0.43852162 0.37876114 -0.86660665
0000c0 4a 21 97 be 5b c0 53 bf a6 fb 9b be 87 42 66 bf
       -0.29517585 -0.82715386 -0.3046543 -0.8994526
0000d0 a2 d8 9f 3e 6e 18 10 c0 15 ee 22 3d 6d 2a f2 3e
       0.31219965 -2.251491 0.039777834 0.47297993
0000e0 03 c4 0b 3f be c0 b4 be eb 6d a6 3e a6 7e b3 bf
       0.54595965 -0.353033 0.32505736 -1.4023025
0000f0 02 6e 8e 3e ed d2 dd 3e db cc c0 be 6c 91 be be
       0.27818304 0.43324986 -0.37656292 -0.37220323
000100 e5 14 18 c0 61 61 32 bf e8 e4 11 bf 05 15 e3 bf
       -2.3762753 -0.6967984 -0.5698991 -1.774079
000110 9b a5 27 3f 1a 22 d6 bc b4 8d e8 3e a8 51 75 bf
       0.6548707 -0.026139308 0.4542061 -0.9582772
000120 6c 9e 44 3f ff 35 85 be 74 da 52 bf bd aa fa 3e
       0.7680423 -0.26017758 -0.82364583 0.48958388
000130 16 0d 82 bf 14 11 b7 bf 7c 6c dd be ae 71 34 bf
       -1.0160244 -1.4302087 -0.4324683 -0.7048596
000140 4a 70 81 3f 15 26 af be 95 f9 f6 bd 61 f0 38 bf
       1.0112393 -0.34208742 -0.12059323 -0.7224179
000150 38 71 06 3f cd 7a 48 bf e9 d6 62 3f 1d 8d 1a bf
       0.5251651 -0.7831238 0.88609177 -0.6037157
000160 9c 0b 24 bf cd e4 4e 3f d8 0d cc bf 27 07 18 3e
       -0.64080215 0.8081787 -1.5941725 0.14846478
000170 05 dc f5 3e a1 93 85 be 34 77 29 bf 73 52 66 3e
       0.48019424 -0.26089194 -0.66197515 0.2249239
000180 8e c4 18 bf 94 78 02 bf ee e0 24 c0 79 bc 0a 3f
       -0.5967492 -0.5096524 -2.5762286 0.54193836
000190 1d 2d c0 bf 85 b6 b0 bf 24 a5 09 c0 cb c0 e6 bf
       -1.5013767 -1.38057 -2.1507044 -1.8027586
0001a0 2c 78 d3 3e 17 5b 9f bf 7b bb 0c be 18 31 08 c0
       0.4130262 -1.2449673 -0.13743393 -2.1279964
0001b0 66 bf d7 3e 75 fa ad be 07 49 09 3f 24 c7 f1 3e
       0.42138213 -0.33980146 0.53627056 0.47222245
0001c0 b1 ea 13 3f f0 68 2e 3f af 97 ca 3e 5b 47 2f 3f
       0.57779986 0.6812887 0.3956885 0.68468255
0001d0 7b 7a 0f bf 82 fd cb bf ce ef 6a 3e 64 76 52 be
       -0.56046265 -1.593674 0.2294304 -0.20552975
0001e0 02 66 1f 3f 50 be 13 c0 fb c9 71 bf 4a 70 02 bf
       0.62265027 -2.3084908 -0.9444882 -0.5095259
0001f0 a7 65 8b bf 90 1d 22 3f 43 45 ac bf dc ae 2a bf
       -1.0890397 0.6332636 -1.3458637 -0.66673064
000200 20 93 86 bd a7 47 22 3f ff 83 a7 3e 57 16 03 3f
       -0.065710306 0.6339058 0.32717893 0.5120596
000210 a2 8e 17 3f 88 f0 12 3f f6 5b 80 3e 28 55 00 3f
       0.59202015 0.5739827 0.2507016 0.5012994
000220 4c 2a 9c 3e 1b 42 50 bf 65 65 cb 3e 2e 13 9e bb
       0.3050102 -0.8135087 0.39725795 -0.0048240637
000230 0c c3 0d c0 c6 9f 47 bf 1e 54 bf 3e 45 c4 94 3e
       -2.2150297 -0.7797817 0.37368864 0.29055992
000240 f5 bf 78 bf da 6f d8 bf 0c 9b 3b bf f2 d3 f1 bf
       -0.97167903 -1.6909134 -0.7328346 -1.8892806
000250 8f 70 f2 bf bd bf 32 bf d7 65 38 bf 15 50 47 be
       -1.89406 -0.6982382 -0.72030395 -0.19464143
000260 48 51 d0 3e ee 78 8b be f7 da 9f bf c8 25 65 c0
       0.40687013 -0.272407 -1.2488698 -3.580431
000270 88 fa 1e bf 22 a5 9e bf 4d 67 6e 3f e3 3a 9b be
       -0.6210103 -1.2394145 0.93126374 -0.30318365
000280 77 34 18 bf 91 95 b6 bf b8 87 4c bf fd 70 a7 bf
       -0.59455055 -1.4264394 -0.7989459 -1.3081356
000290 33 11 07 be 80 92 0c 3f 7a b2 10 3f 11 75 08 3f
       -0.13190155 0.5491104 0.56522334 0.5330363
0002a0 7e 1f 53 bf 11 c6 05 c0 84 d5 80 bf 2a 10 9f be
       -0.8246993 -2.090214 -1.006516 -0.3106702
0002b0 32 4b 5f bf 49 66 3d bc c2 4e f9 be 5e 83 82 3f
       -0.87224114 -0.011560031 -0.486929 1.019634
0002c0 c8 5b 07 bf 3f 99 42 bf 39 de 3d c0 0c 2e 3f bf
       -0.5287442 -0.76015085 -2.9666884 -0.74679637
0002d0 28 98 1e 3f 58 31 a6 3e 86 ab 49 3f e9 40 56 bf
       0.6195092 0.3245952 0.7877735 -0.83692795
0002e0 70 7d 40 bf 2b e1 51 c0 bd 18 fb be 88 a1 35 bf
       -0.751914 -3.2793682 -0.4904231 -0.709496
0002f0 62 95 0e 3f 2d 12 ac be 02 66 12 bf 72 22 3f 3f
       0.5569669 -0.33607617 -0.571869 0.74661934
000300 fc 30 0c bf 0d d4 8b bf b8 96 37 be 16 01 27 3f
       -0.54762244 -1.0924088 -0.17928588 0.6523603
000310 f5 94 34 3f fc d9 9e 3e 3b d9 37 bd 08 e3 29 bf
       0.7053979 0.31025684 -0.0448849 -0.6636205
000320 9b 33 44 bf ee 16 c0 3e ed ea 69 3e 66 1c 69 bf
       -0.76641244 0.37517494 0.22843523 -0.9105896
000330 33 94 15 bc 2e d8 b0 3e e9 97 ba 3e d8 9d 48 3e
       -0.009129572 0.34539932 0.36444023 0.19591463
000340 46 5d 3e bf 8d a8 11 3e 63 75 29 3e 99 3f 07 c0
       -0.74361074 0.14224453 0.16548686 -2.1132567
000350 ce 30 79 bf 93 bd fe be ce 1b 1e c0 13 e3 01 3f
       -0.97340095 -0.4975401 -2.470447 0.5073711
000360 09 99 5f bf eb c7 b6 bf c9 85 c5 be ac 19 c1 3e
       -0.8734289 -1.427976 -0.38578632 0.377149
000370 d9 f1 e0 3e cb 3d 40 3f d2 36 73 be a2 63 3b 3e
       0.43934515 0.7509429 -0.23751381 0.18299726
000380 a5 fb f2 bf f3 dc 0a bf 8e 65 81 bf 9e 35 34 bf
       -1.8983046 -0.5424339 -1.0109117 -0.70394313
000390 85 8e ce bf e8 a3 a3 3e 5b a1 64 bd 23 c1 f5 bd
       -1.6137244 0.31960988 -0.055817943 -0.119997285
0003a0 37 dd 00 c0 c5 9d a3 3e f4 d8 a1 3e 74 4b 3e bf
       -2.013502 0.31956306 0.31610835 -0.7433388
0003b0 21 97 6a 3f e1 f3 ee bf 0d 65 07 3f fa 65 74 be
       0.91636854 -1.8668176 0.52888566 -0.23867026
0003c0 e5 84 2f bf 24 e8 8f bf bb 79 d1 be 7f 37 5b bf
       -0.68562156 -1.1242719 -0.40913185 -0.85631555
0003d0 d7 9a 61 3e 23 f5 c1 be ae 93 e0 3e 1b 09 28 bf
       0.22031723 -0.37882337 0.4386267 -0.65638894
0003e0 f2 12 34 3f 93 1e 8a 3e 7a 0e b5 3e 0e f9 35 bf
       0.7034141 0.2697645 0.35362607 -0.7108315
0003f0 ca d5 34 bf b8 c6 01 3f 93 7a 95 bd 0d 47 9f 3e
       -0.70638716 0.50693846 -0.0729877 0.31108895

layers.1.bias f4 [128]
000000 a4 25 3a 3e 14 65 cc be ab 70 ba bf 44 59 1a bf
       0.18178421 -0.39920866 -1.4565634 -0.6029246
000010 20 c3 c4 bf 16 15 c1 be cb f6 ab 3d 51 2c 1f bf
       -1.5372047 -0.377114 0.083966814 -0.62176996
000020 9b 51 3e bf 42 8a 58 bf 3d 84 48 bf a7 cf b6 be
       -0.7434327 -0.84585965 -0.7832678 -0.357053
000030 8e 51 24 bf 4c 6a 6b c0 ae fa c8 be a7 3b 73 c0
       -0.6418694 -3.6783628 -0.39253753 -3.800516
000040 09 7b c3 bf 0e c3 68 bf d4 96 d5 be d2 89 c1 3d
       -1.5271922 -0.9092263 -0.41716635 0.09450115
000050 e1 fe 60 bf b4 dd 2c bf 76 db 9a bf 33 b0 30 c0
       -0.87888914 -0.6752579 -1.2098224 -2.7607543
000060 eb 78 a8 bc 52 22 23 c0 40 88 cd bf 48 db 19 be
       -0.02056547 -2.5489697 -1.6057205 -0.15025055
000070 3f 07 ac bf 2d fb f6 be a6 46 16 bf 52 0b 82 bf
       -1.3439711 -0.48238507 -0.5870155 -1.0159705
000080 44 aa c2 be 8d 53 6b bf ef 86 b9 be 88 3e 47 bf
       -0.38020527 -0.91924363 -0.3623576 -0.7782979
000090 81 7a 89 be 74 6f bf 3e 4f 91 1e bd 92 a4 14 bf
       -0.26851276 0.3738972 -0.038712796 -0.58063614
0000a0 d6 d0 01 3e b5 80 92 3e b8 11 69 bf 8d b8 4e bf
       0.12677321 0.2861382 -0.9104266 -0.8075035
0000b0 60 e5 e3 bf 86 9d d9 be 32 f6 4b bf 27 c5 8b bf
       -1.7804375 -0.42502993 -0.7967254 -1.0919541
0000c0 20 2d 2e bf 87 53 39 3e 04 95 e1 bf 02 a1 1c c0
       -0.68037605 0.1809827 -1.7623601 -2.4473271
0000d0 53 64 8d bd 8b c9 8d bf 56 ac a8 bf bf b2 e0 bf
       -0.06903901 -1.1077131 -1.3177593 -1.7554549
0000e0 c4 40 95 bf 43 9f 47 bf 2e da 13 bf f1 95 e9 bf
       -1.166039 -0.7797739 -0.5775479 -1.8248883
0000f0 fd b7 d4 bf 9b 98 61 bf 77 19 35 c0 93 f1 d8 be
       -1.6618649 -0.8812348 -2.8296793 -0.42371807
000100 11 97 2c 3f 6a 0e c5 bf e2 be 9f bf d0 b7 44 bf
       0.6741801 -1.5395024 -1.2480128 -0.76842976
000110 4c 96 60 bf 59 96 e6 be 7b ff 5a c0 f3 ff b5 be
       -0.87729335 -0.4503658 -3.4218433 -0.35546836
000120 36 a9 bc bf 62 a2 79 bf ea 40 1c bf e4 d9 af bf
       -1.4739139 -0.975134 -0.6103655 -1.373837
000130 ff 9e 88 be c6 e8 65 c0 29 4e 21 bf 3c 03 76 bf
       -0.26683804 -3.5923324 -0.6300989 -0.96098685
000140 47 f2 eb bf c0 a0 00 c0 c4 9f 9c bf 6e 30 a4 3e
       -1.8433312 -2.0098114 -1.2236257 0.320682
000150 bc 0f 29 c0 4f 85 15 c0 07 d7 de bf e2 64 db be
       -2.6415854 -2.3362615 -1.7409371 -0.42850405
000160 42 0d 8d 3e 7d d7 e5 bf 1f 26 df be 7b 7e cd 3e
       0.27549177 -1.7956387 -0.43583772 0.4013556
000170 47 f1 02 bf ee 26 e6 be c6 fd 8d bf 91 68 25 bf
       -0.5114941 -0.44951576 -1.109307 -0.6461268
000180 ce fd 5a bf c6 bb b9 bd f6 25 1d bf a0 bd 3a c0
       -0.85543525 -0.09069018 -0.6138605 -2.9178238
000190 98 43 28 bf 0f 69 a8 be bd 73 17 bf c4 bb af bf
       -0.6572814 -0.32892653 -0.5916098 -1.3729177
0001a0 f7 b7 1c bf 31 d5 02 bf f4 bd 7e bf f3 7f 01 c0
       -0.6121821 -0.51106554 -0.99508595 -2.0234344
0001b0 0f b2 4c c0 30 da 87 bf 51 0e 1b bf c4 b5 be bf
       -3.1983678 -1.061346 -0.6056872 -1.489922
0001c0 e3 fe ba bf 1b c4 e3 be 20 20 03 bd f8 b0 ee bd
       -1.4609035 -0.44485554 -0.03201306 -0.11654848
0001d0 b4 d3 55 be 0c bd 87 bf a2 c4 56 3e 65 a5 7d bf
       -0.2088154 -1.0604568 0.20973447 -0.990805
0001e0 1c 91 9b be ed 75 ef bf a5 0f 26 c0 53 21 36 c0
       -0.30384147 -1.8707863 -2.5947049 -2.845784
0001f0 6b 4d ec be a4 33 4e c0 11 49 a5 bf bc 6b 3b 3f
       -0.46152815 -3.221902 -1.2912923 0.73211265

layers.2.weight f4 [1, 128]
000000 7c 40 26 bf 7d d2 4c bc 0c 2c ea 3d 73 0c 5b 3d
       -0.64942145 -0.012501356 0.114341825 0.05347867
000010 5e 67 07 3f d0 43 d2 3a 4d 34 a5 be 13 59 2a 3e
       0.528921 0.0016041938 -0.32266465 0.16635542
000020 3e 44 c1 3d b9 55 bf 3d 1e a0 32 3e e2 e3 b4 bb
       0.09436844 0.09342522 0.17443892 -0.00552033
000030 c9 24 26 3e 45 47 f3 3d b8 f1 a9 bd b0 58 dd 3d
       0.1622497 0.11878828 -0.08298057 0.108079314
000040 91 9a c0 3d 64 47 ba 3e ed 21 f9 bb 52 c3 fd 3d
       0.09404481 0.36382592 -0.007602921 0.1239077
000050 4d 36 1f 3d 43 f5 79 bd 44 ed c0 3d 9b 6b 22 3e
       0.038870145 -0.061024915 0.09420255 0.1586136
000060 0c 8a 32 bd 95 e3 e7 3d 11 a7 90 3d 68 8c bf bd
       -0.043588683 0.11322705 0.070631154 -0.09352952
000070 4f d8 c2 3d 6d bb f2 bd be 4b 10 bd 1f 9e 22 3e
       0.09513914 -0.11852155 -0.035228483 0.15880631
000080 b9 74 3c 3c 9a 9b 01 3e e7 d0 34 3d b2 cd ce bd
       0.011502438 0.12657014 0.044144537 -0.10097827
000090 c2 05 eb bd ae 13 fa be 68 a3 83 bc ff 5f ad bc
       -0.114757076 -0.4884314 -0.01606913 -0.021163939
0000a0 cb 79 9a bd ec be b2 3c 20 cb 01 be 8f 12 1c 3e
       -0.075427614 0.021819554 -0.12675142 0.15241455
0000b0 02 73 e8 3d a2 aa 31 be e7 1f 15 3e a3 29 af bd
       0.11350061 -0.17350248 0.14562951 -0.085528634
0000c0 ee 0b 7e bd 7c 0b 23 bf 98 76 2e be ee e1 d9 3d
       -0.062023096 -0.636894 -0.17037427 0.10638796
0000d0 78 c9 8a bd 6a ef fb 3d 67 77 dd 3d 71 6c e0 3d
       -0.06776708 0.12301524 0.1081379 0.109581836
0000e0 7f 6c f6 3d 6d bf 03 3e 7d 46 81 3d 67 9b 99 3d
       0.12032413 0.12865992 0.06312273 0.07500344
0000f0 af b5 c2 3d 6a bf b3 bb 4c 45 c7 3d a1 79 8f 3d
       0.0950731 -0.005485465 0.09730014 0.07005621
000100 5c 5a b7 bd a4 ff bc 3d 3e ae 76 3c 98 89 12 3d
       -0.089527816 0.09228447 0.015056191 0.03577575
000110 de 1a 12 3e 07 b0 21 bc e7 a4 cb 3d dd e7 66 bd
       0.14268062 -0.009868628 0.09943562 -0.056373466
000120 f1 db af 3d db 04 9d 3d b6 a3 97 bd 63 d0 a5 3d
       0.08586872 0.07666942 -0.07404272 0.08096387
000130 39 e3 b3 bd 94 eb c9 3d 5b 83 6b 3d 9e 7e 29 3e
       -0.08783574 0.09859386 0.057498317 0.16552207
000140 b9 93 00 3e 8a 54 c7 3d dc ec e6 3d 75 99 0c bf
       0.12556352 0.097329214 0.11275646 -0.54921657
000150 10 c3 db 3d 0b 78 dd 3d cd 65 ad 3d 92 98 d7 bd
       0.107305646 0.10813912 0.084666826 -0.10527147
000160 5d 2a 12 bf 08 48 c3 3d 25 19 bb bd 23 64 e1 be
       -0.5709589 0.09535223 -0.09135655 -0.4402171
000170 40 98 82 bb 01 4d b5 3a cc 51 a0 3e 3d 94 dc bd
       -0.003985435 0.0013832153 0.31312406 -0.10770462
000180 30 d9 52 bd 52 1a a3 bd a1 13 86 ba 81 63 fb 3d
       -0.051476657 -0.079640046 -0.0010229239 0.12274838
000190 27 b9 92 3d e3 f6 41 bd 26 98 5a 3d a7 9f c1 3d
       0.07164221 -0.04735459 0.053367756 0.094542794
0001a0 b1 72 7c bd e7 82 cc bd 29 e3 38 3e ed 85 9c 3d
       -0.061632816 -0.09985905 0.18055405 0.07642732
0001b0 c8 ca 09 3e 58 af 2c 3e 6b 9c 1c 3e 0d d3 78 3e
       0.13456261 0.16863763 0.15294044 0.2429926
0001c0 22 86 c9 3e 7a 75 57 be d9 7f 75 bd 05 7c 04 3e
       0.39360148 -0.21040908 -0.05993638 0.12937935
0001d0 d2 8e 4d bd 18 2a e3 3d ee 4a 13 3e fa 39 94 3e
       -0.050185032 0.11092013 0.14384052 0.28950483
0001e0 84 4e 2d 3d d4 06 90 3d 59 bb ef 3d 67 08 fd 3d
       0.042311206 0.07032552 0.117056556 0.12355118
0001f0 b1 77 07 bd e3 56 fd 3d 38 f5 c5 3d 33 05 14 be
       -0.03307313 0.12370088 0.096659124 -0.14455108
