python/networks/testNE3_single_point.pth (torch, 158538 bytes, 5 tensors)

layers.0.weight f4 [256, 20]
00000000: 3867 3f3e 345e 423f b612 ce3d 5d44 843f
00000010: 1e8f 653f 5160 893f 4dad e8bd fe36 31bf
00000020: ef1a efbc 5716 36bf 642a 70bf 4c11 1dbf
00000030: 900d 033f 39d3 aebf dca2 22bf e5ff 9e3f
00000040: 7998 be3f 04cc 5cbf 16a8 05bf f05d d73e
00000050: e7e1 2a3e 1e69 80be aedd 6cbf c728 023e
00000060: 1a9a 353f db61 443e 1c6e d33e 92f4 b63b
00000070: f836 3f3f 64d5 0cbf 32e0 61bf f5f9 543e
00000080: c32d a3bf d8bc 7740 b411 3f3f c534 dabe
00000090: 8059 2a3e a294 45c0 b632 21bf 8bdf 2a3e
000000a0: ca28 a4bf 2252 0b3c 5a2b dc3e b1cc 9d3e
000000b0: 5252 1cbe 9c82 debd e938 9b3f 843d b8bd
000000c0: ddec a1be 5b17 c3bc 0a23 473e 4962 fd3d
000000d0: a22e c83f 4d6b 07be 5be8 debf eb40 a8be
000000e0: c685 00c0 1d33 4a3e 2100 fc3f 24e3 823e
000000f0: b51b 05bf dab2 883e a6c1 0b3e 9a43 11be
00000100: 2004 24bd 3945 24be 32e3 dd3e df38 10be
00000110: 7bf5 90be 49a1 013d 2084 15be 4217 9e3d
00000120: bd24 3640 5d08 e0be ae40 34c0 02d0 b63e
00000130: 4a8d 73c0 18bf 703f 260f 0d40 6503 f7bc
00000140: 03fe f1bd 8959 a2be f6aa 4e3e 12f4 76bd
00000150: f481 273c 2dae 8a3c 082c 9e3e f77b 873d
00000160: b3c5 92ba 23fe 5b3e 26ae 923e 65a1 08bd
00000170: 9753 1240 4da4 0c40 1965 743e b867 db3f
00000180: 6c97 debf f6f4 4ac0 bdac 34bf 909d 6bbf
00000190: 765e 54bf e605 b3bf b98a 92bf 65d1 c8bd
000001a0: 8203 4bbf c40b 58bf 5d40 913f 96e7 b33f
000001b0: 9998 3f3f 6bb7 443f 8ac3 243f 24b0 243e
000001c0: cdb7 c0bf aa26 af3e 5848 ae3f d8e8 18c0
000001d0: 2962 86bf 58ba e63f eeca 833f ba8b 03bf
000001e0: 6bc8 f23d d965 37bf 2f92 c4be 098d f4bd
000001f0: 7b2d 993e 16bd ad3e 30b2 fb3d 6b8b 7d3f
00000200: feeb b9bc f4ed f8bc b54a 0cbf 8f5b 8f3e
00000210: add4 cbbf 568a 5d3e e5ad f5be ea27 ca3f
00000220: dce8 9abf 97b4 1c40 e8a6 5dbf 06c6 36be
00000230: 9350 1e3f c441 ff3d 676e 3fbd c472 cb3e
00000240: dc17 533f 4fbe 0f3e 88c9 8c3e 436e e8bd
00000250: 248c 1bbf 7367 c8be f8b4 20bf 0327 22bf
00000260: c0b7 1cc0 da7f 133f e57c a83f df2e abbf
00000270: 0cfb 9fbe c69e da3f 0ff1 b83f aaec a3bf
00000280: beb0 c3be 56c8 0e3e 82b0 13bd d5e4 613c
00000290: cefa bebd 2200 2d3e a12f 963d cc7c 48be
000002a0: 8037 8a3e 5b91 96bd ba36 7c3e 59e0 a7bd
000002b0: 47d5 c53e fa78 dd3e cce3 dabe ef54 d0be
000002c0: 57e1 4b3d a480 d1be ff65 91be b4d0 823e
000002d0: d88f 14bc 85c8 24be cb1c 233f a29d fbbd
000002e0: df8f 5abe 2171 87be 7177 92be 5b52 323a
000002f0: 9a8a 47bf 0b6c 3abe 596d 3d3e 5110 683d
00000300: 2338 0640 eea6 17c0 a816 0540 4579 01c0
00000310: 1c8f 0fc0 52a7 1b40 d05c 04c0 127e 0c40
00000320: 6b74 60bf 3f1a 58bf f707 f23e d7a4 a4bf
00000330: 1799 1ec0 ca26 3bbf 612c 99be 7937 6f3f
00000340: 9d15 623f 6afd be3f 818f 2440 08c2 743e
00000350: 5e59 43be 7794 cd3e bb92 d4be 9d85 c43e
00000360: 3ff7 3dbe f4ce 9e3e f7dd 6a3e 513e abbd
00000370: 3540 e4bd c6ed 273e a358 a43d cae2 a5bc
00000380: e46d b5bd e3a2 5dbd c1e7 003e 957c e1be
00000390: 7831 ce3d 6a55 a43d 13c2 7a3e a9f1 503e
000003a0: a8d6 8bbe bd62 913f 5fcb 3e3f 74d7 213f
000003b0: 6bd9 3e3f 565f 0d3f 515c 303f cb8c debd
000003c0: e5c8 873f a1d1 cfbe 5328 8b3e cbc6 f4be
000003d0: e764 953e e2d8 22be 3b3c d4be c36a bd3e
000003e0: e348 6ebf ce97 0c3e ba0b 1cbd b6c7 733d
000003f0: 6913 893f f40e 5cbf 5373 50c0 d597 3f3f
0.18691719 0.7592499 0.100621626 1.0333363 0.89671504 1.0732518 -0.113611795 -0.69224536
-0.029187648 -0.7112784 -0.9381468 -0.6135452 0.5119257 -1.365821 -0.63529754 1.2421843
1.4890281 -0.86248803 -0.52209604 0.42063856 0.16687737 -0.25080198 -0.92525756 0.12710868
0.70938265 0.19177954 0.41294944 0.0055833543 0.7469325 -0.5501311 -0.8823272 0.20798476
-1.274834 3.870901 0.7463639 -0.42618385 0.16635704 -3.0871968 -0.62968004 0.16686837
-1.2824948 0.008503469 0.43001825 0.3082023 -0.15265778 -0.108647555 1.2126743 -0.08996108
-0.31626025 -0.023814848 0.1944696 0.12372262 1.5639231 -0.13224526 -1.7414659 -0.32862028
-2.008165 0.1974606 1.9687539 0.2556392 -0.519954 0.26698953 0.1364809 -0.14185944
-0.040042996 -0.16042031 0.433374 -0.14084195 -0.28312287 0.031647954 -0.14601183 0.0771928
2.8459923 -0.4375638 -2.8164477 0.35705572 -3.8054986 0.94041586 2.2040496 -0.030152986
-0.11816027 -0.31708935 0.20182404 -0.060291357 0.010223854 0.016928757 0.30892968 0.06615441
-0.0011197835 0.21483664 0.2864849 -0.033357043 2.286352 2.1975281 0.2386669 1.7141027
-1.738996 -3.1712012 -0.7057608 -0.92037296 -0.82956636 -1.3986175 -1.1448585 -0.09805564
-0.7930223 -0.8439295 1.1347767 1.405505 0.7484222 0.76842374 0.6436087 0.16082817
-1.5056092 0.34209186 1.3615828 -2.3892117 -1.0498706 1.8025618 1.0296304 -0.5138508
0.11854633 -0.7163978 -0.3839278 -0.11940963 0.2991751 0.33933324 0.12289846 0.9904086
-0.022695538 -0.030386902 -0.54801494 0.2799954 -1.5924278 0.21634802 -0.47984233 1.5793431
-1.2102313 2.4485223 -0.86582804 -0.17848977 0.61841697 0.12463716 -0.046736147 0.39735997
0.8245828 0.1403744 0.27497506 -0.11349156 -0.6076071 -0.39141425 -0.62776136 -0.6334078
-2.4487152 0.5761696 1.3163115 -1.3373679 -0.3124622 1.7079704 1.4448565 -1.2806599
-0.3822078 0.1394361 -0.036057003 0.013787468 -0.09325181 0.16894582 0.07333303 -0.19578856
0.26995468 -0.07351943 0.24630252 -0.08197088 0.3863928 0.4325636 -0.4275192 -0.406898
0.049775448 -0.40918458 -0.2839813 0.25549853 -0.009067498 -0.16092117 0.6371581 -0.122859254
-0.21343945 -0.26453498 -0.28606752 0.0006802433 -0.77945864 -0.18205278 0.18498744 0.056656186
2.0971763 -2.3695636 2.0795078 -2.0230267 -2.2431097 2.4320874 -2.0681648 2.1951947
-0.8767764 -0.8441505 0.47271702 -1.2862805 -2.4780939 -0.7310606 -0.2991667 0.9344402
0.8831423 1.4921086 2.5712588 0.23902142 -0.1907706 0.40152332 -0.41518196 0.3838319
-0.18551348 0.31017268 0.22936235 -0.08361495 -0.11145059 0.16399297 0.080247186 -0.020249743
-0.088588506 -0.05411042 0.12588407 -0.4404036 0.10068029 0.08024104 0.24488096 0.20404686
-0.27312207 1.1358258 0.7452907 0.6321938 0.74550503 0.55223596 0.68890864 -0.10866698
1.0608183 -0.40589622 0.27179202 -0.47807917 0.29178545 -0.15903047 -0.41452202 0.36995515
-0.93079966 0.13729784 -0.03809712 0.05951663 1.0709049 -0.85960317 -3.2570388 0.7484105

layers.0.bias f4 [256]
00000000: 4021 d3bf 1ddd f0bf 35cc 2cbf 5c3f c3bd
00000010: d0a8 bebe 1cad cfbf a07d 26bf fd50 7bbe
00000020: 8603 98bf 15ea d6be 1e50 cbbe 42bf a3bf
00000030: dae4 debf b824 5dbe 3104 4bbe 71f1 18bf
00000040: ae32 cabf f939 07be ca5a bcbf 8718 87bf
00000050: 7361 67bf 53c7 02bf 8b98 90bf 8a61 7abf
00000060: ff72 c5bf bfcc dabf b78c 8ebf 312b e4bf
00000070: c4a4 a6bd 3de3 b5be 2c79 c7bf 53ee e2bf
00000080: 3e78 65be 1c39 91bd 235c 70bf 67e5 9bbf
00000090: 156e 0ebf 75a5 a4be 3cef 11bf 7a29 f4be
000000a0: 0c18 63be 4fd0 9abf 2b9f cfbf 247c 56bf
000000b0: d314 8fbf f158 95bc 669b b0bf d82f aabf
000000c0: 9203 25bf ca46 b8bd 8124 edbf 6d1e 0cbf
000000d0: deb7 97be 6c65 a1bf 1810 b5be c3e9 b8bf
000000e0: 85db bbbe 9801 94bd a99f fabf fbba debf
000000f0: dd19 e1bf 931a e2bf 9133 06c0 6a9f a2bc
00000100: 0e50 87be a021 babf dbbe a3bf a343 e6bf
00000110: 5b6f 55be 8564 a9bf 5c5a 39bf 0055 a7bf
00000120: 47a4 3abd 57b8 8abf 894a 31bf 13a6 80bf
00000130: d2bb c4bf b7f5 d7bf 0c02 2fbd d06e 61be
00000140: ce0c ebbf 5fa0 5fbf 4e46 bebd 1536 9ebf
00000150: b09e dabf 6b9c d6be d217 d7bf 9aa1 84bf
00000160: 8219 f6bf 103e c1bf cd2e 33be cd64 5dbe
00000170: 7dc9 bbbf f6a1 9bbf c7c2 c4bd 4f4f debe
00000180: b9eb 73bf 482d d8bd 5a56 b8bf bda9 94bf
00000190: d9b3 3ebf 88ff b2bf 84ee 1bbf bc7d 42be
000001a0: 281a 28bf 1f45 1dbf f5b8 69bf fab4 74bf
000001b0: 0b62 73be 764c 1ebf 5a54 24bf 8d58 4fbe
000001c0: ca39 a4bf 490d 91be 6a88 89be f0a2 debf
000001d0: a51f f0be 071f ddbf a800 88bf be83 b6bf
000001e0: 977d 5abd 219e 91bf 197b 92bf 0139 68bd
000001f0: 07d2 14be 61ef 3bbf 7052 37be 8eb0 b6bf
00000200: 4d38 e1bf 2348 82be 8bc6 59bd bc5f 3cbf
00000210: f372 98bd f2b0 11bf 9cdd 1ebf 4651 a3be
00000220: 6ab9 92bf 5e14 b4bf 720c 8bbf b4a2 a1bf
00000230: 4dbe 74bf dee6 01c0 54f3 64bf 20b5 46be
00000240: c837 85be a105 03be 031e b7be 17ab a9bf
00000250: 05fd b6be 214f 8dbf 5581 02bf b7ca dbbf
00000260: aef6 373d cc5e a0bf 0550 52bd d063 93be
00000270: 9aca 93bf ee66 69bf 3fb5 dfbf db59 2abf
00000280: ca15 6abe a126 90bf c32f f8be 875a d6bf
00000290: afde 38be 692e f4be 5652 e3be bac3 c4bf
000002a0: 0c82 cebe 7a8f 7ebe 635d 9abf 13ac 99bf
000002b0: 585c 34bd 623f b7bf 6115 cebf 4bac babe
000002c0: a0b9 83bf 178a 98bf c502 babd a92e 96bf
000002d0: 24dd acbf 6f2c 34bf 1876 c5bf ceb7 75be
000002e0: 44ab 5ebf 4b45 48be a5dd 16bf 251e 16be
000002f0: 7de5 febe 0854 91be 1b08 0cbf d3d0 e1be
00000300: 6847 86be 6767 ebbf 91cc d3bf 1a39 8bbf
00000310: 7370 8dbf a01b d1bd 33b4 8abd 16ec aebf
00000320: a19d 93bf 1d93 8dbf 5038 9cbe 6602 d4bf
00000330: f769 6cbd 07b1 dfbe e7b4 f2bf f57c dfbf
00000340: bbfc c3bf f9c2 03be dd6f 50bf afd9 f2be
00000350: 778c 46bf 186f 9cbf cfc5 15bf 2d77 f4bd
00000360: 0e08 e2be 8dbc 72bf 8a4e 71bf 9db6 d8bf
00000370: c473 37bf a4c9 09c0 f0da 19be 1c2d efbe
00000380: 0fc5 92bc 409d 48be 6617 8fbf 6174 dabf
00000390: 709b 91bf 1e80 9dbf 3e88 b4bf c7ad 6dbf
000003a0: 1101 4bbf b750 f8bd 6696 92bf a680 90bf
000003b0: 0910 3abd 53c2 d0bf c94b cebf 08f2 aabf
000003c0: 1767 ffbe f999 e2bd d073 6abf aeff 91bf
000003d0: ee0d 63bf 66b9 93bf 959a 37bd 173c 67be
000003e0: bd8a 02be 3995 e4bf 8a0a bbbe 651d aebf
000003f0: 0bc3 f0bf 600f abbf 1787 3cbf 7a7e aabf
-1.6494522 -1.8817478 -0.67499095 -0.09533569 -0.3723817 -1.6224704 -0.6503544 -0.24542613
-1.1876075 -0.41975465 -0.39709562 -1.2792742 -1.741359 -0.21596038 -0.19825818 -0.5974341
-1.5796716 -0.13205709 -1.4715207 -1.055436 -0.9038307 -0.51085395 -1.1296552 -0.9780508
-1.5425719 -1.7093734 -1.1136693 -1.7825681 -0.08136895 -0.35524932 -1.5583854 -1.7728981
-0.2240915 -0.07090971 -0.9389059 -1.2179383 -0.5563672 -0.32157484 -0.5700567 -0.47687894
-0.22177142 -1.2094821 -1.6220449 -0.83783174 -1.117823 -0.018230887 -1.3797424 -1.3295851
-0.6445857 -0.08997877 -1.8526765 -0.54733926 -0.29632467 -1.2609076 -0.3536384 -1.4446338
-0.36690918 -0.072268665 -1.9579974 -1.7400812 -1.7586018 -1.766436 -2.0968974 -0.019851405
-0.26428264 -1.4541512 -1.279262 -1.7989391 -0.2084326 -1.3233801 -0.724035 -1.3072815
-0.045566823 -1.0837506 -0.69254357 -1.0050682 -1.5369818 -1.6871861 -0.04272656 -0.22014928
-1.8363283 -0.8735408 -0.09290753 -1.2360255 -1.7079678 -0.41916212 -1.6804144 -1.0361817
-1.9226534 -1.5097065 -0.17498322 -0.21620484 -1.4670864 -1.2158802 -0.09607463 -0.43419883
-0.9528156 -0.10555512 -1.4401352 -1.16143 -0.74493176 -1.3984232 -0.6091082 -0.18993276
-0.6566491 -0.61433595 -0.9129785 -0.9558865 -0.23767869 -0.6183542 -0.6419121 -0.20248623
-1.2830136 -0.28330448 -0.26861888 -1.7393475 -0.46899143 -1.7275094 -1.06252 -1.4258955
-0.053342428 -1.1376382 -1.1443816 -0.05669499 -0.14533244 -0.7341214 -0.17902541 -1.427263
-1.7595307 -0.2544566 -0.05316786 -0.7358358 -0.074438 -0.5691062 -0.620569 -0.31897944
-1.1462834 -1.4068716 -1.0863173 -1.2627778 -0.95602876 -2.029716 -0.8943379 -0.19405031
-0.2601912 -0.12795116 -0.35765085 -1.3255337 -0.35739914 -1.1039773 -0.50978595 -1.7171239
0.044912986 -1.252893 -0.051345844 -0.28787088 -1.1546204 -0.91172683 -1.7477187 -0.6654336
-0.22859874 -1.1261789 -0.4847394 -1.6746377 -0.18053697 -0.47691658 -0.44398755 -1.5372231
-0.40333593 -0.2485942 -1.2059749 -1.2005638 -0.04403338 -1.4316218 -1.6100274 -0.36459574
-1.0291023 -1.1917142 -0.090825595 -1.173299 -1.3504987 -0.703803 -1.5426664 -0.23995897
-0.8698008 -0.19557683 -0.5893195 -0.14659937 -0.4978446 -0.28384423 -0.5469987 -0.44104633
-0.26226354 -1.8390931 -1.6546804 -1.0876801 -1.1049942 -0.10210347 -0.067726515 -1.3665798
-1.153248 -1.106052 -0.30511713 -1.6563232 -0.057718243 -0.4368975 -1.8961457 -1.7460009
-1.5311502 -0.12867345 -0.8142069 -0.47431704 -0.7755808 -1.2221403 -0.58504957 -0.119367935
-0.4414677 -0.94818956 -0.94260466 -1.6930729 -0.7166102 -2.1529322 -0.15024924 -0.46714103
-0.01791623 -0.19591236 -1.1179016 -1.7066766 -1.1375561 -1.2304723 -1.4104078 -0.9284329
-0.792985 -0.1212477 -1.1452148 -1.128926 -0.04542545 -1.6309303 -1.6116878 -1.3355112
-0.4988334 -0.11064524 -0.91582966 -1.1406152 -0.8869313 -1.1540954 -0.044825155 -0.22581516
-0.12748237 -1.7858039 -0.36531478 -1.360272 -1.8809522 -1.3364067 -0.7364363 -1.3319848

layers.1.weight f4 [128, 256]
00000000: 8a62 013e 2b09 663f 50f3 cb3f 7632 ebbe
00000010: ff75 0ebf e00c 073f 271b 4d3e 241c c13e
00000020: a6e1 ae3e c23d 13bd ffe1 4bbf 8b92 5b3f
00000030: e34e 88bd e9fd f3bc 3b6c 28bf 5b00 423f
00000040: d374 223e e314 89bf d6b4 373f a1ca d0ba
00000050: 10c8 69bf 6b3d f63e b1f0 193f 1d64 9cbf
00000060: 3838 f6bd fdb0 513f a82e 943f 213d a3be
00000070: ff0d 66bf bda0 0b3e 0f81 a53e 1a14 d33e
00000080: 0108 903f 3288 47be 3459 ecbe 367f 023f
00000090: 3e90 d13d e3ff 86bf 046e 5abf 4765 6ebe
000000a0: d37e ff3d ed36 023f 7357 dfbf 5a0e 2d3f
000000b0: 384b 7e3f 38c2 453f d055 4a3f 2bf5 4ebf
000000c0: 4b3d 42be 58a2 44bf b3cb 013e 09d6 073f
000000d0: 4f15 413f ac15 8cbf dd94 bd3e 53f0 3c3f
000000e0: 8c2b 373f 1890 2ebf 9715 8f3e 5583 cc3f
000000f0: 7426 853f 2c4b 723f 99cf b13f 45fb 823f
00000100: 26a9 22bf ccee ae3e 0c5f 3abf c93b 333f
00000110: 0611 363f 3210 0d3f 32b1 44bf 633a 10bf
00000120: bad9 0fbf 644c 44bf 5e95 bcbe d48c 32be
00000130: 4f14 d13f 3135 48bf 1b9c fcbf 93e8 6c3d
00000140: 2cb5 943f fef2 3f3b d2de d0be 9021 103f
00000150: cd77 9f3f 2804 7f3f 8071 b6bf c1b5 593f
00000160: 0f9b c63e 14df 87bf 4c40 bebf 93d7 c93e
00000170: 8da7 eebe 85ef b93f 1403 663f 6b68 4dbf
00000180: 18f7 92be bf15 c8bf b684 dbbe 59c8 d0be
00000190: 45a4 51bf 3853 c6bf 3f33 c43f 6bc2 673f
000001a0: dc3a 023e edc9 563f e349 213f 9e38 b53e
000001b0: 2c0e 183f c423 77bf c918 b6be bda7 fc3e
000001c0: 5396 5b3e 59bb 5fbf ba68 7abf f409 31be
000001d0: 02e8 c9bd 95ea 3b3e f968 1d40 c25a 06bf
000001e0: e26d b13e 5ac9 b83f a2e4 8d3f b939 93bf
000001f0: 434b 893f 58ac 103f a8ef 683f 02aa 773f
00000200: 51ac c93e 840b d3be 5e18 d9bf cbbf 81bd
00000210: 73d8 d13e ed7c ddbf a041 933e 1afe 6c3f
00000220: 86f8 cdbf cc0b 91bf d045 633f d4b5 37bf
00000230: d6bd 253d 91f8 e53e d0d9 b23f 85cf f2bb
00000240: ef8c d33e 2502 edbf 7cc9 bcbf e49f 9a3f
00000250: a619 f23f a5d2 ef3c 1df0 b7bf ac75 cbbe
00000260: 3e6b 193b a3a2 58be 378b 02bf 400f 5bbf
00000270: c1b9 fd3d e1cc 933f 85cb b13f 0411 0abe
00000280: 34c9 8f3f a005 7ebf 3fb3 42bf e468 5bbe
00000290: 2801 82bf dee2 133f 6b3e bd3e 0ecd 0c3d
000002a0: 9f8c 9c3f fdb7 50be 4b97 dcbf 01ae 9dbf
000002b0: 729a 06bd d891 24c0 b86e 763f 59d8 a03f
000002c0: 4eab 8c3f 8852 cf3e 9d35 cdbe 7856 4f3e
000002d0: c3e5 a43f eb25 5fbf b0f6 953f af5e c0bf
000002e0: 2618 cb3e 90b2 7ebf 7cee a5be 40f4 1d3f
000002f0: c398 dabe 02b3 463f 4bec 07be 30da 21c0
00000300: 6dc9 843d 17e6 c43e b5f0 7b3f 76fe 053f
00000310: 87bd b1bf b210 68bf 951c 90be e1d1 6b3f
00000320: 7298 903f 7a90 ea3d 2b1a dc3e 880b 84be
00000330: d962 9cbf 7524 7f3e a896 3c3f bc98 0a3d
00000340: c3c4 633e 5fb5 7e3e 850d 0b3f 16ca c7bd
00000350: 6045 b2bf 2c91 f23e 1db5 09bf 6c20 63bf
00000360: 14a3 d23e 8ce8 37c0 ce49 903e e4ac b7bf
00000370: 6373 42bd 10de 353f 3236 b93d 7842 693f
00000380: 9cc9 7cbf 7f0e 923c 61f1 2f3f bbf1 a7be
00000390: 6c07 463e e0cf 86be 5f2f 7dbd 2f4d 943e
000003a0: 3636 033f 9297 be3e fdfb b3be e98e d13e
000003b0: 16bd f7bd 71b5 893e 83fb 0e3f da1d 2fbf
000003c0: af9d 2d3e 4073 a6bf 8723 d5be 833c 483f
000003d0: bc40 9bbf c57c 38bf 2917 b3be 438e 073e
000003e0: 3497 873f d31b 2cbf 80f7 3fbe dbe2 483f
000003f0: 12c2 403f dee1 8ebf 0e71 47bf 8116 3fbf
0.12635246 0.8985774 1.5933628 -0.45936936 -0.556488 0.5275402 0.20029889 0.37716782
0.3415653 -0.03594757 -0.7964172 0.8577048 -0.066556714 -0.02978416 -0.65790147 0.7578179
0.15864877 -1.0709499 0.7176031 -0.0015929529 -0.91320896 0.48093733 0.6013289 -1.2218052
-0.120224416 0.8191069 1.1576738 -0.31882575 -0.89865106 0.13635536 0.32325026 0.41226274
1.1252443 -0.19485548 -0.46161807 0.5097536 0.1023259 -1.054684 -0.8532412 -0.23280822
0.12475362 0.5086506 -1.7448562 0.67600024 0.99333525 0.7724948 0.7903719 -0.80842847
-0.18968694 -0.76810217 0.12675361 0.53060967 0.7542314 -1.0944114 0.37027636 0.73804206
0.7155082 -0.6818862 0.2794616 1.5977579 1.040236 0.94645953 1.3891479 1.0232931
-0.6353935 0.34166563 -0.7280128 0.700131 0.71119726 0.5510284 -0.7683288 -0.5633909
-0.561916 -0.7667906 -0.36832708 -0.17436534 1.6334323 -0.78206164 -1.973514 0.057838988
1.1617789 0.0029289122 -0.40794998 0.5630121 1.2458435 0.99615717 -1.4253387 0.8504296
0.38790175 -1.0614953 -1.4863372 0.39422283 -0.46612206 1.452622 0.89848447 -0.80237454
-0.28704143 -1.5631636 -0.42874688 -0.40777853 -0.8189128 -1.5494146 1.5328139 0.90531033
0.12717766 0.83901864 0.6300337 0.35394758 0.59396625 -0.9653895 -0.35565785 0.49346724
0.21444063 -0.87395245 -0.9781605 -0.17288953 -0.09858705 0.18351205 2.459532 -0.52482235
0.34654146 1.4436448 1.1085398 -1.150199 1.0726093 0.56512976 0.90990686 0.96743786
0.3938928 -0.41219723 -1.6960561 -0.0633541 0.4098545 -1.7303749 0.28761005 0.9257523
-1.6091468 -1.1331725 0.887784 -0.7176182 0.040464245 0.44916204 1.3972721 -0.007409992
0.4131846 -1.851628 -1.4748988 1.2080045 1.8914077 0.029275248 -1.4370152 -0.39738214
0.0023409869 -0.21155791 -0.50993675 -0.85570145 0.12388945 1.1546899 1.3890234 -0.13483053
1.1233277 -0.99227333 -0.7605476 -0.21426731 -1.0156603 0.57768047 0.36961684 0.034375243
1.2230414 -0.20382686 -1.7233671 -1.2318727 -0.032862134 -2.5714016 0.96262693 1.2566024
1.0989778 0.40492654 -0.40079966 0.20247829 1.2882618 -0.87167233 1.1715908 -1.5028895
0.3966686 -0.99491215 -0.32408512 0.6170082 -0.42694673 0.77616894 -0.13273732 -2.528942
0.064837314 0.38456795 0.98414165 0.523414 -1.3885964 -0.90650475 -0.28146806 0.92117125
1.1296523 0.11453338 0.42988715 -0.25790048 -1.2217666 0.24916251 0.73667383 0.033837065
0.22243027 0.24873875 0.54317504 -0.09755342 -1.3927422 0.47376382 -0.5379198 -0.88721347
0.41140044 -2.8735685 0.28181309 -1.4349637 -0.047473323 0.71041965 0.0904354 0.9111705
-0.9874513 0.017829178 0.6872769 -0.32801613 0.19338769 -0.2633047 -0.061812755 0.28965136
0.51254594 0.37225014 -0.3515319 0.40929344 -0.12096612 0.2689624 0.55852526 -0.68404925
0.16954683 -1.3003922 -0.41628668 0.78217334 -1.212913 -0.72065383 -0.34978607 0.13237862
1.0593019 -0.67229956 -0.18746758 0.78471154 0.7529613 -1.1162679 -0.7790688 -0.74643713

layers.1.bias f4 [128]
00000000: 7d9f 89bf 79d6 cebe 12e5 3abe f242 17c0
00000010: 56b4 b3bf 8545 b83d 64dd 7dbe 1a61 c6be
00000020: 53b2 c1bf d81f 153e c416 25bf c0c7 303d
00000030: 6521 61bf 70b4 043e 3622 b6be da32 1ec0
00000040: 7a08 b1bf 455d 35c0 4fdc 25bf c58b 9ebf
00000050: 17b8 58bf f1b7 d1be f476 c83e a047 c9bf
00000060: 79a3 1abf f099 50bf 106c 98be 0c74 a8bf
00000070: d1b0 ddbe 266c 87be 9816 c4be b8eb 7c3e
00000080: 2770 f9be 6ea2 89bf 5369 02bf 4448 f1be
00000090: 885c f0be 390e 81be 875c cd3e 5157 17bf
000000a0: 7417 15bf 0ce3 e1bf e4b9 24bf 99c4 03bf
000000b0: 70e9 14c0 0290 37bf 5610 a1be 9d74 32c0
000000c0: be79 7ebf 643c cdbe 4c8b cebe 04f6 afbe
000000d0: 7d8b df3e 1840 bfbd b6fe bcbf d619 53be
000000e0: 7405 ddbe fe04 2dbe 2795 adbe 125d 82be
000000f0: e2e0 17bf 1170 acbe 13c8 c1bd ce04 f7be
00000100: 64c3 c0bf 164b 12bf 3a15 7bbf b712 d1be
00000110: 34f3 aebe 9ad0 b7bf e119 b4bf b279 3abd
00000120: 60b7 c1bf 5ba7 3bbf 3ff4 91be 5534 99be
00000130: ab7b a83c edf6 a33d b8e8 3dbf fe84 913e
00000140: 16e9 b3be f203 cebf e65c 4fbf 5685 0bc0
00000150: aa96 28bf 5951 803d 4e21 cdbe 2adf 24bf
00000160: e990 bfbf 0a61 3d3d a81a 43be d1b9 03be
00000170: c521 10bf 92a6 9fbe b2f2 f63c 3c34 14bf
00000180: 1714 15bd 183f 04bf 7263 edbe 4699 b0bf
00000190: d9a0 79bc af65 82bf be98 cabf 9d2d 8c3e
000001a0: 400f 96be f618 b53d 5b04 25bf eb15 fe3b
000001b0: 1f7f 0bbf c513 e9be da27 a23e be67 72bf
000001c0: d2a6 4fbe 68c1 29bf 5215 2f3e 39fc 60be
000001d0: 3db2 86bf 973a 8abf 07bd 243e 6122 ac3c
000001e0: 7720 37bf 6e48 8bbf 4560 23bf 0b68 59bf
000001f0: ec1a bfbe cea4 8fbe 6a15 2abe 633a 03c0
-1.0751797 -0.40398005 -0.18251446 -2.363461 -1.4039409 0.08997635 -0.24791485 -0.38745958
-1.5132545 0.14562929 -0.6448786 0.043159246 -0.8794158 0.12959456 -0.35572976 -2.4718537
-1.3830712 -2.8338177 -0.6478929 -1.2386404 -0.846559 -0.4096065 0.39153254 -1.5724983
-0.6040569 -0.8148489 -0.29769945 -1.3160415 -0.43298963 -0.26449698 -0.38298488 0.24699295
-0.48718378 -1.0752695 -0.5094196 -0.47125447 -0.46945596 -0.25206164 0.40109655 -0.5911761
-0.5823891 -1.7647414 -0.64346147 -0.5147186 -2.326748 -0.71704113 -0.31457776 -2.7883675
-0.99404514 -0.40085137 -0.4034065 -0.34367383 0.4366111 -0.09338397 -1.4765232 -0.20615324
-0.43168223 -0.16896436 -0.33902857 -0.25461632 -0.5932752 -0.3367925 -0.09461989 -0.48245853
-1.5059628 -0.5714582 -0.98079264 -0.4083459 -0.34169924 -1.4360535 -1.4070398 -0.045526214
-1.5134087 -0.7330224 -0.28506657 -0.2992274 0.020566782 0.08006082 -0.74183226 0.28421777
-0.35138768 -1.6094954 -0.81001127 -2.1800132 -0.65854895 0.06265516 -0.40064472 -0.6440302
-1.4966098 0.04623512 -0.19053137 -0.12863852 -0.5630153 -0.3118177 0.030145023 -0.57892203
-0.036396112 -0.51658773 -0.46364933 -1.3796775 -0.015236103 -1.0187281 -1.5827863 0.2737855
-0.2930851 0.088426515 -0.6445977 0.0077540777 -0.54490846 -0.45522895 0.3167103 -0.9468955
-0.2027848 -0.6631074 0.17097977 -0.21971215 -1.0523144 -1.079913 0.16087733 0.021012487
-0.7153391 -1.0881479 -0.6381877 -0.8492438 -0.37325227 -0.28055423 -0.16609731 -2.0504386

layers.2.weight f4 [1, 128]
00000000: 27d7 183e 93e7 253e 2a94 0abe ab46 503e
00000010: 18ec 443e 98ef 0cbf 5ad5 9e3d a72c c2bd
00000020: 9ad6 f23e 703c 9bbd 8e7b 033e e957 08bf
00000030: 5362 a03e 0d73 ebbe 9c46 11be 4ac4 cd3d
00000040: 353e 9e3d 2569 203e 8178 59be 246f 453e
00000050: 14c0 4a3e 48ef c3bd 037b 63be 117f 9f3e
00000060: 2635 e43d cd4b be3d 1dd0 95bd 48f7 003e
00000070: 8bd7 fabd c239 b3bd e232 1c3e 8bce ccbd
00000080: b04a 2dbe 82db c33d c538 83bc a12f 0a3e
00000090: 50c3 4d3e ee83 cf3b 84a3 f3bd 8b38 153e
000000a0: bf8f acbd 7760 df3d dc66 693e 78ec 0fbd
000000b0: c293 6d3f cf22 083e 6435 bcbc 5ff0 ff3d
000000c0: 0f7d 403e 10c5 1fbd 292d 55bc 1634 59bd
000000d0: 25be e23c 7b0e a6bd f7dc ad3d fb0b 2b3e
000000e0: e0d7 073e 6240 3a3e 1ea1 dfbd 768c 88bc
000000f0: 8610 153e f83e e2bd fdab 02be 4629 31be
00000100: 3590 1b3e 84c9 943d e7ab a33e f6a8 9fbe
00000110: aa6d 1b3e 37ca c63d 2e3d 7b3e db49 a63d
00000120: e188 013e 9e8c b4bc cfb2 e83b 3e44 3dbc
00000130: f275 19bf 0fde 31be cd70 073e 53a7 8cbe
00000140: 7a48 96bd ab8e 803e 8935 cabd 1a77 283e
00000150: 1208 7bbd 8f3d d5bd 30c3 053e bca6 e3bd
00000160: 5fc8 273e b3d1 18be aac9 8fbb 514d 493e
00000170: c4fc b33b f475 473e 176b 0fbf 3b23 6fbe
00000180: 7ce4 24bf 9843 be3c 2a6f f33d 1e83 b73d
00000190: 7049 d0bd c34f 08be 0d09 263e 0d3d 9ebe
000001a0: 2420 f43c 2df3 e9bb 45bc 5abd bad1 ecbc
000001b0: e230 d53d 63eb 173e a3b3 79be 2f66 4f3e
000001c0: 0397 d5bc 260c 103e 0337 b2be 8861 b0bd
000001d0: 1160 e23d 2f10 e83d 8f9e e1be 13fd 5bbe
000001e0: 0978 17be 7973 163e ba20 8fbd 616e a23e
000001f0: de56 cdbd 995d 3bbd d84c 0bbe 56ff fb3d
0.14925824 0.1620162 -0.13533083 0.20339458 0.19230688 -0.5505309 0.07755537 -0.09481173
0.47429353 -0.07579887 0.12840101 -0.5325914 0.31325015 -0.45986214 -0.14187092 0.10047205
0.07726709 0.1566511 -0.21237375 0.19280678 0.19799834 -0.09567124 -0.22214894 0.3115163
0.1114295 0.092918016 -0.07315085 0.1259433 -0.12248143 -0.08751251 0.15253785 -0.100003324
-0.16923022 0.09563352 -0.01601828 0.13494731 0.20094037 0.006332866 -0.118964225 0.1457235
-0.08425855 0.10907071 0.22793144 -0.035137624 0.92803586 0.13294528 -0.022974677 0.12497019
0.18797706 -0.039006293 -0.013011255 -0.05302819 0.027678559 -0.08108231 0.08489411 0.16703789
0.13265944 0.18188623 -0.109194025 -0.01666854 0.14557084 -0.110471666 -0.12760921 -0.17300901
0.1519173 0.072649986 0.3196709 -0.31183594 0.15178552 0.09706538 0.24535057 0.081195556
0.12649871 -0.022039708 0.007101394 -0.011551915 -0.59945595 -0.17369865 0.13226624 -0.27471408
-0.073380426 0.25108847 -0.09873492 0.16451684 -0.061286993 -0.10412132 0.1306274 -0.111157864
0.1638503 -0.14923744 -0.004388054 0.196584 0.0054927785 0.1947859 -0.5602278 -0.23353283
-0.6441114 0.02322559 0.11886437 0.089605555 -0.10170257 -0.13311677 0.1621439 -0.30905953
0.029800482 -0.0071395845 -0.053402204 -0.0289086 0.10409714 0.14835887 -0.24384932 0.20253824
-0.026072985 0.14067134 -0.34807596 -0.086123526 0.110534795 0.11331212 -0.44066283 -0.21483259
-0.14791884 0.14692487 -0.06988664 0.31724837 -0.10026334 -0.04574356 -0.13603532 0.12304561
