python/networks/testNE1_multi.pth (torch, 79116 bytes, 9 tensors)

layers.0.weight f4 [128, 57]
000000 58 b6 6a bd d4 a7 b6 3d cd ad 0b 39 43 46 bc 3c
       -0.057302803 0.089187294 0.00013320819 0.022982722
000010 43 95 a4 3c 6e 88 74 bd e1 5f 66 bc 08 45 09 bd
       0.020090705 -0.059700422 -0.014060945 -0.0335131
000020 88 0a 21 3d ca 38 05 3e 91 f3 ca 3d 25 11 29 bd
       0.039316684 0.13009945 0.09909738 -0.041276116
000030 b1 f9 df bc c5 cc 8a 3c 15 db c0 bd 45 f2 d5 3d
       -0.027340742 0.016943345 -0.094167866 0.104466
000040 0f 5e c8 bd cb f1 86 3d 36 4f f9 bd 6e 11 65 3d
       -0.09783565 0.06589087 -0.121733114 0.055924825
000050 f8 e1 cd 3d f3 09 ac bd 09 c4 f4 bd 4f 4c c5 3b
       0.10052866 -0.08400335 -0.11951453 0.0060210596
000060 7d 8d c1 bc 59 82 56 bd 77 d7 09 bd fb c4 82 3d
       -0.023627037 -0.052370403 -0.03365275 0.06385227
000070 66 af dd bd 84 15 ad bc e9 72 75 3d 4b 2e 11 be
       -0.1082447 -0.021128424 0.05992404 -0.14177816
000080 1a 32 34 bd 63 c0 10 3e b5 fd 0b bc cb 16 40 3d
       -0.043993093 0.1413589 -0.008544375 0.046896737
000090 56 53 d9 bd 4d 52 7a bd 98 1b 8e bc cc 9f b0 bd
       -0.10611598 -0.061113644 -0.017347142 -0.08624229
0000a0 0b 05 c2 bc 04 38 d8 bc 74 17 7d 3d cb eb bd bd
       -0.023684045 -0.026393898 0.061789945 -0.092734896
0000b0 82 0c d5 3d 69 d5 41 3e 29 91 f4 3e b2 c2 8f bf
       0.10402776 0.18929066 0.47766998 -1.1231291
0000c0 60 b9 12 bf bc 6c 78 3e 2f 02 d9 bc 52 df ba be
       -0.5731411 0.24260229 -0.026490299 -0.36498505
0000d0 ea 52 98 3e 5d 25 ae bd 6c 7d 2c bd 6f b1 68 3e
       0.29750758 -0.0850322 -0.0421118 0.22723936
0000e0 00 60 bd 3c 4f dc ce bb e6 ae 56 3d 3a a4 dd bb
       0.023117065 -0.006312884 0.05241289 -0.006763962
0000f0 23 9b 9b 3d c0 84 ed 3d f8 1d d5 3d 45 2c 0a be
       0.07597949 0.11597586 0.10406107 -0.1349345
000100 1f 9d da bb 05 a4 17 be ef f9 4a bd ce a1 53 bd
       -0.0066715623 -0.14808662 -0.04955476 -0.05166798
000110 70 69 3a bd 77 e8 45 be f8 97 88 3d 94 90 ba 3d
       -0.04551071 -0.1932696 0.06669611 0.09109607
000120 ab c3 04 3e 69 05 1c bd 08 12 a4 bd 5a 68 80 bd
       0.12965266 -0.038091097 -0.08011252 -0.062699035
000130 29 3a 12 3e 2f 48 47 bb f6 18 8f bd 37 ca 50 bc
       0.14279999 -0.0030408015 -0.06987183 -0.012743524
000140 31 a9 98 3c 48 34 20 bd 70 e6 fb bd b6 8b f7 3c
       0.018635364 -0.03911236 -0.12299812 0.030217987
000150 76 db c6 3c a4 4b b3 bd 1e 7f 12 3d ee c3 fb 3d
       0.024274569 -0.08754662 0.03576576 0.1229323
000160 cc 15 af 3d bd d0 02 be 01 f3 96 bd 92 18 c1 bd
       0.08549079 -0.1277494 -0.07370568 -0.094285145
000170 54 f2 96 3d 75 92 7d bc 4b f4 1a 3e f7 cf 42 bc
       0.07370439 -0.015476813 0.15132253 -0.011890403
000180 25 76 45 bd 40 1b f2 3c ea fa d7 bd ec d8 80 bd
       -0.048208375 0.02955401 -0.10545905 -0.062913746
000190 74 43 fc 3d 16 f4 85 bc c0 a4 08 3e 9c 52 2e bf
       0.12317553 -0.01635174 0.13344097 -0.680948
0001a0 7b ac 00 3e 1b 32 10 bd 66 9c 40 be a7 c1 9d bd
       0.12565796 -0.035204034 -0.18809661 -0.07702952
0001b0 1b cd 08 bc a3 96 cc 3e 15 b1 e3 3d a9 9c 93 3d
       -0.008349682 0.39958677 0.1111776 0.07207615
0001c0 3a b2 25 3d 74 4b 2e 3e 9d ca b6 bd 29 9e 95 bc
       0.040453173 0.1702097 -0.08925364 -0.018263893
0001d0 e8 81 a3 bd 3e 2c 0a bd 79 42 ad bd 30 5a 9e 3d
       -0.07983762 -0.0337336 -0.08459944 0.07732046
0001e0 9b cb 22 3d 8f 8b 6b bd 1e 79 98 3d 07 15 5a 3d
       0.039744955 -0.05750614 0.07444976 0.05324271
0001f0 3d 10 33 bd ca fd 09 3d 89 78 05 3e b7 bc 9f 3d
       -0.043716658 0.033689298 0.13034262 0.077996664
000200 ee 6a ab 3b 22 6a 36 bc 4f d6 cf bd 1a 63 36 3c
       0.005231253 -0.0111337025 -0.10148298 0.011132026
000210 46 01 61 3e a8 75 8c 3c 11 d7 46 bd a0 66 d4 3d
       0.21973142 0.017145947 -0.048544947 0.10371137
000220 9c b3 91 bc 7c 0d 26 3d 07 4f 9c bd c2 d4 08 3d
       -0.01778584 0.040540203 -0.07632261 0.033406027
000230 b1 19 27 3c 28 9e 5c 3c 98 04 44 bd a0 47 13 3d
       0.010198996 0.013465442 -0.047855943 0.03595698
000240 c0 55 ab bc c0 e7 89 3d 7c ff 94 bd c4 b2 49 bc
       -0.020914912 0.06733656 -0.07275292 -0.012310687
000250 07 ca 74 bd 16 3f b2 3c fb 36 f2 3c 68 91 3e bd
       -0.05976298 0.021758597 0.029567232 -0.04652539
000260 46 85 5c bd f6 dd 75 3d a7 71 70 3d a8 b2 0c 3d
       -0.053838037 0.06002613 0.058702137 0.034350067
000270 7d 1d 92 bd fe 80 05 bd a0 e1 78 3d f4 08 1d 3d
       -0.07134531 -0.03259372 0.060762048 0.038338616
000280 3d f4 03 be 90 33 98 bd 49 f6 0e be 5b 1d 98 be
       -0.12886138 -0.0743171 -0.13961138 -0.29709896
000290 81 ec 2a be db 04 bb 3e 49 34 36 bf be 26 b6 be
       -0.16691782 0.36527142 -0.7117353 -0.35576433
0002a0 ed 77 e0 3e b0 31 15 3d c9 ed 1f 3f 03 de ad 3c
       0.43841496 0.03642434 0.62472206 0.021224027
0002b0 14 20 0d bd f7 a4 b7 3b 16 3f 8d 3d be 72 5d bd
       -0.03445442 0.005604382 0.06896798 -0.054064505
0002c0 91 9f 8b 3d bf 61 b7 3d 55 b4 af bc 1c fe c0 bd
       0.06817544 0.089541905 -0.021448294 -0.094234675
0002d0 16 9f 18 3d 58 70 e9 bd 6d 9a 3c 3d 94 dc 06 3e
       0.03726109 -0.11398381 0.04604571 0.13170081
0002e0 46 a5 bd 3d f4 f7 cf bb ef ea 22 3c cd 8b 96 3d
       0.09260039 -0.006346697 0.009943708 0.07350884
0002f0 64 44 16 3d 6a 50 c7 bd e2 6a 63 bd 3f 1b 23 bd
       0.036686316 -0.09732135 -0.055521853 -0.039820906
000300 cc 4c d8 3b 64 ea 47 bd 49 83 25 bd 14 26 17 3c
       0.006600952 -0.048807517 -0.040408406 0.009225387
000310 c6 c8 e7 3b 91 21 32 3d c1 c5 67 3c d8 3e 81 bd
       0.0070734946 0.043489043 0.014146269 -0.063108146
000320 46 be 92 3d 6b 84 2c 3e 0d 8e 77 bc 60 4d cd bc
       0.07165198 0.16847388 -0.015109551 -0.02506131
000330 c4 c3 aa 3d d7 c0 f9 3d 33 03 e0 bd 06 80 2e bd
       0.083381206 0.121949844 -0.1093811 -0.04260256
000340 a4 39 42 bd 82 41 08 3e 5b 9b 46 bb 1f ba 04 3d
       -0.04741825 0.13306239 -0.0030305001 0.03240406
000350 54 b0 da 3d ad 9f c2 bd e5 45 30 3d 90 3a 02 bd
       0.10678163 -0.09503112 0.043035407 -0.03179413
000360 8b 76 9c be 43 b4 cc be 7b bc 60 bf a7 3c ba bd
       -0.3055919 -0.3998128 -0.877876 -0.090936
000370 bc b9 18 3f 48 ab 44 bd a6 36 26 3f bd a5 31 bf
       0.5965841 -0.04801491 0.64927137 -0.6939352
000380 f3 64 b6 be 5c e1 c7 3e 3a 7f 8e 3e da 0f 38 3f
       -0.35623893 0.39039123 0.2783144 0.7189919
000390 ba 20 7e 3d e3 d1 c7 bd fe 08 44 3d 5b b6 c8 bd
       0.06204293 -0.097568296 0.047860138 -0.098004065
0003a0 5b 2c bc 3c 50 92 90 3d 87 0e f2 3b 74 ba b0 bc
       0.02297037 0.07059157 0.0073869857 -0.021573283
0003b0 1a cf ac 3c e4 4a be bd 76 40 17 3d 9c 53 d7 bb
       0.021094847 -0.09291628 0.03692671 -0.0065712463
0003c0 cc bc e5 3d 93 53 e7 bc f0 15 c2 3c 0a 07 4b 3d
       0.11217651 -0.028238093 0.023692101 0.04956726
0003d0 02 be ab 3b b0 82 e0 bc 00 a3 02 3e 60 97 8b bd
       0.0052411566 -0.027406067 0.12757492 -0.06815982
0003e0 e7 2b 09 bd e1 61 9e bd d7 01 27 3b e3 5a 9d 3b
       -0.033489134 -0.07733513 0.0025483274 0.0048020943
0003f0 df d4 6d 3c 96 6d 02 3d ee a5 3a 3b 10 10 35 bd
       0.014516084 0.03184279 0.002848025 -0.04420477

layers.0.bias f4 [128]
000000 ef 7e f6 bc 52 1f 78 3d 4c f9 2b be 45 96 cc bd
       -0.030089824 0.060576744 -0.16794318 -0.09989599
000010 e1 96 3b bd a5 42 c9 3d c7 d9 30 bd 2b 92 0e bd
       -0.045798186 0.098271646 -0.04317644 -0.034807365
000020 89 47 4b 3e 4d 08 27 bc 45 a1 a2 3d 62 79 e7 3d
       0.19851507 -0.01019485 0.07940916 0.11302449
000030 ef 1b 3f 3d f9 90 31 be 6b fc 0d 3a 13 3d 8a 3d
       0.0466575 -0.17340459 0.00054163364 0.0674993
000040 d1 16 ba 3d 9b 42 b5 3d 54 f7 5f be 6d 98 e3 3d
       0.09086383 0.088505946 -0.21871692 0.11113057
000050 ab 0f 09 be 97 50 83 bd 15 e9 81 be 6b ae f5 3d
       -0.13384883 -0.06411856 -0.2537314 0.11996158
000060 49 96 99 bd 1c 5a f4 3d 84 59 e2 bd ae ff f7 bd
       -0.07499368 0.119312495 -0.1105223 -0.12109314
000070 dd 4c 3d bd 43 ed 49 3e eb 5c 9a 3d 2e 1f b7 bd
       -0.04621588 0.19719414 0.07537254 -0.08941494
000080 99 05 fb bd 10 24 db bd ba fa 0a 3d b1 c1 0a bd
       -0.12256927 -0.10700238 0.033930518 -0.033876125
000090 ef 48 ee bc a2 9b e4 3d c5 e8 8e bd 29 33 9e 3d
       -0.029087512 0.11162497 -0.06977991 0.07724602
0000a0 86 e4 1c 3b e1 27 2d be 2d 58 01 3b 7f 06 49 be
       0.0023939922 -0.16909744 0.0019736395 -0.19631384
0000b0 35 05 65 bd 13 61 b5 3d eb 59 5a bd bf 10 2d 3c
       -0.05591317 0.08856406 -0.05330841 0.010563075
0000c0 f5 d6 94 3d a7 b6 2d 3e 9a b6 bd bd 83 46 37 3e
       0.07267562 0.16964208 -0.09263344 0.17897992
0000d0 5b 2d ca bd b0 62 e5 bc d2 a0 21 be 4f 19 86 3d
       -0.09871932 -0.02800116 -0.15784004 0.06547796
0000e0 28 2a a8 bd 7a 9e 99 3b b4 49 1f bc 06 c1 18 ba
       -0.08211166 0.0046880813 -0.009722162 -0.00058271026
0000f0 86 d3 4c bd 4d 00 8a bc ba 85 4c 3d 1a 29 46 be
       -0.050006412 -0.016845847 0.04993222 -0.19351617
000100 7f 5e 6e bd b9 b0 db 3b ed ba 93 3d 0b e0 27 3e
       -0.058195587 0.0067044166 0.07213388 0.1639406
000110 1c f8 d4 3c 20 01 a8 3b 01 d9 9b bc d0 ea 1c 3e
       0.025997214 0.0051270872 -0.019024374 0.15323949
000120 88 eb 29 bd 5a cc 6c bc ea cd f3 bd da b5 05 3e
       -0.041484386 -0.014453018 -0.11904509 0.13057652
000130 7c e6 05 3d 45 40 e6 3c a4 01 a6 bd 65 04 de bc
       0.03269051 0.028106818 -0.08105782 -0.027101705
000140 d6 fc e2 3d 19 6c ac 39 ad 68 cd 3d 6d 03 52 bd
       0.11083381 0.00032886936 0.10029731 -0.0512728
000150 81 32 34 be db 62 1b be 31 9b f9 bd b1 c2 21 be
       -0.1759739 -0.15174429 -0.121878035 -0.15796925
000160 fc fe 57 be 78 00 12 bd 72 6f f2 bd 82 13 67 be
       -0.21093363 -0.03564498 -0.11837663 -0.22566035
000170 7b f5 43 3d 50 53 34 be bd 70 66 bd f5 8b bb bd
       0.04784153 -0.17609906 -0.05625986 -0.09157554
000180 23 84 f6 3d 35 68 63 bd 86 75 a0 3d d8 e3 c8 3c
       0.12036922 -0.0555193 0.07834916 0.024522707
000190 25 38 7b bd 7b d5 08 be 97 5a b7 bd 1f 6c d9 bd
       -0.06133284 -0.13362686 -0.089528255 -0.106163256
0001a0 d7 16 2e 3c 75 65 ee bd 3e 24 97 bd 13 7a 7d bc
       0.010625563 -0.11640445 -0.073799595 -0.015470999
0001b0 49 ad e2 3a f0 b6 66 be da 0f c1 bd 3c ba f5 3c
       0.0017294075 -0.22530723 -0.094268516 0.02999603
0001c0 28 b0 bd bc c7 ed 56 bd 47 7c f9 bd 4a 3a 70 bd
       -0.023155287 -0.052472856 -0.12181907 -0.05864934
0001d0 e0 89 32 bd 99 95 45 3d 91 59 16 3d 54 9d 14 be
       -0.04358852 0.04823837 0.03670651 -0.14513141
0001e0 f4 91 8d bb 88 ab 23 3d ed d3 d5 bb 11 dd 54 be
       -0.0043203775 0.039958507 -0.0065255077 -0.20787455
0001f0 9d 30 73 bd 4c 57 9f bd 7b 03 ac bc 43 7c df bc
       -0.059372533 -0.077803224 -0.020997753 -0.027280932

layers.1.weight f4 [64, 128]
000000 52 79 03 3e e8 55 99 3d 73 f9 be 3e 63 3e 86 3d
       0.12839249 0.074870884 0.3729969 0.06554868
000010 9a 2b 17 3e 34 c9 ff 3c 77 23 2f 3b 7e 56 0b 3d
       0.14762726 0.03122387 0.002672402 0.034018032
000020 ff 8a 70 3d ab a4 99 3e 64 b8 c7 3d 61 ae f0 3c
       0.058726307 0.30008444 0.097519666 0.029380025
000030 c8 e9 1a 3e 4d e9 96 3c 80 4a 8a 3e 01 9c 82 3d
       0.15128243 0.018421793 0.27009964 0.06377412
000040 0c 81 c1 3d 6d c7 09 3d ea 65 85 3d 47 a3 9a 3b
       0.09448442 0.033637453 0.06513579 0.004719171
000050 31 05 3f 3e 80 30 0b bd 9c eb a2 3e 06 45 4b bd
       0.18654324 -0.0339818 0.3182038 -0.049626373
000060 91 69 cb bd 73 40 fd 3d 87 6a ae bc a4 a2 4e 3d
       -0.099322446 0.12365808 -0.02129103 0.050448075
000070 85 6b fe bc c4 a9 fa bc 3b c3 cb bd fd 0f 3e bd
       -0.031057129 -0.030598529 -0.09949347 -0.046401966
000080 11 2e 66 bd 33 0b d3 3c ed cb 2c be cf d7 8f 3d
       -0.056196276 0.025762176 -0.16874667 0.07023584
000090 e0 cd d8 3d 1d 22 47 bc 0d c4 59 bd 76 30 db 3d
       0.105861425 -0.012154129 -0.053165484 0.107026026
0000a0 bd 61 0e 3e c6 ce e4 3c 6f 7b 52 3d e8 d4 71 bc
       0.13904472 0.027930629 0.051387247 -0.014760233
0000b0 1f 2d 1c be ec c3 13 3d 84 dc ea 3c 81 56 35 3d
       -0.15251587 0.036075518 0.028669603 0.04427195
0000c0 4e 3d 80 3c 74 e3 0d bc 0c f7 18 3e cc 52 4c ba
       0.015654232 -0.008660186 0.14937991 -0.000779432
0000d0 2f 4d d1 3d 71 7a 6b 3e 42 48 3e 3d 6c e0 00 bd
       0.102198 0.22995926 0.04645563 -0.031464025
0000e0 24 e0 51 bb 67 2b 24 be be 25 74 3d e2 49 ca 3d
       -0.0032024467 -0.16032182 0.059606306 0.09877373
0000f0 1d a6 db bd 85 d5 00 be 1d 51 4d 3e a6 c0 10 3e
       -0.10725043 -0.12581451 0.20050474 0.1413599
000100 8b 50 33 3e 86 be 74 3d ab c5 86 3d 50 07 fb bc
       0.17511193 0.05975201 0.06580671 -0.030643135
000110 9e 71 32 3e e3 26 ca bc 7a 9f 2b 3e 19 27 b8 3d
       0.17426154 -0.024676746 0.16760054 0.08991832
000120 20 5a 3c 3e 7b 47 fe 37 89 42 57 be df 73 ae 3d
       0.18393755 3.0312445e-05 -0.21021475 0.085181944
000130 a7 fe 65 3e 03 f2 04 3e c4 ef a7 bd f9 ec 4e 3e
       0.22460423 0.12982945 -0.082000285 0.20207585
000140 1d df b5 3c f4 c1 28 be ed d1 08 3e 76 40 6c bd
       0.022201115 -0.16480237 0.1336133 -0.057678662
000150 99 a0 8a 3e 64 f6 f2 bc c7 14 ab 3d 9a fa a7 3d
       0.2707565 -0.029658504 0.08353572 0.08202095
000160 fb 79 b5 bd 8a f8 72 3e 5e 7a 03 3d fa 1b 44 bd
       -0.088611566 0.23727623 0.03209912 -0.047878243
000170 2b 5a 13 3d bc 25 83 3e 9c 99 e1 bd d4 4c 6c 3e
       0.035974663 0.25614727 -0.11015627 0.23076183
000180 53 ef e9 bd 5d c7 40 3d a7 35 c8 bc 10 ac e0 3e
       -0.114226006 0.047065128 -0.024439646 0.43881273
000190 7a a3 6a be 9b 3f d5 bc 8a c8 ee 3d 68 59 4c 3d
       -0.22913924 -0.026031306 0.116593435 0.049889952
0001a0 0a 89 8b 3d 2d 15 42 bd 8e 9c ca 3d eb 5d 1e 3e
       0.068132475 -0.047383476 0.09893142 0.15465514
0001b0 ea 35 83 bd 1b af 7d 3e cc 89 4b be 40 28 1b bd
       -0.06406768 0.24773829 -0.19876784 -0.037880182
0001c0 de 5f 32 bd 4f a8 85 3d 4b 1e 8d 3e 61 5c c7 bd
       -0.043548457 0.06526243 0.27562174 -0.09734417
0001d0 6f 04 d0 3e a5 0e 30 3d 1b 97 9d 3d 1f 1b e0 3c
       0.40628383 0.042982716 0.07694837 0.027356682
0001e0 32 bb 85 3d 10 cc 41 3d 45 e4 49 bd 18 56 95 3d
       0.06529845 0.04731375 -0.04928996 0.07291812
0001f0 93 85 02 bb 9d 1a 52 3e 2b 73 4e 3c 63 e8 d4 bd
       -0.0019916042 0.20517965 0.0126007 -0.10395887
000200 f0 cb 38 3e 59 e5 8c bd 3b 1a 90 3e 75 5c ca 3e
       0.18046546 -0.06879682 0.28145012 0.39523664
000210 d1 d2 a5 3e 71 45 0a 3d d2 14 76 3d 00 a7 07 3f
       0.32387403 0.03375763 0.06007845 0.52989197
000220 69 e4 50 ba 85 81 99 3e 01 a9 94 3c 8d 83 91 be
       -0.0007968606 0.29981628 0.018146994 -0.28420678
000230 a5 6b 08 3e 51 94 95 3c 50 56 07 3f e7 24 f1 bd
       0.13322313 0.0182592 0.5286608 -0.11774617
000240 1d 35 98 3c ec a6 f5 3a 96 7c 47 be 38 73 54 be
       0.018580014 0.0018741763 -0.1948112 -0.20747077
000250 1d 52 65 3e 58 f6 2a be 02 b4 61 3e 4a 12 85 3c
       0.22394605 -0.16695535 0.22041324 0.016244072
000260 2b 6f 9b 3d 90 1e d2 3b c5 41 1f bd 6f 39 8d 3d
       0.07589563 0.0064123347 -0.038881082 0.0689572
000270 9d 55 bb 3e 91 4d da 3c e9 c0 44 bd 07 d5 d0 3c
       0.36588755 0.026648315 -0.048035536 0.025492204
000280 42 3d d6 3a 5b 74 0b 3e de 2d c7 3c b4 b6 94 be
       0.001634516 0.13618605 0.024313863 -0.2904564
000290 76 4a 4c 3e 68 6a 97 bc 01 69 a7 3d 98 28 d7 3d
       0.1995028 -0.018483356 0.08174325 0.105057895
0002a0 b7 07 52 3e f0 fb 22 3d ec 6c 68 3d 99 c3 78 bd
       0.20510755 0.039791048 0.0567445 -0.06073341
0002b0 c6 38 e0 bd 53 0c a2 bd d8 ae 2f 3e 7c af 0d be
       -0.10948329 -0.07912507 0.17156541 -0.13836473
0002c0 94 67 2f bc 47 b9 c9 3d 37 3f 8b 3e 5f 0a 13 bd
       -0.010705847 0.09849792 0.27196667 -0.035898563
0002d0 bd b8 1b 3d 6f c2 e0 3d b9 83 05 be dc 88 d8 bd
       0.038017977 0.10974585 -0.1303853 -0.10572979
0002e0 f8 f0 c8 bd db 34 25 3d e0 4f c4 3d 2a a3 c4 bd
       -0.09811586 0.04033361 0.095855474 -0.096014336
0002f0 1f d0 94 3d 1b 11 cb 3c 04 1a dc 3d bc d5 cc bd
       0.072662584 0.02478843 0.107471496 -0.10001704
000300 b2 0f 86 bd 4d 24 03 3e 1d 6e c9 3c b5 ba f7 bd
       -0.065459624 0.12806816 0.024588639 -0.120961584
000310 9f c0 ba 3d 75 3c 88 bd 2d 3a 0f 3d 66 2a 12 3e
       0.09118771 -0.06652156 0.03496759 0.14273986
000320 80 d7 37 3e 50 cf d4 3d f9 b9 1a bf 58 47 a6 bb
       0.179533 0.10391104 -0.6044002 -0.005074423
000330 c0 c0 39 3e 4f 13 3c 3d 5a 68 8b bb f2 7e 89 3e
       0.18139935 0.04591685 -0.004254383 0.26854664
000340 d9 0a 48 3d 75 b0 07 3d 7b 83 80 bd 30 90 ab 3d
       0.04883847 0.033127267 -0.06275078 0.08377111
000350 10 54 df 3d 25 03 53 bd b5 53 4e be 2b b8 24 3e
       0.109047055 -0.05151667 -0.20149119 0.1608588
000360 c0 af 7f 3c 43 7a 97 3d 87 8d 02 3e a3 01 fb bd
       0.015605867 0.073963664 0.12749301 -0.122561716
000370 6f 6f b9 3c 61 28 68 3e 94 a3 fb 3c d9 0f 5b 3e
       0.022636143 0.22671653 0.030717649 0.21392764
000380 a7 0e 32 3d cf b4 92 bd 7e 3d 53 be a8 31 24 3d
       0.043471005 -0.07163393 -0.20628926 0.04008642
000390 1f c9 c5 bd 10 d7 18 bd aa d9 87 be 61 5a 44 3e
       -0.096575014 -0.037314475 -0.26533252 0.19175102
0003a0 11 3c b3 3e b8 9e 69 bc d1 e2 fd bd 1d ac 89 3d
       0.35006765 -0.014259033 -0.123967774 0.06722281
0003b0 68 7e 30 be 1d c5 d8 3e 41 2f 48 3c d4 d9 43 3d
       -0.1723572 0.42337885 0.012218297 0.04781516
0003c0 8f ce 14 3c 47 b7 8f 3e d6 28 00 3d c9 8c ff bd
       0.0090824505 0.28069517 0.031288944 -0.124780245
0003d0 da 98 7d 3e 94 a2 6d be fc ea a9 bd a8 d1 5d 3e
       0.2476534 -0.2320655 -0.08296773 0.21662009
0003e0 f3 f4 20 3d f3 10 1f bd b0 d0 1f bc 6d b7 23 3d
       0.0392961 -0.038834523 -0.009754345 0.03996985
0003f0 dd d2 19 3c 4d 1f e4 3e 41 fb 45 3d f0 85 49 3c
       0.009388653 0.4455513 0.048335318 0.0123

layers.1.bias f4 [64]
000000 07 21 07 bd a8 f2 e9 3b f6 81 28 bc 58 98 ab bd
       -0.03299048 0.0071395226 -0.010284891 -0.08378667
000010 ab a6 16 3e 74 7a 35 bd 9e 5a 0e be 0d b8 ac bb
       0.14712016 -0.044306234 -0.13901755 -0.005270964
000020 09 b1 a1 bd f1 2f 23 be a2 95 85 bc 55 be db bd
       -0.07895095 -0.15936257 -0.016306702 -0.10729662
000030 50 94 4b bd 7d 27 c1 bd e5 f0 f3 bc c0 9f 85 bd
       -0.04970199 -0.0943136 -0.029777953 -0.065246105
000040 c5 44 43 3e d6 c7 0b bb b6 a3 e3 3d fa 3e 15 be
       0.19069202 -0.0021328828 0.1111521 -0.14574805
000050 f5 26 e7 bd 18 83 92 bd cb 2a fc bd 17 ab 99 bd
       -0.11286727 -0.071539104 -0.123128496 -0.07503336
000060 16 cd df bd a8 ba 6e bd 36 50 cc bd 50 cb d8 3d
       -0.10927789 -0.058283478 -0.099762365 0.10585654
000070 0a 04 25 3d 34 c1 36 bd bf 40 3a 3e 12 92 26 be
       0.040287055 -0.044617847 0.18188761 -0.16266659
000080 f0 00 c2 3c f9 0d 6d bd ba f0 ae bd 7d 64 1c 3d
       0.023682088 -0.057874653 -0.08542009 0.03818177
000090 a0 5e 53 bd 64 80 90 bc d5 05 c5 bd 0e cb ca bc
       -0.051603913 -0.017639346 -0.09620253 -0.024755027
0000a0 62 71 b0 bd c6 19 6b bd 83 fd b2 bd e7 7d 20 bd
       -0.08615376 -0.057397626 -0.0873976 -0.03918257
0000b0 5c 30 32 3d 1b 3a 07 3d b8 3c 1b bd b6 c4 eb bd
       0.04350315 0.033014398 -0.037899703 -0.11512129
0000c0 1e 8f db 3d b6 f5 cf bd 94 00 39 be 97 a2 83 bd
       0.10720657 -0.101542875 -0.18066627 -0.06427496
0000d0 f0 76 13 3e e6 5c 52 bd a7 f3 cc 3c 17 3a 02 bd
       0.1440084 -0.051358126 0.025018526 -0.03179368
0000e0 aa 1f 01 bd f4 e5 a6 bd 4e 62 53 bc f3 0c 27 3d
       -0.031524338 -0.08149329 -0.012901856 0.040783834
0000f0 18 52 4a bd 84 5b 93 3d b5 50 04 be ad 99 66 bd
       -0.049394697 0.071951896 -0.12921412 -0.0562989

layers.2.weight f4 [32, 64]
000000 47 a6 29 3e 3d f3 23 3e b8 17 f7 3d 18 52 27 3e
       0.16567336 0.16010757 0.12065071 0.1633991
000010 ba 48 b8 3d 63 2c 2c be 68 2e 86 3d 82 3d 76 3e
       0.089982465 -0.16813807 0.0655182 0.24046901
000020 d5 c2 27 be ac 02 af 3e 2d 8b 02 3d c4 61 fe 3d
       -0.16382916 0.34181726 0.03187101 0.12420991
000030 09 a3 44 3f 54 69 fe 3d c3 0b 0c 3d b3 4a 5b bd
       0.7681127 0.124224335 0.034190904 -0.053538036
000040 5d 5d f5 3d d6 b5 b0 3e 17 c7 a3 3b 7a 32 bd 3d
       0.11980698 0.3451373 0.0049980986 0.09238143
000050 2c 15 18 3f 0a ff 40 3d b0 dc 0a 3f 22 09 14 3e
       0.59407306 0.047118224 0.5424299 0.14456609
000060 2b d2 0b 3e ea 78 5d 3c 27 71 2c 3f f1 be f5 bd
       0.13654391 0.013517598 0.67360157 -0.1199931
000070 9a ad 31 be ee bb 0f 3e ad cf 1e 3d 02 e1 38 3f
       -0.1735138 0.14036533 0.038772274 0.72218335
000080 03 5d 88 be 9d 5a e1 3d c4 e5 a3 3d 49 58 a0 3c
       -0.26633462 0.11003611 0.08002809 0.019573348
000090 fa 64 82 3d 93 35 50 3e 9b 49 54 3e ec dd 0a 3f
       0.06366916 0.20332937 0.20731203 0.54244876
0000a0 48 f3 22 3f 2e 84 33 3f 00 bc eb 3e ec a1 ad 3d
       0.6365247 0.70123565 0.4604187 0.0847815
0000b0 9c b9 b2 3d 47 47 d3 bc bc 62 74 bb 0b 86 1f 3f
       0.087268084 -0.025790824 -0.0037290296 0.6231391
0000c0 e0 3c a6 be 0a 1c db 3e 37 85 27 3e 72 6b 96 3d
       -0.3246832 0.4279483 0.16359411 0.07344712
0000d0 eb ba 1f 3e 18 4d 5f 3d 56 ce 00 bd ca de 21 3e
       0.15598647 0.05451688 -0.031446777 0.15807644
0000e0 b9 e3 a7 3e 12 0f 4b be 6d 22 0e be 07 e5 12 3f
       0.32790926 -0.19829968 -0.1388032 0.5738072
0000f0 6d 39 11 3e 3a 89 54 3d 8b 19 7c bc ca 2d 39 3e
       0.14182062 0.051888682 -0.015386949 0.18083873
000100 2a 0f ff bc 72 77 f3 bc 6e c9 51 bc 30 ce 86 3d
       -0.03113516 -0.029720042 -0.012804372 0.06582296
000110 ca 9e dc 3d f0 9b 26 be 2b 09 65 bd c2 c7 bc bd
       0.10772474 -0.16270423 -0.055916946 -0.09217788
000120 98 45 2d 3e ee 29 43 be 4f e5 31 bc c5 cd be bd
       0.16921079 -0.19058964 -0.010857894 -0.09316591
000130 ea 3e f9 be 4e 5c d6 3c 3e a7 14 3e 2b 0c 19 3e
       -0.48680812 0.026167061 0.14516923 0.14946048
000140 c1 ef 4d 3e 00 5c d3 bd 6c a1 26 3e 5a 72 2d bd
       0.2011099 -0.10320282 0.16272515 -0.042345382
000150 c9 17 df be 6f 4f 05 3e af 73 06 bf 29 0b 00 bb
       -0.43572834 0.13018583 -0.5252027 -0.0019537902
000160 86 42 3b 3e 4c 84 f1 3d b1 60 0d bf a8 78 95 3e
       0.18287095 0.11792812 -0.55225664 0.29193616
000170 40 ca a8 3e ea de 38 3e b4 63 47 3e db 98 19 bf
       0.32966805 0.18053785 0.19471627 -0.59998864
000180 09 c2 7f 3e ce 9b d6 3d cb c0 85 bc dd 1f 47 3e
       0.24976362 0.10478936 -0.016327282 0.19445749
000190 71 13 17 3e d3 ba 49 bd 44 d0 e7 bd 9e e0 ec be
       0.1475351 -0.049250435 -0.113190204 -0.4626512
0001a0 e9 42 d1 be 90 ca cc be fa f2 fb be 57 94 34 3e
       -0.4087136 -0.39998293 -0.49208814 0.17634712
0001b0 3d f6 56 3d 34 9a 12 3d 2c 42 dc 3d a4 14 d8 be
       0.052480925 0.03579159 0.10754809 -0.42203248
0001c0 5d a1 b3 3e b4 bb b5 be 72 54 46 3d 0d 82 4f 3c
       0.35084048 -0.3549477 0.048420377 0.012665284
0001d0 d0 7f 9e bc 02 4a 35 3d 99 e3 7f bd e1 6f 6b 3d
       -0.019348055 0.044260032 -0.062472913 0.057479743
0001e0 b0 9e e7 bd fe 44 02 3e 43 c5 11 be d6 37 e5 be
       -0.11309564 0.12721631 -0.14235406 -0.44769162
0001f0 71 85 55 3d aa 14 7a 3d bc 4f 3b 3e 04 22 29 3e
       0.052129213 0.061054863 0.18292135 0.16516882
000200 3f bc e2 3c c3 3d 60 be e2 e4 c5 3c fe f4 0e be
       0.027677653 -0.2189856 0.024156991 -0.13960645
000210 7b 29 50 3e aa 3f 8d bd de d2 35 be c3 fb b0 be
       0.20328324 -0.068969086 -0.1775622 -0.3456708
000220 99 8f ba 3d 15 5c 96 be ba 23 d3 bd 23 6d 31 be
       0.0910942 -0.29367128 -0.10309549 -0.17326789
000230 ad 15 27 bf c8 85 48 bd f8 e7 7a 3c d6 81 c6 bd
       -0.6526745 -0.04895571 0.015314095 -0.09692733
000240 dd 88 68 3d 18 ea 3f be 4c c8 29 bd e5 c1 89 be
       0.056771148 -0.18741643 -0.041450784 -0.26905742
000250 6c 79 2e bf 4e cd e3 3c ca 58 0f bf 49 17 d3 bc
       -0.68154025 0.027807858 -0.55994856 -0.02576794
000260 18 ca 08 ba ec b8 31 be 88 f2 23 bf 59 a8 9d 3d
       -0.00052181026 -0.17355698 -0.6404195 0.076981254
000270 29 1b 66 3e 67 17 45 bd d4 73 84 3d 73 c2 38 bf
       0.22471298 -0.04811802 0.06467405 -0.72171706
000280 a7 fa 9c 3e 72 07 82 bd 49 11 21 bd 07 d0 b7 3c
       0.30659983 -0.06349076 -0.039323125 0.022438062
000290 91 80 e7 bd 40 19 0f be dd 81 0f be 57 01 0f bf
       -0.11303819 -0.13974476 -0.14014383 -0.5586142
0002a0 a5 a3 25 bf 50 5e 21 bf 5e 1b 08 bf a0 ea 0f bd
       -0.64702827 -0.63034534 -0.5316676 -0.035135865
0002b0 45 9d f2 bd a3 7e b8 bb 29 f3 f5 bd a4 7e c5 be
       -0.11846403 -0.0056303306 -0.1200927 -0.38573182
0002c0 92 ef e9 3e 96 82 e5 be 59 a0 38 be 50 7f 9c bd
       0.4569059 -0.44826192 -0.18029918 -0.076414704
0002d0 4d 58 80 bd 24 20 14 be 70 76 a7 3d a6 f7 0c be
       -0.06266842 -0.14465386 0.08176887 -0.13766345
0002e0 d7 ff a0 be 3e 93 3a 3e d3 9d 81 bd ca 8d fd be
       -0.3144519 0.18220231 -0.06328931 -0.4952224
0002f0 3e bd f0 3c 1d 6f 97 3d 93 b6 b1 bd e8 1d 07 be
       0.029387113 0.0739424 -0.086774014 -0.13195002
000300 a0 19 23 3e c1 01 d0 3d a9 df 03 3e b3 ac d4 3d
       0.15927744 0.101565845 0.12878288 0.10384502
000310 82 b6 2f be d4 f5 dc bd 61 b3 72 3d 9f ca cb 3e
       -0.17159465 -0.107890755 0.0592531 0.39803025
000320 7c 09 07 be 5c 64 07 3e 56 4a 35 3c b0 d2 6b 3e
       -0.13187212 0.13221878 0.011065086 0.2302959
000330 3c 74 46 3f 4c be 2d bd ab e7 50 bd cf f0 1f bd
       0.7752111 -0.04241781 -0.051002186 -0.039048012
000340 19 9f 57 bd de b8 53 3e 71 31 cc bd 58 46 64 3e
       -0.05264196 0.2067599 -0.09970368 0.22292459
000350 ae 43 0e 3f 14 c1 fa 3d c8 34 27 3f a5 26 f9 3d
       0.5557202 0.12243858 0.6531491 0.12165574
000360 4e 2b 70 bd 31 1e 23 3e 2c f1 3a 3f 4c ac 88 bd
       -0.05863505 0.15929486 0.7302425 -0.06673488
000370 f1 fa dd 3a b1 84 17 3e f7 9f 19 be 51 d4 36 3f
       0.0016935748 0.14796712 -0.15002428 0.7141772
000380 89 4c 99 be 4c 45 c9 3c 02 2d e3 3d ac 3e 48 be
       -0.29941204 0.024569176 0.11092569 -0.19555157
000390 70 cd fe 3d 90 b7 43 3e 9f fc 9a 3c c0 3c 05 3f
       0.12441528 0.19112992 0.018919287 0.5204582
0003a0 80 6d 26 3f d0 8e 34 3f 2e a3 09 3f fd 07 58 bd
       0.65010834 0.70530415 0.5376462 -0.052741993
0003b0 3e a9 19 3d fe 74 d1 bd 89 5e 89 3d 48 01 e7 3e
       0.037514918 -0.102273926 0.06707484 0.45118165
0003c0 0b a9 cd be bc d9 f2 3e 1f 62 a9 3d 25 bd ab 3d
       -0.40168032 0.47431743 0.08270668 0.08385686
0003d0 d2 c5 a7 3d 5d 52 09 3e e3 b4 45 3a 09 b6 97 3d
       0.08192028 0.13410325 0.0007541908 0.07407767
0003e0 ae e2 14 3e 59 0e 3b be ab bf b1 bd 5a 13 fa 3e
       0.14539596 -0.18267192 -0.08679136 0.4884289
0003f0 3d f2 db 3d 29 cc f1 3c 30 5e ac bd d7 04 47 bd
       0.10739563 0.029516296 -0.08416402 -0.0485886

layers.2.bias f4 [32]
000000 97 ac 16 3e dc 1c 30 3e a7 76 1f bd 75 6c ab 3d
       0.14714275 0.17198509 -0.038931515 0.08370296
000010 de c9 a9 3c 58 10 a5 3c 4d 1e d3 3c cd c2 18 bd
       0.02072614 0.020149395 0.025771284 -0.03729515
000020 40 14 11 3e 0d f1 fd bd 76 a3 fe bd 1c 53 03 3d
       0.14167881 -0.123994924 -0.124335214 0.03206168
000030 07 6e a2 bd 68 47 90 3d 05 70 fc bc f6 ed e9 3d
       -0.07931142 0.0704487 -0.030815134 0.114223406
000040 a3 46 b6 bc 24 01 c2 bd 58 dc d6 3c e8 8f c4 3d
       -0.02225048 -0.09472874 0.026228115 0.095977604
000050 ad 00 b0 3d fe 21 32 3e 8c 93 1b be c1 eb ff bc
       0.08593879 0.1739578 -0.15193003 -0.031240346
000060 da ed 2c 3e 89 18 92 3c 6f df 2a bc e9 9b a5 bd
       0.16887608 0.017833965 -0.010429247 -0.08086378
000070 4c c7 68 bd c3 d7 15 3c 61 8b 15 3e 3e c6 47 ba
       -0.05683069 0.00914568 0.1460395 -0.0007620788

layers.3.weight f4 [16, 32]
000000 1e ec 31 3e 97 32 97 be 6b aa 21 be 16 99 a2 3e
       0.17375228 -0.29530784 -0.15787666 0.3175742
000010 d7 7b 9f 3e 55 77 97 be 95 55 3f 3e 2f 19 9d 3e
       0.3114917 -0.2958323 0.1868499 0.30683276
000020 40 88 ab 3e eb fe 18 be 7b eb d4 bd e0 2e 74 be
       0.33502388 -0.14940993 -0.10396477 -0.23846006
000030 6b 9f 25 3f 47 6b ae 3c 3b 66 84 be ae 9f 9c 3e
       0.6469638 0.021291388 -0.25859246 0.30590576
000040 8e 06 6f 3d 30 72 ae be c7 7d b6 3e 4a 1b c2 3e
       0.05835586 -0.34071493 0.35642835 0.37911445
000050 0a ab 8e be 4e 0c 94 be b1 52 78 3f 4d 80 ac 3e
       -0.27864867 -0.28915638 0.9700118 0.33691636
000060 b5 5d cb be e8 6a 57 3e a6 69 b6 3e ab 87 30 3e
       -0.3971993 0.21036875 0.35627478 0.17239253
000070 79 e3 44 3e 70 b5 4d 3d 8d c6 58 3e 12 33 a1 3e
       0.19227399 0.05022186 0.21169491 0.31484276
000080 f8 58 35 3e d2 18 da bd 69 40 8f be 7c ce 39 3e
       0.1770972 -0.10649265 -0.2797883 0.18145174
000090 df 9a 35 3e 8e a3 3d be 05 aa 00 3e a9 56 70 3e
       0.1773486 -0.18519422 0.12564857 0.23470558
0000a0 48 e3 82 3e 58 7f 3f be 16 c8 4c be 93 07 75 be
       0.25564027 -0.18700922 -0.19998202 -0.2392867
0000b0 bc 82 2c 3f b2 1c b7 3e a7 d7 2e be 75 8d 8d 3e
       0.67386985 0.3576408 -0.17074452 0.27646986
0000c0 90 63 ac 3e 0d 86 60 be 2f a8 89 3e ca d2 49 3e
       0.3366971 -0.21926136 0.26886126 0.19709316
0000d0 9e cb ac be e4 30 ad bd f4 73 75 3f 1a 99 74 3e
       -0.33749098 -0.08456591 0.95880055 0.23886529
0000e0 7f 58 94 be 7a 6e 91 3e bf 0e ef 3d 45 ca 86 3e
       -0.28973767 0.284046 0.116727345 0.26326194
0000f0 9b 16 94 3e ca 1f 95 3e cd 5e 9f 3e 50 7c 74 3e
       0.28923497 0.29125816 0.31127015 0.23875546
000100 17 a1 64 be 7a 2f 81 3d eb c0 a4 3e 1b ca 5e be
       -0.22327076 0.063078836 0.32178435 -0.21756785
000110 40 53 33 be ce 52 42 3e 38 66 a4 be 2e fb 8a bd
       -0.17512226 0.189769 -0.32109237 -0.0678619
000120 1e a6 a2 be 78 5d 42 bb 41 64 43 3e e8 03 eb 3d
       -0.31767362 -0.0029657762 0.19081213 0.114753544
000130 4b 65 10 bf 28 58 82 be ca ab 2e 3e b1 e8 83 be
       -0.5640456 -0.25457883 0.1705772 -0.25763467
000140 e0 29 9e be f1 1a 2c 3e 00 0b 14 be 00 1e bc be
       -0.30891323 0.16807152 -0.14457321 -0.36741638
000150 59 a2 af 3d 8e e5 83 3e ea 70 2c bf f0 d8 54 be
       0.08575887 0.25761074 -0.67359793 -0.2078588
000160 c6 b5 83 3e 36 ec e5 bc 69 0d 5b be 13 9b 87 bc
       0.2572462 -0.028066736 -0.21391834 -0.016553437
000170 26 ef 96 be 51 ae ae be ff 1d 89 be 10 21 1e be
       -0.2947933 -0.34117368 -0.26780698 -0.154423
000180 b8 ae ef 3c 57 db 43 be ba 36 70 be ee 99 ab 3e
       0.029258117 -0.1912664 -0.23458377 0.33515877
000190 ca f0 a5 3e 10 db 9a be 18 fe 6f 3e a9 43 bf 3d
       0.3241027 -0.30245256 0.23436773 0.09339077
0001a0 ad d0 44 3e c4 b0 94 be a1 a9 d3 bd a1 9a 35 be
       0.19220228 -0.2904111 -0.103350885 -0.17734767
0001b0 ce f7 0d 3f 2c e8 59 3d 39 d1 93 be 2f fb 12 3e
       0.55456245 0.053199932 -0.28870562 0.14353631
0001c0 ef 78 22 3e a9 6e 81 bd 99 ab 69 3d 96 00 ec 3d
       0.15866445 -0.06319935 0.057048414 0.11523549
0001d0 9e 40 fc be 58 36 ca be 7f 73 68 3f 64 3b d7 3e
       -0.4926805 -0.39494586 0.90801233 0.420375
0001e0 80 6a d7 be 5f e8 4c 3e 72 f8 b0 3d 3a 04 9d 3e
       -0.4207344 0.20010518 0.08641137 0.30667287
0001f0 52 b6 9c 3e 09 73 b1 3e 73 a9 93 3e 15 f8 82 3e
       0.3060785 0.34658077 0.28840217 0.25579897
000200 e3 ad 0b be eb ea 97 3e 7a b1 0b 3e ec 7b d1 bd
       -0.13640551 0.29671416 0.1364192 -0.10228714
000210 e1 31 12 be f3 6b 0c 3e ec dd a3 be be dd 12 be
       -0.1427684 0.13713054 -0.3200525 -0.143424
000220 78 23 d8 bd 26 07 87 3e df 32 7c 3e be 43 31 3d
       -0.1055364 0.2637264 0.24628781 0.043277495
000230 cf c5 de be 37 fa ae be 1b da e7 3d 40 41 86 be
       -0.4351029 -0.34175274 0.11320897 -0.26221657
000240 28 24 38 be 4d c4 bb 3d f2 1d 0b be 22 29 52 bd
       -0.17982543 0.09168301 -0.13585642 -0.05130876
000250 84 6b f2 3d e8 ce 37 3d cf 14 64 bf bf a7 8c be
       0.11836913 0.044875056 -0.8909425 -0.2747173
000260 a1 e4 76 3e 42 97 0d be ca e0 9e be 03 ca a2 be
       0.24110653 -0.13827232 -0.31030875 -0.31794748
000270 c1 d9 35 be 35 24 60 be 23 98 49 bd 2f ca 4d be
       -0.17758848 -0.21888812 -0.049217355 -0.20096658
000280 d3 95 3d be 09 41 9b 3e f1 a4 79 bc de 27 45 be
       -0.18514185 0.30323055 -0.015237079 -0.1925349
000290 b3 94 63 be 74 ed 7f 3d 90 2c 01 be 55 54 a2 be
       -0.22224693 0.062482312 -0.12614655 -0.31704965
0002a0 20 a4 7f be 22 ec 75 3e a1 54 bd 3d 4e 6b 06 3e
       -0.24964952 0.24015859 0.09244657 0.13126871
0002b0 bd 3f 0d bf 45 a1 1d bc bb b1 09 3e cf 22 f2 bd
       -0.5517538 -0.009620969 0.13446705 -0.118230455
0002c0 1f fe 0c be 8c 6b 32 3e 31 25 7a be be 94 16 be
       -0.13768815 0.17423838 -0.2442825 -0.14705178
0002d0 51 cc 85 3d 41 d0 79 3d 90 d8 3e bf a8 f6 82 be
       0.06533111 0.060989622 -0.745492 -0.2557881
0002e0 ab e5 84 3e 34 8f 9a bd 74 5c 8e be c1 de 64 be
       0.25956473 -0.07546845 -0.2780491 -0.22350599
0002f0 1e 7e 6d be 00 24 95 be 8b e0 88 be 90 58 d3 bd
       -0.23192641 -0.29129028 -0.26733813 -0.10319626
000300 0e aa 1d 3d 79 c3 2c bf 04 1d a5 be 2e 5c 0d 3e
       0.038492255 -0.6748577 -0.322487 0.13804695
000310 d9 0d 98 3e c8 91 96 be 93 06 43 3e f5 c3 2a 3e
       0.29698065 -0.29408097 0.19045477 0.16676314
000320 d1 14 51 3e f5 d8 cf bd 02 ab 88 be a1 a6 8f be
       0.20418097 -0.10148803 -0.2669297 -0.28056815
000330 ff 47 46 3f 0d 34 9a 3e ed 51 80 be 66 a2 ba 3d
       0.7745361 0.30117837 -0.25062504 0.09113006
000340 10 d8 26 3d b8 e9 1f be a2 d5 35 3e 6d cb 63 3e
       0.040733397 -0.156165 0.17757276 0.2224557
000350 e6 bf 2e bf 44 19 02 bf ad 22 81 3f 79 06 9a 3e
       -0.68261564 -0.508198 1.0088707 0.30083063
000360 be 1f 24 bf 7c bc 11 3e 05 1e bb 3e af 89 58 3e
       -0.64110935 0.14232057 0.3654634 0.21146272
000370 82 6f 5e 3e f4 17 b5 3e b4 d3 65 bc c7 df 4d 3e
       0.21722224 0.35369837 -0.014027525 0.20104896
000380 45 4e 86 be 4d f7 6a 3d 46 c5 11 3d d6 84 a1 be
       -0.2623159 0.05736475 0.035588525 -0.31546658
000390 1c 4c 9a bc e3 a9 55 3e 6b c9 f5 bc 21 f9 b6 be
       -0.01883512 0.20865588 -0.03000327 -0.35736945
0003a0 27 03 8f be 24 ab 22 3d 19 fa 0c 3e 4c c8 a5 3e
       -0.27932093 0.039713994 0.1376728 0.32379377
0003b0 43 60 15 bf 76 84 f6 bd d2 54 87 3e 60 c8 f1 bd
       -0.5835001 -0.12036984 0.264319 -0.118057966
0003c0 a9 c1 a3 be ab 66 af 3e 42 cf bc be 3a 20 62 be
       -0.31983688 0.34258017 -0.36876875 -0.22082606
0003d0 81 5a 7e 3e a1 58 6c 3d d0 ef 24 bf 11 bd 27 be
       0.24839212 0.05770171 -0.64428425 -0.16380717
0003e0 e2 69 3c 3e 69 7e 84 be e4 6b ca be 2f af f4 bc
       0.18399766 -0.25877693 -0.3953544 -0.02986869
0003f0 92 1c 9f be b0 ee bb be 51 14 7a bd ac c1 83 be
       -0.31076485 -0.36705542 -0.06105453 -0.25733697

layers.3.bias f4 [16]
000000 81 5b 40 3e 84 e0 9a bd f7 08 b5 bd 25 82 17 be
       0.18784906 -0.07562354 -0.088396005 -0.1479574
000010 72 02 33 be c2 5f a9 3d 2b c5 ea ba 61 87 07 be
       -0.17481402 0.082702175 -0.0017911544 -0.13235237
000020 a1 00 4b 3e ed c5 a0 bd 63 27 cc 3c 56 86 f0 bc
       0.19824459 -0.07850251 0.024921125 -0.029360931
000030 3b 22 20 3e 0f 35 92 bd 4c 63 1c 3e 5d 19 e7 ba
       0.15638058 -0.071390264 0.15272254 -0.001763146

layers.4.weight f4 [1, 16]
000000 41 76 ee 3e e9 1a c6 3e bb d9 b0 be 9a 43 f3 3e
       0.46574596 0.38692406 -0.34541115 0.47512513
000010 e9 de ac be a6 7d be be eb f5 15 3f 20 cd cf be
       -0.33763817 -0.37205237 0.58578366 -0.40586185
000020 7d e3 91 3e ff b0 9c be de fd 90 3e 99 36 d2 be
       0.28493872 -0.30603787 0.28318685 -0.4105728
000030 5d 8e e7 3e 0e e6 c2 be 66 e8 fc 3e 04 65 8c be
       0.45225802 -0.38066143 0.49396056 -0.2742082
