python/networks/testNE1_single_point.pth (torch, 21276 bytes, 7 tensors)

layers.0.weight f4 [64, 20]
0	0xc003b12d	-2.057689
1	0xbe42710e	-0.1898844
2	0x3f92604a	1.1435635
3	0xbf7f0d1d	-0.99629384
4	0xbe8696fe	-0.26287073
5	0xbfb8a929	-1.4426624
6	0xc0375b65	-2.8649533
7	0x3f11c744	0.5694468
8	0x3fda7a00	1.7068481
9	0x3eec939a	0.4620636
10	0xbf0f1ce7	-0.55903476
11	0x3ed6e804	0.4197389
12	0xc0c7cb54	-6.2435703
13	0x40bfd4b9	5.994717
14	0xc100f42f	-8.059615
15	0xc1375529	-11.458291
16	0xc11cfb99	-9.811425
17	0x41073fff	8.453124
18	0x412419eb	10.256328
19	0x4116a5ef	9.415511
20	0xc08ea15e	-4.457198
21	0x3e7d621e	0.2474446
22	0x3ffa02d1	1.953211
23	0x3d87b34d	0.06625996
24	0xc07cfe51	-3.9530222
25	0xbf457cf2	-0.77143776
26	0xbf7ee7e2	-0.99572575
27	0x3e8aa3e8	0.27078176
28	0x40b2ddb3	5.589563
29	0x3f668c70	0.9005804
30	0x406abe72	3.6678739
31	0xbeb7e693	-0.35918102
32	0xc0f9374a	-7.787999
33	0xc0ab28e5	-5.348742
34	0x410aee2b	8.683146
35	0x4069c366	3.6525512
36	0xc0e32379	-7.09808
37	0x40cc8d5f	6.392257
38	0x41163100	9.386963
39	0xc0eeb5a1	-7.4596715
40	0xbd8673ac	-0.065650314
41	0x3d9b5170	0.07583892
42	0x3dc28370	0.09497726
43	0xbdbc1ca3	-0.091851495
44	0x3e0f3f7d	0.13989063
45	0x3db31ec2	0.08746101
46	0x3e184ef3	0.14873867
47	0x3debd019	0.11514301
48	0x3c30f042	0.010799469
49	0x3e20c7a5	0.15701158
50	0xbd9716cd	-0.07377396
51	0xbe3ab27c	-0.18232149
52	0x3e661894	0.22470313
53	0x3d36323e	0.04448151
54	0xbe7fd0fc	-0.24982065
55	0x3d1a2d4d	0.03764086
56	0xbe243242	-0.16034797
57	0xbef0f4a6	-0.47061652
58	0xbdf15786	-0.11784272
59	0x3ecb19d0	0.3966813
60	0x3e2a9cd2	0.16661385
61	0xbe5ef8fe	-0.2177467
62	0x3e19aed2	0.15008095
63	0xbe2b6b05	-0.16740043
64	0x3d8fa34c	0.07013568
65	0x3e0d4bbb	0.1379842
66	0xbe757761	-0.2397132
67	0xbe469f4c	-0.19396704
68	0x3e2ab0af	0.16668962
69	0x3cea58d3	0.028606808
70	0x3d2cde32	0.04220409
71	0x3bfdfaae	0.0077508306
72	0x3bb47a1c	0.0055077206
73	0x3ec810e7	0.39075395
74	0xbce9e338	-0.02855073
75	0xbeee5456	-0.46548718
76	0x3e296fd9	0.16546573
77	0x3e432f9d	0.19061132
78	0x3f1d0b94	0.6134579
79	0x3e8f489e	0.2798509
80	0xbdadcd80	-0.08486462
81	0xbdf71456	-0.12064426
82	0xbcd2d972	-0.025738452
83	0x3efad9c5	0.4899427
84	0xbe5652ca	-0.20930019
85	0xbed17b1e	-0.40914243
86	0x3e89074c	0.2676338
87	0x3e18fb1c	0.1493954
88	0x3bd431dd	0.0064756707
89	0x3e084d8d	0.13310833
90	0xbe58584a	-0.2112743
91	0xbe8e09f3	-0.27741966
92	0x3c4ae48c	0.012383591
93	0x3d24aed5	0.040205795
94	0xbb855c5b	-0.0040698475
95	0x3f02fd34	0.5116761
96	0xbef080fa	-0.469734
97	0xbe4aca5b	-0.19803755
98	0x3fc0dc3d	1.5067211
99	0xbd372dd7	-0.04472145
100	0x3c169e55	0.009193023
101	0xbd1bed19	-0.03806791
102	0x3cce15c3	0.025156861
103	0xbdd88755	-0.105726875
104	0x3db4d4d3	0.088296555
105	0x3db1a22d	0.08673511
106	0xbe5785a1	-0.21047069
107	0x3e1f9ce4	0.15587193
108	0x3e121eae	0.14269516
109	0x3b2a8f29	0.0026025272
110	0xbce65a36	-0.028119188
111	0x3da8273c	0.08210608
112	0xbe48d3aa	-0.19611993
113	0x3ec35e7c	0.38158023
114	0x3e76e2d3	0.24109964
115	0x3e50c5c8	0.20387948
116	0xbf0b5d73	-0.5443947
117	0x3e276105	0.16345604
118	0xbe5aba46	-0.2136012
119	0xbd2c03e3	-0.041995894
120	0x3e7e8a0e	0.24857351
121	0xbf1c731d	-0.6111315
122	0x3e5e97aa	0.21737543
123	0x3e2e6bc2	0.17033294
124	0xbf7ff8f4	-0.9998925
125	0x3e4c4471	0.19947983
126	0x3eaca8a9	0.33722427
127	0xbe033da8	-0.12816489
128	0x3e640789	0.222685
129	0x3fa7d66c	1.3112311
130	0xbe9dc27c	-0.30812442
131	0xbfbaf769	-1.4606754
132	0x40f9e1ce	7.808814
133	0xc0aec49b	-5.4614997
134	0x410f079f	8.939361
135	0x410a7db4	8.655689
136	0x41307577	11.028678
137	0xc13c580f	-11.771499
138	0xc0a2cf34	-5.0877934
139	0xc13e5611	-11.896012
140	0xc04ecffa	-3.231444
141	0xc03d8b69	-2.961634
142	0xc024b960	-2.5738144
143	0x3f584971	0.8448706
144	0xc02b7f8d	-2.67966
145	0xc024cfec	-2.5751905
146	0x402ab0ec	2.6670485
147	0x40202892	2.5024762
148	0x4044228c	3.0646086
149	0x3e089357	0.13337456
150	0x401df148	2.4678516
151	0xbfa534f6	-1.2906787
152	0x40c6f96f	6.2179484
153	0xc110d571	-9.05211
154	0xc13ac390	-11.672745
155	0x4115b8fd	9.357663
156	0x412412fa	10.254633
157	0xc0caee7a	-6.341611
158	0xc0fabdc1	-7.8356633
159	0x411c229a	9.758448
160	0xc0a708b0	-5.2198105
161	0xc038ef32	-2.8895993
162	0x3e730da8	0.23735678
163	0xbfacfb64	-1.3514218
164	0xc05c4ad1	-3.4420664
165	0xc003b40c	-2.0578642
166	0xbf240797	-0.6407408
167	0x4035c6c6	2.8402572
168	0x40a4c014	5.148447
169	0x3f39bf99	0.7255798
170	0x4062d74f	3.5443914
171	0x3edc609c	0.43042457
172	0xc09faf36	-4.990138
173	0x414681cf	12.406692
174	0x4134e267	11.305274
175	0xc1071a4f	-8.443923
176	0xc117b547	-9.481757
177	0x4060528c	3.5050383
178	0x4110d177	9.051139
179	0xc12ccb1a	-10.799585
180	0xbf400fcd	-0.7502411
181	0xbcdc8187	-0.026917232
182	0xbf71ba93	-0.94425315
183	0x3f3445da	0.70419085
184	0x3e35e5c5	0.17763431
185	0xbf7f2520	-0.99666023
186	0xbf48a54e	-0.78377235
187	0xbe726516	-0.23671374
188	0x3f925368	1.1431704
189	0x3fade16b	1.3584417
190	0x3eedfbea	0.46481258
191	0xbfa8bc47	-1.3182458
192	0xc1833a43	-16.403448
193	0x4164d687	14.302375
194	0xc1394eb5	-11.581716
195	0x416be5fe	14.74365
196	0xbfebb715	-1.8415247
197	0x40e347d0	7.102516
198	0xc053dbb2	-3.3102841
199	0x404192cd	3.024585
200	0x3e48cb57	0.19608818
201	0x3d041379	0.032245133
202	0x3cd3ea70	0.025868624
203	0xbddfa7c2	-0.10920669
204	0x3e4a804a	0.19775501
205	0xbd2b0de8	-0.04176131
206	0x3e0bf768	0.13668597
207	0xbc80eaf1	-0.015737029
208	0xbe296bb8	-0.16544998
209	0xbdfdcf10	-0.1239301
210	0xbe1d5b80	-0.15366936
211	0xbcdd1329	-0.026986675
212	0xbf057e76	-0.5214609
213	0x3f1ba4c1	0.6079827
214	0xbd93a79c	-0.07209703
215	0x3df2666f	0.11835944
216	0xbf4f0f34	-0.80882573
217	0x3e9c71da	0.30555612
218	0xbee9d745	-0.4567205
219	0x3dba2756	0.09089534
220	0x3f69897c	0.9122541
221	0xbdbf0c69	-0.09328539
222	0xc0088525	-2.1331265
223	0x3f3ea423	0.744692
224	0x3d832d9a	0.06405182
225	0x3eb54431	0.35403588
226	0x403bf433	2.9367797
227	0x3deb30d8	0.114839256
228	0xc04763b5	-3.1154606
229	0xbe9bcbe5	-0.30428997
230	0xbe879033	-0.26477203
231	0xbf97d59e	-1.1862066
232	0xc08de44e	-4.434119
233	0x40dd7f06	6.921756
234	0xbf856f03	-1.0424503
235	0x403e04e0	2.9690475
236	0xc1b74b22	-22.911686
237	0x419aeeb7	19.36656
238	0xc06995f6	-3.649778
239	0x3ff8bab0	1.9431973
240	0x3d8a093e	0.06740044
241	0xbe0f036c	-0.13966149
242	0x3c9428c2	0.018085841
243	0xbb792d32	-0.0038021323
244	0xbe171bef	-0.1475675
245	0x3eee121f	0.464982
246	0xbe188ed0	-0.14898229
247	0xbdedb8a2	-0.116074815
248	0xbe878fc5	-0.26476875
249	0xbeb594a5	-0.3546497
250	0xbc162b63	-0.009165618
251	0x3e9ab690	0.3021741
252	0xbfc019eb	-1.500791
253	0xbe5df3a2	-0.2167497
254	0x3e5c88db	0.21536581
255	0xbf005a34	-0.5013764

layers.0.bias f4 [64]
0	0xc0344955	-2.8169758
1	0xc13d5943	-11.834292
2	0xbf3001f2	-0.6875297
3	0xbf83c250	-1.0293674
4	0xbfbbf735	-1.4684817
5	0xbf758288	-0.959023
6	0xbf9c2a6c	-1.2200446
7	0xc0c5caad	-6.1809907
8	0xc09c156f	-4.8776164
9	0xbeb8e95c	-0.3611554
10	0xbf6d3602	-0.92660534
11	0xbe318260	-0.1733489
12	0xc00c2d01	-2.1902468
13	0xbf3fbda6	-0.74898756
14	0xc0066464	-2.0998774
15	0xc03d6078	-2.959013
16	0xbf3372f2	-0.7009727
17	0xbf044a17	-0.5167555
18	0xbfa1f021	-1.2651407
19	0xbfa36694	-1.2765679
20	0xbfd5a376	-1.6690509
21	0xc0078698	-2.11759
22	0xbfa8fea9	-1.3202716
23	0xbf844b6c	-1.0335517
24	0xbf86e95d	-1.0539967
25	0xc0cb6ba9	-6.356892
26	0xbfe08ea9	-1.7543536
27	0x3e85cd6c	0.26133287
28	0xbf9c2d38	-1.22013
29	0xbd308907	-0.04309943
30	0xbf8e8efd	-1.1137387
31	0xc0d0d638	-6.5261497
32	0xbf6ff6d7	-0.9373602
33	0xbf9add18	-1.2098722
34	0xbda9866d	-0.08277593
35	0xc0adaa06	-5.427005
36	0xc0a15050	-5.041054
37	0xbf76fa96	-0.96476114
38	0xc008c9c5	-2.137315
39	0xbff859e3	-1.9402431
40	0xbf57c36f	-0.84282583
41	0xbeeba7d1	-0.4602647
42	0xc1023af2	-8.139391
43	0xbf08366a	-0.5320803
44	0xbfd2a74c	-1.6457305
45	0xc0c92e57	-6.2869067
46	0xbfb6eb91	-1.4290639
47	0xbf6d5cb4	-0.9271958
48	0xbe25b34d	-0.16181679
49	0xc0428bb2	-3.0397763
50	0xbface0cc	-1.3506103
51	0xbee978f9	-0.45600107
52	0xbfdb2c51	-1.7122899
53	0xbfb22ab5	-1.3919283
54	0xbe878f3e	-0.26476473
55	0xbf32f543	-0.6990549
56	0xbf0e2190	-0.5551996
57	0xc030bad9	-2.7614043
58	0xbf9811b4	-1.1880403
59	0x3d0b103c	0.03395103
60	0xc020cb08	-2.512392
61	0xbf6eb691	-0.93247324
62	0xbebd104c	-0.36926496
63	0xc00b8463	-2.1799552

layers.1.weight f4 [32, 64]
0	0xc00282cf	-2.039234
1	0x4042ae3a	3.041884
2	0xbda05836	-0.07829325
3	0x3befcc45	0.007318052
4	0x3e089530	0.1333816
5	0xbdee0125	-0.11621312
6	0xbf00be3e	-0.50290287
7	0xc091f01e	-4.560561
8	0x40bb5fc2	5.855439
9	0x3e881443	0.26577958
10	0x3d017b66	0.031611823
11	0x3fd01d9d	1.6259037
12	0xbe1f11ec	-0.1553418
13	0x3d9629d7	0.07332199
14	0x3da62a8f	0.08113586
15	0xbd273372	-0.040820546
16	0x3e049782	0.1294842
17	0xbbbde201	-0.005794764
18	0x3c9bd565	0.019022653
19	0xbd177b7e	-0.036983006
20	0xbc0ba38f	-0.008522882
21	0x3deb9f13	0.115049504
22	0x3e0b90c3	0.13629441
23	0x3d260b7e	0.040538304
24	0x3ced37a5	0.028957197
25	0xbf00ef2e	-0.5036496
26	0xbe3d860d	-0.18508168
27	0xbe8f2bf6	-0.27963227
28	0x3e4905fb	0.19631188
29	0xbf9b3998	-1.2126951
30	0x3f4ceede	0.8005198
31	0x3ffe72da	1.98788
32	0xbd32533a	-0.043536402
33	0x3d94815d	0.072512366
34	0xbf83a005	-1.0283209
35	0xc0bad7ca	-5.8388414
36	0xc040b58b	-3.0110805
37	0xbd0370a9	-0.032089863
38	0x3f50df85	0.81591064
39	0xbd37fa67	-0.044916537
40	0xbe0c3f5b	-0.13696043
41	0x3efd5145	0.49476066
42	0xc0448c7f	-3.0710752
43	0xbe5616fd	-0.20907207
44	0xbe9ebce0	-0.31003475
45	0x40ac30a8	5.3809395
46	0x3e9690b9	0.2940729
47	0xbc2a04d1	-0.010377125
48	0xc088efd8	-4.279278
49	0x3ee73074	0.45154154
50	0x3dc7efe5	0.09762553
51	0xbdecf3cf	-0.1156994
52	0x3dcb4566	0.09925346
53	0x3a9ebcc4	0.00121107
54	0x3c91eb10	0.017812282
55	0xbddefeca	-0.10888441
56	0xbbcee524	-0.006313937
57	0xbfb63488	-1.4234781
58	0x3e12bce4	0.14329869
59	0xc011da6c	-2.2789564
60	0xbe244ec6	-0.16045675
61	0x3e41e8c1	0.18936445
62	0xbffc7b75	-1.9725176
63	0x3c55d1e0	0.013050526
64	0x3d2f4e64	0.04279937
65	0xbe0c46b6	-0.13698849
66	0x3c1af4f0	0.009457812
67	0xbda10540	-0.078623295
68	0x3d7367c4	0.05942513
69	0xbd87eb4b	-0.066366754
70	0xbc3b66e0	-0.0114381015
71	0xbd111d04	-0.035428062
72	0xbda6a3ac	-0.08136687
73	0xbe36f7b2	-0.17867926
74	0xbe3a6bf4	-0.18205243
75	0x3d59f231	0.053209487
76	0xbe1dede0	-0.15422773
77	0x3d45b7f0	0.04827112
78	0x3d74347c	0.059620366
79	0xbc5c6b83	-0.013453367
80	0xbe31c719	-0.17361106
81	0x3ccd22a3	0.02504093
82	0xbde4abb0	-0.11165559
83	0xbe0cdeeb	-0.13756911
84	0xbd84c6e9	-0.064832516
85	0xbcfcbfa5	-0.030853102
86	0x3dfb1b16	0.122610256
87	0x3d1ef10d	0.038804103
88	0xbd1af800	-0.037834167
89	0xbe2a8d9b	-0.1665558
90	0xbdd29f1a	-0.102842525
91	0xbdd6551a	-0.104654506
92	0xbe043284	-0.12909895
93	0xbc21e400	-0.00988102
94	0xbe068543	-0.13136773
95	0xbe4aafd2	-0.19793633
96	0x3c893fe6	0.016754102
97	0xbe2b08ae	-0.1670253
98	0xbe923b71	-0.28560975
99	0xbdc67b7e	-0.09691523
100	0xbe22f225	-0.15912683
101	0x3d6515b8	0.055928916
102	0xbec32c99	-0.38119963
103	0x3d4186eb	0.04724781
104	0xbda1e226	-0.079044625
105	0xbe9af962	-0.3026839
106	0xbd8720ca	-0.06598051
107	0xbeec4116	-0.46143407
108	0xbc786060	-0.015159696
109	0xbe715e17	-0.23571049
110	0xbd917d0d	-0.0710393
111	0x3d82fe09	0.063961096
112	0xbd49b27d	-0.049242485
113	0xbe03f86c	-0.12887734
114	0xbdc36d3e	-0.09542321
115	0xbd05a4e4	-0.032627955
116	0xbc42d5b0	-0.011891767
117	0x3c2e4200	0.010635853
118	0xbd2f0670	-0.04273075
119	0x3d1324b8	0.03592369
120	0xbe19cd9a	-0.15019837
121	0x3c3806d1	0.011232094
122	0xbd7c9465	-0.061664958
123	0xbe205fd9	-0.15661563
124	0xbc8f7f34	-0.01751671
125	0x3d089a8e	0.03335052
126	0xbd870b1c	-0.06593916
127	0xbdc39e9c	-0.09551737
128	0xc0154ae3	-2.3326957
129	0x3fb75cc7	1.4325188
130	0x3e047186	0.12933931
131	0x3e538eb4	0.20659906
132	0xbf57e545	-0.8433421
133	0x3eabc79d	0.3355073
134	0x3e1b36b9	0.15157594
135	0x3f95f673	1.1715835
136	0xbf6f0b18	-0.933763
137	0x40ea4625	7.3210626
138	0x3e2a677a	0.16641036
139	0x3ff14176	1.8848102
140	0x3e51e0d3	0.2049592
141	0xbea4a202	-0.32154852
142	0x3da82b98	0.0821144
143	0x3dd4399c	0.103625506
144	0xbe90a4e3	-0.282508
145	0xbecd27ac	-0.4006933
146	0x3d9e340a	0.077247694
147	0xbf1adf55	-0.6049703
148	0xbf0f8d58	-0.5607505
149	0x3de941a8	0.11389476
150	0xbeba75f5	-0.3641812
151	0xbf008a3a	-0.50210917
152	0xbe6abb33	-0.22922973
153	0xc054d3a6	-3.325418
154	0xbe976d30	-0.2957549
155	0xbe3247e4	-0.17410237
156	0xbd23c4f5	-0.039982755
157	0xbf16c963	-0.5890104
158	0xbfc89d82	-1.5673068
159	0xbf9b0d18	-1.2113371
160	0x3e17554d	0.14778633
161	0xbdb4ef01	-0.08834649
162	0xc0288b3b	-2.633498
163	0xc0b06baa	-5.5131426
164	0x3e1bb356	0.1520513
165	0xbf570b6a	-0.8400179
166	0x3f71114f	0.94167036
167	0x3ec2fdd1	0.38084272
168	0xbec0500c	-0.3756107
169	0xc0374022	-2.8632894
170	0x3fb7913b	1.4341196
171	0x3ebab917	0.36469337
172	0xbebc0153	-0.3671976
173	0x3ff95a6a	1.9480717
174	0xbe8ffa58	-0.28120685
175	0xbd264fd3	-0.04060347
176	0x402559e0	2.5836105
177	0xbd83ece3	-0.06441667
178	0x3e70a9b2	0.23502234
179	0xbea552c2	-0.32289702
180	0x3e71e4b4	0.236224
181	0x3d246a29	0.040140305
182	0xbe1eb72b	-0.1549956
183	0xbf0a6d81	-0.5407334
184	0x3c3cacac	0.011515778
185	0xbfe2a527	-1.770665
186	0xbf31eec6	-0.69504964
187	0x3fd07066	1.6284301
188	0x3f8760df	1.0576438
189	0xbe4b260f	-0.19838737
190	0xbfe864a3	-1.8155712
191	0xbf7d36aa	-0.98911536
192	0x404bd89c	3.1850958
193	0xc00317de	-2.0483317
194	0x3dbae9c2	0.09126617
195	0xbd5e5fde	-0.054290645
196	0x3d8db457	0.06919163
197	0xbe2416e1	-0.16024353
198	0xbf84fa0e	-1.0388811
199	0x40829f79	4.081967
200	0xc02a9d90	-2.6658669
201	0xbf42a5a2	-0.76033986
202	0x3d5eb079	0.054367516
203	0xbff4e671	-1.9132825
204	0x3e170eb5	0.14751704
205	0xbd44bdf7	-0.048032727
206	0x3e2612e5	0.16218145
207	0x3eb39165	0.35071865
208	0xbba16cec	-0.0049263146
209	0x3db0b703	0.08628657
210	0xbeae121c	-0.3399819
211	0xbdd434a4	-0.10361603
212	0x3e5a76be	0.21334359
213	0xbee86758	-0.45391345
214	0x3e18262a	0.14858308
215	0xbc18ea9c	-0.009333279
216	0xbca277ce	-0.019832518
217	0x408f48f6	4.4776564
218	0x3e23734d	0.15961953
219	0xc0253d54	-2.5818682
220	0x3eae7c0f	0.34079024
221	0xbf1621d6	-0.5864538
222	0xbff4c9a5	-1.9124037
223	0xc06f7e79	-3.7420943
224	0xbd8c6cc2	-0.068566814
225	0xbd333141	-0.043748144
226	0xc02460c1	-2.5684054
227	0x40733a10	3.8004189
228	0x3f432984	0.7623522
229	0xbdf2aa34	-0.1184887
230	0xbf06530b	-0.52470464
231	0xbf052337	-0.5200686
232	0xbc857ac9	-0.0162939
233	0x3e889526	0.2667629
234	0xc0073d90	-2.1131325
235	0xbf9753e1	-1.1822473
236	0x3dacde45	0.08440832
237	0xc13d4d5d	-11.8313875
238	0xbe0e736a	-0.13911214
239	0x3df5d5e1	0.12003685
240	0x4062b6f4	3.5424166
241	0x3e167b19	0.14695396
242	0x3e9c6853	0.30548343
243	0xbd968e79	-0.07351393
244	0x3eb5cd89	0.35508373
245	0xbd8ea4d4	-0.06965032
246	0xbd9cde92	-0.076596394
247	0xbd0412d0	-0.032244503
248	0x3cc8b11c	0.024498515
249	0xc0551672	-3.329495
250	0x3d24bc07	0.04021838
251	0xbd9e1770	-0.07719314
252	0x3e5e218f	0.21692489
253	0x3e8433a2	0.25820643
254	0x3f109b0e	0.56486595
255	0x3e9964f9	0.2995985

layers.1.bias f4 [32]
0	0xc113a1ec	-9.227032
1	0xbef5d45e	-0.48013586
2	0xc103cebc	-8.237972
3	0xc18ac6a1	-17.346987
4	0xc1863d3e	-16.779903
5	0xc1e42ea0	-28.522766
6	0xc1b19404	-22.197273
7	0xbf1004f9	-0.5625759
8	0xbfda7386	-1.7066505
9	0xc106eba6	-8.432531
10	0xbfdd6118	-1.7295256
11	0xbff6f236	-1.9292667
12	0xc1c355e9	-24.416948
13	0xc08affb0	-4.343712
14	0x3fd07ebe	1.6288679
15	0xc1897630	-17.182709
16	0xbee83484	-0.45352566
17	0xc0e13eb0	-7.0389023
18	0xbdf98bde	-0.12184881
19	0xbee9e59d	-0.45682994
20	0xc1f42e2c	-30.522545
21	0xc08b5820	-4.3545074
22	0xc05dd713	-3.466252
23	0xc1291568	-10.567726
24	0xbf491f9f	-0.78563875
25	0xc11008bc	-9.002132
26	0xc0a3a11f	-5.113418
27	0xbe6efe78	-0.2333926
28	0xbf02d6ec	-0.51109195
29	0xc02b4688	-2.67618
30	0xc1a7dcd3	-20.982824
31	0xc1c95365	-25.16572

layers.2.weight f4 [16, 32]
0	0x3f0545f0	0.5205984
1	0x3e96b86d	0.2943758
2	0xbeb3ae7c	-0.3509406
3	0x3ee745aa	0.45170337
4	0x3f8f50fc	1.119659
5	0x3ea941ba	0.33057958
6	0x3ec85229	0.39125183
7	0x3ddeaca2	0.10872771
8	0xbe837d8a	-0.25681716
9	0xbe8f79f1	-0.2802272
10	0x3d10166b	0.03517763
11	0x3e1a4b45	0.15067776
12	0x3f45007e	0.76953876
13	0x3e3d5f40	0.18493366
14	0xbe6c07b6	-0.23049816
15	0x3ed87bf3	0.42282066
16	0x3dd16435	0.10224191
17	0x3ee13d8d	0.43992272
18	0xbdc11a3b	-0.09428831
19	0x3caa8819	0.02081685
20	0x3f70e540	0.9409981
21	0xbed0ee02	-0.40806586
22	0xbe2f05dc	-0.17092079
23	0xbe9a31a5	-0.30116
24	0xbe17c4d2	-0.14821175
25	0x3edd71f1	0.43250993
26	0x3c5dd702	0.013540031
27	0x3db716a9	0.08939869
28	0x3e7a433a	0.24439707
29	0x3f2a65b4	0.66561437
30	0x3f012dce	0.5046052
31	0x3f1febc3	0.6246912
32	0x3f29f905	0.663956
33	0x3db58339	0.08862919
34	0xbf3d1a0c	-0.7386787
35	0x3f60b7e6	0.87780607
36	0x3f058673	0.5215828
37	0xbfc6479e	-1.5490606
38	0xbfbf6a22	-1.4954264
39	0x3e71367e	0.23555943
40	0xbe3e3347	-0.18574248
41	0xbf9ababf	-1.208824
42	0xbc84f950	-0.016232163
43	0x3edf2484	0.43582547
44	0x3e4723cc	0.19447249
45	0x3d2674b3	0.040638637
46	0xc0024839	-2.0356581
47	0xbf0960f2	-0.5366355
48	0xbe02be64	-0.12767941
49	0x3f015e70	0.50534725
50	0xbd8493d0	-0.064735055
51	0xbdc2a72e	-0.09504543
52	0x3e470750	0.19436383
53	0xbe32a0e5	-0.17444189
54	0x3e0afe3b	0.13573544
55	0xbff571cb	-1.9175352
56	0x3d5c5971	0.053796235
57	0x3e4585d3	0.19289331
58	0x3e4ae0e9	0.19812359
59	0x3e173497	0.14766155
60	0xbd20820d	-0.039186526
61	0xc0167a46	-2.351213
62	0xbeaad9e9	-0.33369377
63	0xbd52a3e5	-0.051425833
64	0xbb4014bc	-0.0029309234
65	0xbe0fde24	-0.14049584
66	0xbf4dfbcb	-0.8046233
67	0xbdc3a279	-0.095524736
68	0x3e0335ed	0.1281354
69	0xbec1884b	-0.37799296
70	0xbf7e9bb4	-0.99456334
71	0x3d0125ed	0.03153031
72	0x3c3aee02	0.011409285
73	0xbe47404e	-0.19458124
74	0x3d954117	0.072878055
75	0xbe35729f	-0.17719506
76	0xbe0cf845	-0.13766582
77	0xbdd42482	-0.10358526
78	0xbec43b36	-0.38326424
79	0xbee93f19	-0.45555952
80	0xbe2340f2	-0.15942743
81	0xbec1c01f	-0.3784189
82	0x3dc7ce7d	0.097561814
83	0x3d9ae548	0.07563263
84	0x3dfde034	0.12396279
85	0xbe9ed5c0	-0.31022453
86	0xbcdc0495	-0.026857654
87	0xbf84e6a0	-1.0382881
88	0xbe12a8a5	-0.14322145
89	0xbee2ab87	-0.4427149
90	0xbe81766b	-0.25285658
91	0xbdb52ae7	-0.088460736
92	0xbde966f9	-0.113965936
93	0xbf9fb984	-1.247849
94	0xbe071611	-0.13192011
95	0xbed82cd4	-0.422217
96	0xbe3a9e96	-0.18224558
97	0xbbc37039	-0.0059643057
98	0xbe2b6d62	-0.16740945
99	0xbba257d9	-0.00495432
100	0xbe18453e	-0.14870164
101	0xbedfc359	-0.43703726
102	0xbe7a7ce7	-0.24461709
103	0xbc447700	-0.011991262
104	0x3ce5ecb7	0.028066976
105	0xbef9671b	-0.48711476
106	0x3dc08774	0.09400836
107	0x3ca93979	0.020657288
108	0xbdf24ceb	-0.11831077
109	0xbe1df3b6	-0.15425
110	0xbe270721	-0.16311313
111	0xbeaadeb4	-0.33373034
112	0x3db24911	0.087053426
113	0xbe5fc93d	-0.2185411
114	0x3ddd09a5	0.10792855
115	0xbd2c5097	-0.042069044
116	0xbd89f448	-0.06736046
117	0xbea60d36	-0.32431954
118	0x3d0bb38f	0.034106787
119	0xbed39be5	-0.41329876
120	0x3dac362c	0.0840877
121	0xbddae79d	-0.10688708
122	0xbebbb2ba	-0.36659795
123	0x3d7fa3f8	0.062412232
124	0xbde47d0e	-0.11156665
125	0xbf150dab	-0.5822398
126	0xbec2d4ed	-0.38053074
127	0xbeece743	-0.4627019
128	0xbe5271fa	-0.20551291
129	0xbe08a71a	-0.13344994
130	0xbdfee6af	-0.12446343
131	0xbd630aaa	-0.055430092
132	0xbe5d6204	-0.21619421
133	0x3ad4c8d6	0.001623417
134	0xbe52a0ba	-0.20569125
135	0xbe1920a1	-0.14953853
136	0xbe471bbf	-0.19444178
137	0xbe8ef5ef	-0.27922007
138	0xbdff3fab	-0.124633156
139	0xbe05ecc0	-0.13078594
140	0xbe373126	-0.17889842
141	0xbd2ca070	-0.042145193
142	0xbe13b6d1	-0.14425208
143	0xbe350c58	-0.1768049
144	0x3dbd2138	0.092348516
145	0xbeb7f11b	-0.35926136
146	0x3e0cbbf8	0.1374358
147	0x3dbc5af3	0.09197035
148	0xbd3c38da	-0.045952655
149	0x3dbf3c7b	0.093377076
150	0x3da9ab51	0.08284629
151	0xbd949735	-0.07255403
152	0xbbea42c9	-0.0071490747
153	0xbe8dbb6d	-0.27682057
154	0x3d94c1e9	0.07263548
155	0xbe057b17	-0.13035236
156	0xbd0ac8a0	-0.033882737
157	0xbf4245dd	-0.7588785
158	0x3c6fa673	0.014627087
159	0xbeb6fbe0	-0.3573904
160	0xbed39abd	-0.41328993
161	0x3da427ec	0.08015427
162	0xbedb35aa	-0.4281438
163	0xbdc23620	-0.0948298
164	0x3d18c6f6	0.03729912
165	0xbe6a4574	-0.22878057
166	0xbf0b32ab	-0.5437419
167	0x3b75f1d3	0.0037528172
168	0xbda59016	-0.08084123
169	0xbe18ba55	-0.1491483
170	0xbde2e8a6	-0.110795304
171	0xbe25fb35	-0.16209109
172	0xbeb515e7	-0.35368273
173	0xbe09b2d4	-0.13447124
174	0xbe5621b1	-0.2091129
175	0xbf148c24	-0.5802634
176	0x3d7e0807	0.062019374
177	0xbf378d91	-0.7170039
178	0x3d0d0dc0	0.03443694
179	0x3d795486	0.060871623
180	0x3cda7440	0.02666676
181	0xbceb6b79	-0.02873777
182	0x3e299865	0.1656204
183	0xbecde3fa	-0.40212995
184	0xbd797dbd	-0.06091093
185	0xbe687e78	-0.22704494
186	0xbd8081d0	-0.0627476
187	0x3d937fe3	0.07202127
188	0x3c18af73	0.009319174
189	0xbf77d5c7	-0.96810573
190	0xbe3f5f6d	-0.18688746
191	0xbf02a6a4	-0.51035523
192	0xbe0ce3e0	-0.13758802
193	0xbccb10f8	-0.024788365
194	0xbe5ae7ce	-0.21377489
195	0xbdabd5d6	-0.08390395
196	0xbdfbe18f	-0.12298881
197	0xbe421233	-0.18952255
198	0xbe6a682b	-0.228913
199	0xbddf6d04	-0.10909465
200	0xbde8a162	-0.11358906
201	0xbe563d1e	-0.20921752
202	0xbd137aa9	-0.03600565
203	0x3e2be92f	0.16788171
204	0xbdb88afc	-0.09010884
205	0x3d80bc46	0.0628591
206	0xbd97cc80	-0.07412052
207	0xbeba4e33	-0.36387786
208	0xbe421b3c	-0.18955702
209	0xbed37ad6	-0.41304654
210	0xbe81fcff	-0.25388333
211	0xbdc0d547	-0.094156794
212	0xbdff58d7	-0.12468117
213	0xbd1054b4	-0.03523703
214	0xbdd5a660	-0.10432124
215	0xbef58fb0	-0.47961187
216	0xbde8072e	-0.113294944
217	0xbe5028eb	-0.20328109
218	0x3dcb4f89	0.099272795
219	0xbe1ac95a	-0.15115872
220	0x3e252995	0.16129144
221	0xbe84499a	-0.25837404
222	0xbe4afc92	-0.1982291
223	0xbd0522d4	-0.032503918
224	0xbeaec2f3	-0.3413311
225	0xbe1a5600	-0.15071869
226	0xbf32a306	-0.69780004
227	0xbedc18ad	-0.42987576
228	0xbd5e3d31	-0.054257575
229	0xbe34918b	-0.17633645
230	0xbf0ccffa	-0.5500485
231	0xbcdad567	-0.026713086
232	0x3dd2b244	0.10287908
233	0xbc33799a	-0.010954285
234	0xbdae2c61	-0.08504558
235	0x3c0bde79	0.008536928
236	0xbf6a5808	-0.91540575
237	0xbe3cce17	-0.18437992
238	0xbe7188f3	-0.23587398
239	0xbe975c50	-0.29562616
240	0xbe1f5468	-0.15559542
241	0xbe914982	-0.28376395
242	0xbe75d388	-0.24006474
243	0xbd8a2d00	-0.06746864
244	0xbdfa8caf	-0.122338645
245	0xbee11e33	-0.43968353
246	0xbe3fb16c	-0.18720025
247	0xbe4ed968	-0.20200121
248	0xbde6d617	-0.11271303
249	0xbee73ce6	-0.4516365
250	0xbea878b4	-0.3290459
251	0x3dfaf627	0.12253981
252	0xbe2898c5	-0.16464527
253	0xbf4336fc	-0.76255774
254	0xbef253c3	-0.4732953
255	0xbe1e4fbb	-0.15460102

layers.2.bias f4 [16]
0	0xc195e0a1	-18.734682
1	0xc09de9c9	-4.934788
2	0xbf6eb233	-0.9324066
3	0xbf3f928f	-0.74833006
4	0xbf50b158	-0.81520605
5	0xbf22c486	-0.6358112
6	0xbe02c854	-0.12771732
7	0xbf4a4a06	-0.790192
8	0xbfd83f4b	-1.6894315
9	0x41a371ba	20.43053
10	0xc11dff91	-9.874894
11	0xbf5e4d66	-0.8683685
12	0x3e6287fe	0.2212219
13	0xc017815c	-2.3672705
14	0xc06151f1	-3.5206263
15	0xbf9ed2ea	-1.2408116

layers.3.weight f4 [1, 16]
0	0x3eab6cd3	0.33481464
1	0xbf2228a3	-0.63343257
2	0x3e868fba	0.2628153
3	0xbe648fae	-0.22320434
4	0x3e81a148	0.2531836
5	0xbc2e0c81	-0.010623098
6	0x3d41f8df	0.047356483
7	0xbce8ce45	-0.02841867
8	0xbdedf3f6	-0.116187975
9	0xbe70ec34	-0.23527604
10	0x3cde86c7	0.027163876
11	0xbe04b15d	-0.12958284
12	0xbf0d8d4c	-0.55293727
13	0xbe37096a	-0.17874685
14	0x3e4993f9	0.19685353
15	0x3dd49851	0.103806145
