python/networks/testNE1_multi_point.pth (torch, 74592 bytes, 9 tensors)

layers.0.weight f4 [128, 48]
00000000: 4582 c2bd 033a f33d b816 21bd 00ef 7a3b
00000010: f266 103d cac7 a73d f2f4 0abe d4a7 a2bd
00000020: f8f6 92bc 6a8f 5cbc 09ae b33d 33a3 b6bd
00000030: a7ad 2cbd 5515 8bbc f785 15be d476 d33d
00000040: 6aeb df3d 93d0 90bd be90 b4bc 7e40 aa3a
00000050: ca0f b6bd c4ab b2bd 8e37 f93d 2da8 9abc
00000060: 08af 84bd 0857 d83d 24c8 d23d 4ded 763d
00000070: b41a 243d 8782 ae3d d29e 9d3c 3fae 283e
00000080: b630 e9bc 8b2b 6f3d 8393 053e 4547 ac3d
00000090: 892d 83be 6bef 4a3e 2df2 e6bd 7dbc b73e
000000a0: be03 babc c69c 983e 5262 05bf 0347 63be
000000b0: 831d e63e 5849 10be ea6a 293f 8240 f1be
000000c0: ce29 b23d 2e75 d23d 6fbd 503e 3e03 173d
000000d0: 9245 acbd e157 ecbd d830 0dbe cc9d bf3d
000000e0: 7ae7 353e e09d 5ebd 456b ee3d 9917 043e
000000f0: 5b3b e4bc 5a93 90bd 244a 1f3e d2c3 7e3d
00000100: d356 113e 5b5a a2bd f8a2 16be c3de a33d
00000110: ec4c 763d 718c 8b3c 6c0c b13c 73cf c0bd
00000120: 1a91 babd 3fae 763d 9e28 09be 6ea7 273e
00000130: 6ad4 18be f307 49bd c7da 57bc 26bf 923d
00000140: f53b 9ebd 9943 fd3b f519 fcbd dbe1 25be
00000150: 3684 b43e ff46 1ebe d137 05bd e407 17be
00000160: 858a e93d ea72 19be e909 9dbd fc5d c13d
00000170: ee2c 98bd dcbc cfbd 4304 6ebe 5715 b43e
00000180: 86bf 1fbe 7d68 7fbd 34fa 103e d65e c13d
00000190: 99f5 c73c 4fb4 0dbd 2254 7f3d f952 9e3d
000001a0: 3521 c2bd 1f76 d33d 80aa 2bbe e402 fa3d
000001b0: 7074 71b9 e0a6 81bd cdba c7bd fc7e e8bd
000001c0: 6b4a 5e3d a58a 0b3d 18c6 86bc f27c b1bd
000001d0: 1e20 e63b 92f2 053d 4662 a8bd 097a a43d
000001e0: 1c45 abbc 31cf 68bc 4113 e6bc 0760 acbd
000001f0: d67c fdbd c783 1cbe ce78 7f3d e04f 86bb
00000200: 7d20 47bd 6643 fdbd 1653 c2ba 82e2 343b
00000210: 9497 0abf 17af e5be 9dce 69be 09d5 5cbe
00000220: 92b3 0c3f c6d1 15be 13e8 cc3e f1cc bcbe
00000230: f8b4 d23c dc08 db3e 5c62 0a3e 9006 de3e
00000240: da83 f23c 9de4 c03c 547d d2bd 845b 5c3d
00000250: c670 08bd 8943 763c 29ee 383e 4719 b03c
00000260: 828f 25be aad2 03be 5470 923c e5a1 b2bd
00000270: 5f89 05be d0c2 0cbd fc7d 033e aa7d 393c
00000280: 35d7 023b 4dc0 00bd 77ab a13d ccd4 9abd
00000290: 933d 45bd f8b6 bc3d 3e9f d0bd 7a32 1f3d
000002a0: 40fb f6bc d7d3 9a3d e695 64bd 58ee fb3c
000002b0: 2c56 dd3d 3db0 d23b d724 943d 87a6 8cbb
000002c0: 5e27 cdbd aa90 67bc 926e 343d 6f9a 81bc
000002d0: d26d 37be e495 3c3f 665c 033e 8b16 fe3e
000002e0: 0e98 1a3d 101c f0be 8d30 ba3d 4620 083e
000002f0: d6a4 72be eaae 12bf d9a8 413e ef1d 38be
00000300: 14ab 0fbc 7b24 83bd 0306 e2bd dcd3 4a3d
00000310: fc82 553c dcba 9fbd 4c7d 3b3d fc87 823c
00000320: a0fd cf3a 26f1 183c 1313 3fba 4592 733d
00000330: 166f 51bd 93bb 0d3e f8b8 87bd 0dbc c43b
00000340: 3125 463d d97a d8bd cf9c 4c3d 63be c53d
00000350: 0c49 6b3d 5159 8d3d 55c4 013e 7dfb e5bd
00000360: 3a59 813d 2ce3 c93c c85f ddbc c55b b9bd
00000370: d616 9c3c 5174 153e 1af2 27bd 8475 6fbb
00000380: 0da2 873d c81b bebd 579a 0f3d 5330 2c3e
00000390: 4295 3bbd 4a42 e0be dd9d bb3c 4cb6 c6be
000003a0: 0e0b f33e ac79 a73e 14de 173f 4891 37bd
000003b0: 8fd7 16bf cab3 0b3e 7d24 a1be aa35 1d3f
000003c0: 58ad d93d 04d4 683d 3b8a 8bbd 7a60 72bc
000003d0: 5321 943d 982c 8abd 6268 36bc 04f9 9bbd
000003e0: b925 a83d 073e 913d 06f8 553d a395 c1bc
000003f0: 37aa 493c 9957 a3bd 85ec cd3d 4270 a1bd
-0.09497503 0.11876299 -0.039328307 0.0038289428 0.035254426 0.081924036 -0.13570002 -0.07942167
-0.01794003 -0.013461927 0.08773429 -0.089178465 -0.042157795 -0.016977945 -0.14601885 0.10325399
0.109335735 -0.070710324 -0.022041675 0.0012989191 -0.0888973 -0.08724168 0.12168799 -0.01887902
-0.06478697 0.10563475 0.1029208 0.0602849 0.04006453 0.0852099 0.01924077 0.1647272
-0.02846561 0.058391135 0.13044553 0.08412031 -0.25620678 0.19817893 -0.1127666 0.35885993
-0.022706863 0.2980711 -0.5210315 -0.22195058 0.4494439 -0.14090478 0.6617876 -0.47119528
0.0869938 0.102762565 0.20384763 0.036868326 -0.08411707 -0.11540199 -0.13788164 0.09356269
0.17764083 -0.05434978 0.11641554 0.12899627 -0.027860334 -0.07059355 0.15555626 0.062198468
0.14193277 -0.0792739 -0.14710605 0.08001473 0.060131952 0.017034741 0.021612369 -0.09414568
-0.09109707 0.060224768 -0.133944 0.16372463 -0.1492478 -0.049079847 -0.013174719 0.07165365
-0.0772628 0.0077290055 -0.123096384 -0.16199438 0.3525712 -0.1545677 -0.032523934 -0.14749104
0.11403374 -0.14985242 -0.07667906 0.09441754 -0.07430445 -0.10143444 -0.23243813 0.3517253
-0.15600404 -0.062355507 0.14157945 0.09441917 0.024409102 -0.034595784 0.062336095 0.077306695
-0.0947899 0.10325264 -0.1676426 0.122075826 -0.00023026927 -0.06330657 -0.09752426 -0.11352345
0.05427019 0.03406777 -0.01645188 -0.086664096 0.0070228716 0.032702036 -0.08221869 0.08031089
-0.020906977 -0.0142095545 -0.028085353 -0.08416753 -0.12377326 -0.15284644 0.062371068 -0.0040988773
-0.048614968 -0.12366371 -0.0014825787 0.002760083 -0.5413754 -0.44860145 -0.22832723 -0.21565641
0.549615 -0.14630803 0.4002081 -0.36875108 0.025721058 0.42780197 0.13514084 0.43364382
0.029603887 0.023546511 -0.10277811 0.053798214 -0.033310674 0.01503075 0.18059601 0.021496428
-0.16168025 -0.1287333 0.017875828 -0.08722285 -0.13040684 -0.034365475 0.12841028 0.011321465
0.00199647 -0.031433392 0.078940324 -0.07560119 -0.048154425 0.09214586 -0.10186623 0.038866498
-0.030149102 0.075599365 -0.055807017 0.0307533 0.108074516 0.0064297006 0.07233589 -0.0042923125
-0.10017274 -0.014133612 0.04405076 -0.01582071 -0.17912987 0.73666215 0.12828216 0.49626574
0.037742667 -0.4689641 0.090912916 0.13293561 -0.23695692 -0.5729815 0.18912067 -0.17980169
-0.008768816 -0.064034425 -0.11036303 0.04951845 0.013031717 -0.077993125 0.04577379 0.015933983
0.0015868433 0.009334838 -0.0007288914 0.059465665 -0.05113133 0.13841085 -0.06627077 0.0060038627
0.048375312 -0.10570306 0.04995423 0.09655454 0.05744271 0.069018014 0.12672551 -0.11229608
0.06315847 0.024644457 -0.027023211 -0.09050707 0.019053858 0.14595152 -0.04100237 -0.003653855
0.066227056 -0.092826426 0.0350593 0.16815309 -0.04579664 -0.43800575 0.022902424 -0.38810956
0.47469372 0.32710016 0.5932324 -0.044816285 -0.58922666 0.13642803 -0.3147315 0.6141001
0.10628766 0.05684282 -0.06813475 -0.01479351 0.072329186 -0.06746787 -0.011133285 -0.07615855
0.0821032 0.07091909 0.052238487 -0.023630923 0.012308649 -0.07975692 0.10054878 -0.078827396

layers.0.bias f4 [128]
00000000: 331e 06bd be36 6bbd 1744 dcbd 390a 91bc
00000010: 1dc1 3ebc ac08 d03a 1726 253d 797b 7bbd
00000020: af60 7dbc a4ff afbc 39aa 06bd 566b d83d
00000030: d9b2 023e 5a1d 4c3d a9b3 33bd 4161 5a3d
00000040: 7c8b d7bc 13bf df3d 0995 333e 8803 9d3d
00000050: 72a0 e53c 49a3 5c3c 34c4 903d d7d0 20bd
00000060: 8e1e e7bb 6028 dc3d de33 893d de9c cebc
00000070: 47ae cabc e959 56bd bd90 bfbc 31de 8b3c
00000080: 0c68 513c d232 e9bc 9824 60bc fe48 ba3d
00000090: 6857 c5bc 5bda cdbc 2d2d 3d3e dd41 7f3b
000000a0: 7e04 edbc 98fe 433d 7c63 4c3e a77f 28be
000000b0: 8344 95bc a3b4 60bb c7d2 b9bc ff49 0d3d
000000c0: dced 093a e231 963b 04f9 f5bc d95a 4db7
000000d0: baf9 dbb9 ca67 cebd 6e30 db3d fa90 08be
000000e0: 68c7 8abd 3f43 0fbc ddef 4abd 3430 72bc
000000f0: a7af fdbc 239c afbe 84c8 b0bd 5b8a 3dbb
00000100: 7db6 ee3a 7999 993c 8300 2cbe 8919 01bc
00000110: 3da8 a8bd 1946 153e 9027 66be 33f7 5fbc
00000120: ecc5 60be fbda 913d e0c7 6cbe efa9 0e3d
00000130: a0f7 02bd 336a 10bd a5fc 803c bbe3 9cbd
00000140: 1633 1d3e ee5c b3bd 04f7 923c 81dd 7abc
00000150: 6cce 09bd db4c 393e 48ee 303d 81fd b7bc
00000160: 8904 85bd 9782 68be 1142 c3bb 0a04 b1bc
00000170: a547 13b9 1787 89bd a54f 3ebe 3039 9bbd
00000180: 29fb 803c 6ff3 bd3b 24f7 fcbc 0d2a 8fbe
00000190: 8b9f 13bd 7796 04bc e5d3 04bd 0851 d4bc
000001a0: 17ba b0bd aff8 f43c 3e51 23bd 2b4d 533d
000001b0: 63a1 49bd 6142 64be 41ca 90be 264f 37bd
000001c0: 2f9c e3bb d942 09b7 e104 883c 3543 cbbb
000001d0: f721 983d 0105 573e 7a46 4e3c 5973 91bd
000001e0: 1fae 013e 9822 fcbd 1be0 05bd 4775 693d
000001f0: 86b0 353c 423e 64bc 64b0 063a 2e7e 8fba
-0.032743644 -0.057425253 -0.107551746 -0.01770507 -0.0116427215 0.0015871725 0.04031953 -0.06139705
-0.015464946 -0.021484204 -0.03287718 0.10567348 0.12763537 0.04983268 -0.04387251 0.053315405
-0.026311629 0.109251164 0.17537321 0.07666689 0.028030608 0.013466665 0.07068673 -0.039261665
-0.007053203 0.107498884 0.06699346 -0.025221284 -0.024741305 -0.05233184 -0.023384446 0.017073723
0.012781154 -0.028466616 -0.0136806 0.090959534 -0.02408953 -0.025128534 0.18474264 0.003894917
-0.028932806 0.04785022 0.19959825 -0.16454946 -0.018221145 -0.0034287355 -0.022683514 0.034494396
0.0005261579 0.004583583 -0.030025966 -1.2240104e-05 -0.00041956996 -0.1007839 0.107025966 -0.13336554
-0.06776315 -0.00874406 -0.049545158 -0.014782 -0.030967547 -0.3429881 -0.08631995 -0.0028921578
0.0018212345 0.01874994 -0.1679707 -0.007879623 -0.08235214 0.14577521 -0.2247603 -0.013669777
-0.21950501 0.07121845 -0.23123121 0.03483003 -0.031974435 -0.03525753 0.01574547 -0.07660624
0.15351519 -0.08757959 0.017940052 -0.0153116 -0.033644125 0.18095724 0.043195993 -0.022459747
-0.06495006 -0.22706066 -0.0059588035 -0.021608371 -0.00014045702 -0.067152195 -0.1858507 -0.07579267
0.015744762 0.005796842 -0.030879565 -0.2796177 -0.036040824 -0.008092514 -0.03242864 -0.025917545
-0.08629244 0.029903738 -0.0398724 0.051587265 -0.049226176 -0.22290947 -0.28279307 -0.044753216
-0.006946109 -8.1814005e-06 0.016603889 -0.00620308 0.07428353 0.20998003 0.012590045 -0.07102079
0.12664078 -0.12311286 -0.032684427 0.05699661 0.01108945 -0.013930859 0.00051379786 -0.0010947639

layers.1.weight f4 [64, 128]
00000000: a2a7 1f3e 619a 443d be57 a6bc ef20 c53e
00000010: 2636 2d3e 7a4f ca3e d61a e13d da62 a33d
00000020: 1798 703e f93f 1cbe 93d3 593e 35ac e83d
00000030: 2ff0 203d 392b a63d 7da7 a13d 2f64 ef3b
00000040: ace6 033d 8205 c73d 5803 0abe 297a c1bd
00000050: 6289 5a3e 2d31 c93c c742 703d 840f 09bd
00000060: bb5e df3e bdfd b93c a716 fd3c 802b e4bd
00000070: dd71 5f3e 2925 3e3c cf67 493b 0d65 96bd
00000080: 5249 c13d 87cb b5bd 05ab 49bc 1714 efbd
00000090: 21c7 793d 96a1 213e 6139 823c 753b 08be
000000a0: 67c3 be3e d123 adbd ea7a 973d 2341 b33d
000000b0: 7f06 b73e e2c2 973c 605b 0ebd 01f4 11bd
000000c0: ad07 873d 7f14 e73e e01a 3d3d d393 6b3e
000000d0: 0b6c 4d3e 2941 473e 8051 5b3d bb60 86bc
000000e0: 3dde 80bd d179 c83e 3eda 8f3c d30e 4b3e
000000f0: 8e9b 983d 1f93 6bbe 6ea8 b13d 8ca4 cdbd
00000100: 2c65 ea3e 70b0 e93c ca4c 6cbd f727 bc3e
00000110: e5e7 ae3d c790 093e 473a 183d 696f 83bd
00000120: 8e86 a1bd 46ec 103e bed0 15be 2b57 5a3d
00000130: 6404 933e 3709 c53d 1342 10bd 0b11 283e
00000140: a5a4 a5bd 8975 933d 5989 7bbd 1f0e 8abb
00000150: e01a 803e ba76 883d 4458 cebd 65ed d63d
00000160: 4fd8 a3bd 191c bdbc 2b59 623e 16e3 92bd
00000170: e2d8 ba3e 235f 9bbc 4d49 9a3c e858 b63c
00000180: df89 023f 340a 083e 9e18 073e 31a2 bdbd
00000190: c75a c2bc d92a 323e f021 9b3c 169d ab3d
000001a0: adc4 9cbd 4fbd b13d 9f0f 7b3c c4db 363d
000001b0: 0539 173d 0e2f 683e 3b82 08be dada f4bd
000001c0: c250 9e3e 1cf7 e83e acf5 1e3e c580 183c
000001d0: cdab b4bc fc53 1f3e 1103 5ebd f7bc f73c
000001e0: fa20 083e efe3 c6bd 8810 973d ec1d 403c
000001f0: 91c2 463d 4e02 b03c 40f0 e23e 035b d23e
00000200: cd7c 693e 275d 8d3c 1fd1 a93c 1f40 653e
00000210: 4767 1b3e 7612 773e a435 74bd 65ed 1d3e
00000220: 7e53 553e 4880 683c 6648 6f3e 6e5f 7d3d
00000230: 3ab6 bb3c 0dcc 1abd 9509 d83d 0222 a63c
00000240: 0f15 15bd 2552 7dbc 2b2b c53c 58a5 08be
00000250: 16c0 243d 78db 713d e2ec 763d b839 fa3d
00000260: 116f ad3e b18b b63c e684 98bd f543 13be
00000270: 4d6e 543e 4e0b 613e 6d14 cdbd c1bd 1dbd
00000280: e178 073e 4549 fbb9 ca48 273e 6e4c 91bd
00000290: 2536 ed3d 3230 e13d b58b 033a 7b6f 2a3d
000002a0: 05e6 7b3e decb 843b 735f 883c 86a9 043d
000002b0: a871 7a3e 2e77 e73d caad 90bd 30ac 7fbd
000002c0: 6621 763c 7c10 563e 9659 353c f57f 903e
000002d0: 36d3 373e 39ec 223e e528 a73d c380 8a3c
000002e0: 4e16 32bd 4014 a53e 7598 7d3d 6c4a 143e
000002f0: 3a92 323d 23fe 55be f73e e03d 8be1 a8bc
00000300: b05a 5c3e 7082 03bd 0f35 863d ac83 ac3e
00000310: 9fa4 143d e984 edbc 7704 9d3d cff9 cf3c
00000320: 7716 913d de84 4dbc 1cb5 d2bd b75e b63d
00000330: 7686 4b3e bf7a 203e ab67 f63d 204a 173e
00000340: e6f5 563d d0a6 af39 b12d 9ebc c44e a0bd
00000350: 7e84 923e 0730 683b 7008 04bd b2dc 8f3e
00000360: 6b08 11bd ca2c e03c bfcf 953e adc3 4a3e
00000370: 34a6 a83e bbd2 bd3d fca2 2dbd de4a b03d
00000380: 0569 873e 8466 d23d 60c9 763e 3361 30bd
00000390: 2ec9 8ebc e39c 443e 3fd1 073e 7997 3a3e
000003a0: e2cd fcbc 62ae fbbd 922b 57bd c7ab 853c
000003b0: e848 5dbd 7bb9 b33d 43a1 a1bd 6678 513d
000003c0: 9ca8 583e 4818 f13e 6aa1 a03d c131 06be
000003d0: bab6 fc3b 21eb 9c3d 9b52 96bd 1ec0 cb3c
000003e0: c908 983b fca2 94bd 7cd0 1b3e 4fc7 b2bc
000003f0: 2677 5dbd 54a1 cdbd 3299 bd3e 6b72 833e
0.1559129 0.04799879 -0.02030551 0.3850169 0.16915187 0.3951376 0.10991447 0.07977839
0.23495518 -0.15258779 0.21272115 0.11360971 0.039291557 0.08113713 0.07893274 0.007305644
0.032202408 0.097178474 -0.13477838 -0.09447128 0.2134147 0.024559582 0.058657434 -0.033462062
0.4362696 0.022704 0.03089459 -0.111411095 0.21820779 0.011605539 0.003073204 -0.07343493
0.09437813 -0.088767104 -0.012308841 -0.11673754 0.06098092 0.15784296 0.015896501 -0.13303931
0.37258455 -0.08454097 0.07396491 0.08752658 0.35747144 0.018525545 -0.03475511 -0.03563309
0.06593261 0.45132825 0.046168208 0.23005609 0.20060746 0.1945845 0.05354452 -0.016403547
-0.062923886 0.3915544 0.01756012 0.19829874 0.07451545 -0.23005341 0.086747035 -0.100411505
0.45780313 0.028526515 -0.05769042 0.3674924 0.08540324 0.13434134 0.037164953 -0.06417734
-0.078869924 0.14152631 -0.1463041 0.053305786 0.28714287 0.09620898 -0.035219263 0.16412751
-0.08088044 0.072001524 -0.06141028 -0.004213109 0.25020504 0.0666327 -0.10075429 0.10494498
-0.08000242 -0.023084687 0.22104327 -0.071722195 0.36493593 -0.018966263 0.01883378 0.02225919
0.50991625 0.13285142 0.13192984 -0.09259451 -0.023724927 0.17399158 0.018937081 0.08379571
-0.076547004 0.08678686 0.015323549 0.04464318 0.036919612 0.226742 -0.13330929 -0.11955805
0.30920988 0.4550103 0.15523404 0.009308045 -0.022054577 0.15559381 -0.054202143 0.030241473
0.1329383 -0.09711444 0.073762 0.011725884 0.048525397 0.021485474 0.4432392 0.4108506
0.22801514 0.017256333 0.0207296 0.22387742 0.15176116 0.24128136 -0.05962147 0.1542259
0.20832631 0.014190741 0.23367462 0.061858587 0.02291404 -0.037792254 0.105487026 0.020279888
-0.036397036 -0.015461479 0.024068436 -0.13344324 0.04022225 0.059047192 0.060284503 0.1221804
0.338738 0.022283407 -0.07447223 -0.14381392 0.20745201 0.21976969 -0.100136615 -0.03851104
0.13229705 -0.0004792904 0.1633636 -0.07094656 0.11582593 0.10995521 0.00050180714 0.041610222
0.24599464 0.004052623 0.016647076 0.032388233 0.24457419 0.113020286 -0.07064398 -0.06242007
0.015022611 0.20904726 0.011068722 0.28222623 0.17951664 0.15910424 0.08162097 0.016907101
-0.043478303 0.32242012 0.061912972 0.14481515 0.043596484 -0.20897727 0.109495096 -0.02061536
0.2151897 -0.032106817 0.06553089 0.33694208 0.036289807 -0.02899404 0.07666867 0.025387673
0.07084363 -0.012543885 -0.1028845 0.08904784 0.19875512 0.15671824 0.12031492 0.1477437
0.0524806 0.00033502886 -0.019308897 -0.07827523 0.2861671 0.0035429017 -0.03223461 0.28098065
-0.03540842 0.027365107 0.2926006 0.19801207 0.32939303 0.09268709 -0.042391762 0.0860803
0.2644731 0.102734596 0.24100256 -0.043061446 -0.017429914 0.19200473 0.13263415 0.18221845
-0.030859891 -0.1228912 -0.052531786 0.016317261 -0.054024607 0.08775612 -0.07892086 0.05114021
0.2115807 0.47088838 0.07843287 -0.13104917 0.0077122124 0.07662035 -0.073399745 0.024871882
0.004639719 -0.07257649 0.15216249 -0.021823553 -0.054068707 -0.100405365 0.3703094 0.2567323

layers.1.bias f4 [64]
00000000: e0d8 9d3c 5b9e 84bd 3fb1 ba3d cf6e c13d
00000010: 6ee4 5cbd 4f34 a93c dfe7 65bd f7be 3c3e
00000020: 789c 253a 6b6e 49bd 891b bc3d 3479 31bc
00000030: 153b f9bd 17f7 27bd b5f1 64bd 678d cbbd
00000040: 3229 a83c 1d34 4ebe 11c3 5f3e f400 63bd
00000050: c426 12be ace3 323a ef0d 5f3d 679c febd
00000060: 43e0 a63d a407 c23c 4ab8 2dbe 39d6 653e
00000070: 8b7f 04be a5db 6e3d 0b70 51be f6e1 92bd
00000080: 5d21 be3b f99f ec3d da2c 763e 9cd5 e9bc
00000090: 3618 34be 539a d73c d04c 76be 5d77 afbd
000000a0: ad59 ea3d 83f7 f9bc d373 97bc 71d8 40be
000000b0: 8c7f b3bd 62b1 4b3e 553b b63d 10d3 203e
000000c0: 34c7 18bd adf6 b63d 208c fa3d 70b0 2e3e
000000d0: 957d 06be a775 cdbc a689 06be 76fb 493e
000000e0: 7356 3abe 8cff 653c d865 59bc c94a 093e
000000f0: cac4 153e bdf5 08be f028 c23d d8b2 95bb
0.019268453 -0.064755164 0.09115838 0.09444963 -0.053928785 0.020654825 -0.056129333 0.18432222
0.0006317566 -0.04917757 0.091849394 -0.01083212 -0.12169472 -0.041007128 -0.055894572 -0.0993908
0.020527456 -0.20137067 0.21851756 -0.05542083 -0.142726 0.0006824087 0.054456647 -0.12432175
0.08148243 0.023685284 -0.16964832 0.22445 -0.12939279 0.058314938 -0.20452897 -0.07172005
0.005802317 0.1155395 0.24040547 -0.02854424 -0.1758736 0.026318705 -0.24052739 -0.085676886
0.114428855 -0.03051353 -0.018487846 -0.18832566 -0.08764562 0.19891885 0.088980354 0.15705514
-0.03729935 0.089337684 0.12233758 0.17059493 -0.13133843 -0.025080515 -0.13138446 0.19724831
-0.1819704 0.014037978 -0.01326891 0.13407435 0.1462585 -0.13374992 0.094804645 -0.004568439

layers.2.weight f4 [32, 64]
00000000: c0a1 da3c 51b4 ce3d 628b 653d 2171 25be
00000010: bdf8 803d cef4 583e f6f9 5fbe cb1d 5f3d
00000020: ce89 a93c 6f7b b23d 01de 383e e1c4 293e
00000030: 5bde a33f 0702 453e b7c3 b63d e2ac fb3c
00000040: 7705 603e c976 913d 3968 85bd 6df9 c2bc
00000050: b230 133e d068 d73d 7ae0 8fbe a148 483d
00000060: 79e3 133e 5987 533e 3285 7d3f 5aca 01be
00000070: 509d 0a3e adaf 64bd 8059 413f 2e2a ef3d
00000080: ce23 303e fa8f 39bd 8838 753d 6fe0 363c
00000090: 671f 473d e91f 2b3e 87f6 bc3e 6f87 473d
000000a0: cae4 9cbe 2288 67be 91fc bd3c 03e5 a73d
000000b0: 0f1d 563a 0db9 b03d 887a 3e3e 9e34 09be
000000c0: 5e18 0dbe 383e 3ebe c314 d7bd d756 9bbe
000000d0: 19b3 32bd 3e6f a23d 5be7 393e a41c d2bd
000000e0: 5c62 a13d 41dc 0fbe 0eee 39be 40c1 bcbd
000000f0: 865d 6d3d 2942 8cbc 5ee6 febd ae42 983d
00000100: ce79 20be 91da 0dbc 6b19 47be 68da 853d
00000110: 21d1 41bd 51de 12be 4b1e 263e b98c e8bc
00000120: ac55 19be cafd d8bd 8471 6ebd 15bb 30bd
00000130: bc48 88bf 0ede 09be c108 993a f0ce 3ebe
00000140: 4947 383c 44d7 3ebd b994 37bd 0d67 1bbe
00000150: 4f8e f93c e492 5bbe a76b 973e 720e 10bd
00000160: 9f1a 39be f762 ffbd acea 87bf 22c8 60bc
00000170: 5c18 81bd dc67 8a3e c1bf 6abf 6617 47be
00000180: bb53 df3c cd22 773d f91a c53c 2c8b 0dbb
00000190: d51c cdba 331f 26be d0d1 85be 9e0e 2cbe
000001a0: d2c4 003e 45b7 b43d e39b 12bc 12f4 27be
000001b0: 4635 1bbe 2c6f ea3d 28da 95bd 1b3a 4c3c
000001c0: b35a a6bc 78d1 7b3e ce4a be3d 025d dd3d
000001d0: c217 d9bd 54ae fc3c c155 bdbc b5e6 123c
000001e0: 059c 643c 8bc9 a4bc 7b87 393e b58f 1c3e
000001f0: c499 b4bc a5a4 2d3d debe 1a3b 4bc4 37be
00000200: c169 063e 5864 533e 3fb6 1b3d bac7 45be
00000210: 8308 0d3e 5377 b9bc 0c15 3fbe 9cff 403e
00000220: 7723 083e eca8 5f3e 5773 d73d 8eb3 223e
00000230: f724 813f 21eb 1d3e 1a98 503e 98ea 593e
00000240: 5d65 12bd 64ed 033e 5e5e 1bbe d26a 9dbd
00000250: 6383 3b3e c67f 2a3e 5c6a 7cbe 8524 c2bb
00000260: 32a1 343e 6dd1 a9bb 0e33 4b3f 39d4 cfbd
00000270: 96a0 a23c cf46 50be 43d5 5b3f 4080 113d
00000280: 9754 563d 9e10 9dbd aaf4 64be 869a cf3c
00000290: c49d 5bbd 0b2e 6d3d c599 f53d ce1f 0d3d
000002a0: dfdd aabe ce9b dcbd 1bde 063e 12e4 4e3d
000002b0: 669f a43d 7e61 d8bd 7ead 343e b93e 02be
000002c0: e6e1 0abe 4366 82be e0e6 94bd 0ff3 82be
000002d0: 8687 ae3c 204d 48bd 8d08 17bc cf8b 1c3d
000002e0: 85c6 9cbc 3fa5 7bbd 9ab6 0dbe bd6e 2fbe
000002f0: d3ee 893d 50a8 793d 7607 9c3c 57af c03d
00000300: 12b0 e7bb 3650 403e c250 f43d 2733 14bd
00000310: 66f0 92bc 4f92 c83d 170b 89bc 206a 5b3d
00000320: c8f9 373e 7915 07bc dcba 073e e0be 203e
00000330: 754b 993f e5b2 063e 1de2 a33d d125 123e
00000340: f403 773d 4cc6 783d c81d 81be a6ed 66bd
00000350: 47e1 523d 6f40 f1bc 61e0 86be 85fc a43d
00000360: 6518 643d 2307 ea3d 051e 623f aac5 5bbe
00000370: a0b5 ea3c c7ce 61be ce08 5c3f 029d 003e
00000380: dcdb 2a3d 19df 60be c46b 85be 7397 953d
00000390: 2a3a 3b3d f3e5 0f3e 857a 803e 5eb4 99bb
000003a0: 9a3c adbe 0fe8 2fbe a0da 183e f36c 943d
000003b0: b576 ad3d b782 e8bc 5e8a f93d a594 18be
000003c0: b543 2abe a6d1 95be a493 6cbe c453 4dbe
000003d0: 7cc8 6e3d 9558 e53d f579 2d3e b8db 06bd
000003e0: 2be1 e63d bcaa d8bb db5e 2dbe 4ebf 1bbd
000003f0: bda7 09be bc63 fc3c 7297 b4bd 78db 2d3c
0.026688457 0.100929864 0.05604113 -0.16156437 0.06297443 0.21187136 -0.21872696 0.054471772
0.020695593 0.08714949 0.18053438 0.1657901 1.2802233 0.19239055 0.089240484 0.030722085
0.21877085 0.071027346 -0.065140195 -0.023800576 0.14374045 0.10518038 -0.2810095 0.04889739
0.14442243 0.206571 0.99031365 -0.12674847 0.13536572 -0.0558316 0.7552719 0.11677967
0.17201158 -0.045303322 0.059868366 0.011161908 0.048613932 0.16711392 0.36906835 0.048713144
-0.30643302 -0.22610524 0.023191722 0.081979774 0.0008167782 0.08629046 0.1860143 -0.13398978
-0.13778827 -0.18578422 -0.10502007 -0.3033969 -0.043627832 0.07931374 0.18154661 -0.10259369
0.07880089 -0.14048864 -0.18157217 -0.09216547 0.05795052 -0.017121391 -0.12446283 0.07434593
-0.15671465 -0.008658067 -0.1944329 0.06535798 -0.04731858 -0.1434262 0.16222493 -0.028387414
-0.14974087 -0.105952814 -0.058213726 -0.043147165 -1.0647197 -0.13463613 0.0011675583 -0.18633628
0.011247464 -0.046592012 -0.044819567 -0.1517603 0.030463366 -0.21442753 0.2957432 -0.035170026
-0.18076561 -0.12470048 -1.0618491 -0.01371959 -0.06303474 0.27032363 -0.91698843 -0.1944252
0.027261605 0.060335923 0.024060713 -0.0021597845 -0.0015648851 -0.16222839 -0.26136637 -0.16802451
0.12575081 0.088240184 -0.008948299 -0.16401699 -0.15157041 0.114469856 -0.07317001 0.012465025
-0.02030692 0.24591625 0.092916116 0.108087555 -0.106002346 0.030844845 -0.02311218 0.008966138
0.013953214 -0.020115634 0.18118088 0.15289195 -0.022045977 0.042393345 0.00236123 -0.17945974
0.1312628 0.20643747 0.0380156 -0.19314471 0.13772778 -0.022639906 -0.18660372 0.18847507
0.13294779 0.21841782 0.10520046 0.15888807 1.0089406 0.15421726 0.20370522 0.21280897
-0.0357412 0.12883526 -0.15172717 -0.0768639 0.18311839 0.16650304 -0.24649948 -0.0059247636
0.17639616 -0.005182436 0.7937478 -0.101479 0.019851964 -0.20339511 0.85872287 0.0355227
0.052326765 -0.07669185 -0.22358957 0.025342237 -0.053617254 0.057905238 0.1199222 0.03445416
-0.333724 -0.10771905 0.13170664 0.050510474 0.08038215 -0.1056547 0.17644307 -0.1271924
-0.13562736 -0.25468644 -0.072705984 -0.25576064 0.021304857 -0.048901677 -0.009218347 0.03821927
-0.01913763 -0.061436888 -0.13839188 -0.17132087 0.06735005 0.06095153 0.019046526 0.094084434
-0.0070705498 0.18780598 0.11929466 -0.036181595 -0.017936897 0.09793531 -0.01672892 0.053568006
0.17966378 -0.008244866 0.13254875 0.15697813 1.1976153 0.1315418 0.08002112 0.14272238
0.060306504 0.060735986 -0.25218034 -0.056378983 0.051484372 -0.02944967 -0.26343063 0.08055977
0.055687327 0.114271425 0.88327056 -0.21462122 0.028651059 -0.22051536 0.85950935 0.12559894
0.04171358 -0.21960105 -0.2605878 0.07304277 0.045709766 0.14052562 0.25093475 -0.004690691
-0.33835298 -0.17178367 0.14927149 0.07247343 0.08469907 -0.028382642 0.121845946 -0.14900453
-0.1662739 -0.29261512 -0.23103195 -0.20051485 0.058296666 0.11198536 0.16941054 -0.032924384
0.11273416 -0.00661215 -0.16930716 -0.03802424 -0.13442893 0.030809276 -0.088179484 0.010611407

layers.2.bias f4 [32]
00000000: b28c 803c 5e5d b5bd ce18 823d 4950 f9bd
00000010: 1668 113d 92ac a53d b377 33bd 9712 3d3d
00000020: 993b f3bd 8c18 d1be 050b 98bd 293d 1d3d
00000030: a9e2 b33d 7820 2c3e 0c24 103c 949b 1bbd
00000040: cfaa 6fbd 8ce7 193e 0b25 07be 963a ddbd
00000050: 7d0e 773c 04e9 c33d 24d7 e33d a449 d93d
00000060: b361 f73c 869e c23d c4e9 423e 27e1 a1bd
00000070: 31af 303d a0f1 3c3e b9b9 e9bb 4225 f93d
0.015692089 -0.08855699 0.06352387 -0.12173516 0.035499655 0.08089556 -0.043815326 0.046160307
-0.11876602 -0.4083904 -0.07423977 0.038388405 0.08783466 0.16809261 0.008797657 -0.037990168
-0.058512505 0.15029734 -0.13197725 -0.1080219 0.015079138 0.095659286 0.11125019 0.10609749
0.030197954 0.09502892 0.19034487 -0.079042725 0.043135826 0.18451548 -0.0071327356 0.121653095

layers.3.weight f4 [16, 32]
00000000: 3e67 9bbe 02d2 903e 0af1 54be 7df9 53be
00000010: 9dcf 953d 7e5d dfbd 6f7b f2bd 405c dc3b
00000020: aabd 883e 2b89 9abf 08e6 5f3e a272 4cbe
00000030: d5b8 f8bd ea08 5f3e 8ce1 e83d d3a4 8bbd
00000040: f73e 3ebd d7f8 bd3b 163f 67be 790d 9e3e
00000050: de8b a83e ea83 52be 5483 983e 5164 373e
00000060: caf1 c13c 7fc1 25be a204 9b3d bb51 4fbe
00000070: 04e7 28bd 969c c8bd b999 95be 09ad 833e
00000080: 40ff 743d 0127 ddbd 3ae8 a3bd 41d9 003e
00000090: 3fd2 7e3c d03e 363e ff5c 923d a586 803e
000000a0: d623 083e cc60 8abf 70f7 1bbe a2ed 15bd
000000b0: aff7 1fbe f6e4 373e 2a46 d03d 7d74 58be
000000c0: 692d 05be e049 0fbd 4a9c 51bc 9f03 013e
000000d0: 1c6c a7bd f966 f7bc 3b59 26bd 60a7 0c3e
000000e0: de71 fc3d 7d84 2e3e 13da 653e 1d83 90bd
000000f0: f780 1a3e cd1a 203e ff69 17be 087a a13e
00000100: 71e3 883e 03f1 92be f339 1a3e a9ac 433d
00000110: cfb5 30be 5237 893e 299f 9d3e 2d8b cf3b
00000120: b0fe 84bd bec2 b93f 3247 e3bd dda3 a83e
00000130: b043 893e 4da6 cbbd 47fb a4bd 2e9d 8cbe
00000140: e0eb 57be 2ac9 ecbd 9146 a63d 5791 18be
00000150: b4ea abbe 4ce6 a13e 0927 d1bc fea1 b0bc
00000160: d80d 31be b90e 903e 7e1f 9d3d 8576 093d
00000170: b7fb b53d f56b a33e b2ae e83d 5b5e 92be
00000180: 75b4 c3bd 7685 923e 10d3 5bbd e60c e3bd
00000190: c1f5 16bd 636b 25be e4b1 70be f5f2 ef3d
000001a0: 2bd9 eb3d 6788 a6bf 23a8 d53d 13a0 1a3d
000001b0: fc43 7bbe c453 313e 3043 943e c8e7 f73d
000001c0: 872a 2a3e 2223 853d 2a7b 14be 51aa e4bc
000001d0: 9a71 4b3e ea7d 92be b7ad 893e 5b94 3c3d
000001e0: b198 853d 34d7 44be 03b5 393e dc78 f5bd
000001f0: ab12 bbbd 6576 66be 86e0 2abe 79ff 683e
00000200: 4466 39be d32e a73e e23d 56be 2e97 77be
00000210: 1b35 583d 1375 8fbe 08aa dabd e568 883e
00000220: 8dc2 6ebc 5367 9cbf 30d5 cb3d 9b4b 19bd
00000230: 2b5c 34be 4c97 6b3e 9ae4 133d 07e7 553e
00000240: b971 d33d a705 a63d fbee 25be 34c1 053e
00000250: 6953 943e 7c06 c3bb cdae 4b3e 04fb 0abc
00000260: 83b8 523d 6138 6abe bf2e 16bd 8779 25bd
00000270: 0541 a0bd cde8 28bd 5ec7 8ebe 1ca1 1b3e
00000280: c075 3c3d 4684 9ebd 9416 943e 2361 bc3e
00000290: 1642 e5bd 25a4 c83d d73c cf3e e7c9 4abf
000002a0: b568 b2be e68b af3f c9d3 a4be 95db ed3d
000002b0: f524 3b3e c467 52bf 95ac 89bd a146 a4be
000002c0: 9e7b c0be a5da 7ebe dd9b 943e 64f6 71be
000002d0: d2c9 84be f03e 3c3e 581e 69be 48d9 61bf
000002e0: d53d abbe 6c7f 3b3e 9208 57bf 8c59 6a3e
000002f0: 6a3a 933d de74 213d 8c37 143e 02f6 0bbf
00000300: 4c04 103e 4dd2 6bbe d519 593e 7afd 183e
00000310: 2f01 aabc 9c77 593e d3d6 263e 3b9d acbe
00000320: 869e 78be d454 9b3f b8c8 3fbe aa83 083e
00000330: 6106 603e 5e2a a4be 0134 c0bc 3535 09be
00000340: 855a 9abe fff5 25be 5162 763e e42e 66be
00000350: 3717 66be d63f 733d 59b7 12be c8ba 36be
00000360: c731 28be e47f 423d 0446 4fbe fd22 503e
00000370: 1b8c 1d3e ada4 323e 445c 993c bef0 8ebe
00000380: 3e84 a93e 4ac5 2fbd f2db 333e 28a1 ca3d
00000390: 96fb 90bd e9b7 8e3e 4ef0 dd3d 9a6c 12be
000003a0: 821f 8dbe 5229 ac3f d8d4 0abe 32fc 0f3e
000003b0: 28f5 243e 2005 76be 1fc8 8fbe df70 92be
000003c0: c1d4 59be 150d f8bd 6ba9 0e3e f09c 4abd
000003d0: 4878 a2be 7796 9b3e 82a0 95be 04fa 66be
000003e0: 7b2e 19be 5449 1f3e cd19 67bd 4922 8e3e
000003f0: 5bd8 733e da92 3c3e f835 553d 9976 ca3c
-0.30352205 0.28285223 -0.20795074 -0.20700641 0.0731499 -0.10906504 -0.11839949 0.0067248642
0.26707202 -1.207311 0.21865094 -0.19965604 -0.12144629 0.21780744 0.11371145 -0.06818547
-0.046446767 0.0057974863 -0.22582659 0.30869654 0.3291921 -0.20558134 0.29787695 0.17909361
0.023674864 -0.16187094 0.07569243 -0.20246021 -0.04123594 -0.097954914 -0.29218844 0.25717953
0.059813738 -0.10798455 -0.08003278 0.12582876 0.015553056 0.17797399 0.07146644 0.25102726
0.1329492 -1.081079 -0.15231109 -0.036603577 -0.15621828 0.17958435 0.10169633 -0.21138187
-0.13005604 -0.034982562 -0.01279361 0.12599038 -0.08174917 -0.030200468 -0.04061244 0.13735723
0.12326406 0.17042728 0.2244647 -0.07056258 0.15088259 0.15635224 -0.14786528 0.31538415
0.26736024 -0.28699502 0.15061168 0.047772083 -0.17256854 0.2680002 0.30785492 0.0063337297
-0.0649389 1.4512556 -0.11097564 0.32937518 0.26809454 -0.09943829 -0.0805574 -0.2746367
-0.21086073 -0.115618065 0.08118928 -0.14899193 -0.33577502 0.31621015 -0.025531309 -0.021561619
-0.17290437 0.28136232 0.07672022 0.033560295 0.088859014 0.31918302 0.113614455 -0.28587613
-0.09555904 0.28617448 -0.05366808 -0.110864446 -0.036855463 -0.16154246 -0.2350536 0.11716262
0.11516031 -1.3010377 0.1043246 0.037750315 -0.24537653 0.1731711 0.2895751 0.12104756
0.16617785 0.06500842 -0.14500108 -0.027913244 0.19867554 -0.2861169 0.26890346 0.04603992
0.06523264 -0.19222718 0.18135457 -0.11985943 -0.0913442 -0.22506101 -0.16687211 0.22753705
-0.18105417 0.32652912 -0.20922044 -0.24178764 0.05278502 -0.28019008 -0.10676962 0.26642528
-0.014572752 -1.2219032 0.09952772 -0.03742562 -0.17613284 0.23006934 0.036106683 0.20888911
0.10324425 0.08106547 -0.16204445 0.13061982 0.28969887 -0.0059517007 0.198909 -0.008482698
0.051445495 -0.2287307 -0.036665674 -0.0403991 -0.078249015 -0.04123764 -0.2788648 0.15198177
0.046010733 -0.07740073 0.28923476 0.3679286 -0.111942455 0.09796933 0.40476105 -0.7921433
-0.3484551 1.3714569 -0.3219283 0.116141476 0.18275817 -0.82189584 -0.067223705 -0.32085136
-0.37594312 -0.24888094 0.29025164 -0.23629147 -0.25935227 0.18383384 -0.22765481 -0.8822217
-0.33445612 0.18310326 -0.8399745 0.22885722 0.07188876 0.039418094 0.14474314 -0.54672253
0.14064139 -0.23029442 0.2120126 0.14940444 -0.020752518 0.21237034 0.16292886 -0.33713707
-0.24279222 1.2135262 -0.18728912 0.13331476 0.21877433 -0.32063574 -0.023462297 -0.13399203
-0.30147186 -0.16207121 0.24060942 -0.22478825 -0.22469793 0.05938705 -0.14327754 -0.17844689
-0.16425239 0.047485247 -0.20241553 0.20325847 0.15385477 0.17445631 0.018720753 -0.27918047
0.33108705 -0.04291276 0.17564371 0.09894019 -0.07079236 0.27874687 0.1083685 -0.1429924
-0.275631 1.345011 -0.13557756 0.14061049 0.16109145 -0.24025393 -0.28082368 -0.2860174
-0.21272565 -0.1211187 0.13931815 -0.049466074 -0.31732392 0.30388233 -0.2922402 -0.22556311
-0.14959137 0.15555316 -0.05642109 0.27760532 0.23813002 0.18415394 0.05205342 0.024714755

layers.3.bias f4 [16]
00000000: f8ca 1f3b cb0b efbc 26b1 8d3e 2854 8bbd
00000010: e0bb 2abe 4833 9bbe 207d bb3d c921 683e
00000020: 1db1 473e 7957 7dbc 28b0 d63d 630c 89be
00000030: 3240 90be 6006 813d 82fd 6fbe 3fc0 6a3e
0.0024382453 -0.029180428 0.27674216 -0.06803161 -0.16673231 -0.30312562 0.09154725 0.22669138
0.19501157 -0.01546275 0.10482818 -0.26767263 -0.28173977 0.06300044 -0.2343655 0.22924899

layers.4.weight f4 [1, 16]
00000000: 1356 7bbe ade8 bdbe 540a 983e a52c c3be
00000010: b2e1 e5be 5bda 373f 7a03 ca3e 4c95 e53e
00000020: ea22 993e d178 883e 36ed bf3e 92aa a6be
00000030: 43df eebe 2cdd babe 8a90 2d3f f205 ac3e
-0.24544553 -0.3709158 0.2969538 -0.3812 -0.44898754 0.7181756 0.39455777 0.44840467
0.2990945 0.26654676 0.37485665 -0.3255201 -0.4665471 -0.36496866 0.67798674 0.33598286
