python/networks/trained_model.pth (torch, 60684 bytes, 9 tensors)

layers.0.weight f4 [128, 23]
0.14693618 -0.19116838 0.034315106 -0.111583985 -0.18727712 0.023192074 0.16341111 -0.13164274
0.025842773 -0.14015074 0.03372666 -0.05711468 0.19912598 0.2510678 -0.18011084 -0.19183977
0.28043154 0.0013126129 0.009911561 0.10761815 -0.18744448 0.061801244 0.009631801 -0.15096267
0.08548777 0.14008896 -0.03422377 0.023615956 0.04344513 0.04070596 0.021015149 0.18754792
-0.040650595 -0.07535761 0.1076487 0.010371714 -0.0025461582 -0.06043447 0.14926888 -0.09438441
0.11977521 0.4791986 -0.12907185 -0.3374469 -0.21785119 -0.41263434 0.17440116 -0.063836396
0.16061921 -0.08243566 0.021995934 0.116555475 0.008420802 -0.17322761 -0.10836564 -0.14210668
-0.08075754 0.07590377 0.031472106 0.038629875 -0.03986673 0.07353847 0.0047086626 0.013777766
-0.14206304 -0.16201177 -0.35081854 -0.18631119 0.27098316 0.1494299 0.13534546 -0.041697845
0.094242774 0.058705725 0.16027896 0.009315228 -0.05417189 0.044933353 0.13111359 -0.034798857
-0.030765573 -0.0044412655 0.08842434 -0.1589283 -0.09632688 0.28522998 -0.060343206 0.03698878
-0.08772641 0.038004674 0.15499549 0.057724614 0.10421097 0.10019355 0.12147786 -0.16719677
-0.04014276 -0.13599777 -0.14428358 0.20574327 -0.06884733 0.029626623 -0.23758902 0.0057115755
-0.011192756 -0.050791696 -0.02959498 0.061697032 0.31393546 0.29731947 0.17085414 -0.1371219
-0.067050286 -0.46780512 0.10091627 -0.15446497 -0.16559038 0.1476118 0.086890295 -0.17530264
0.16276188 -0.20777652 -0.2085172 -0.16323248 -0.07902063 -0.31347114 -0.050836936 0.028422957
-0.10501756 0.07450561 -0.18517697 -0.06389179 -0.039285827 0.092270814 -0.09508903 0.057109665
0.0887081 -0.15571815 -0.06676407 -0.14973463 -0.09399125 -0.19533527 0.14951457 0.10788528
-0.2001888 -0.011590061 0.050452903 0.13999721 0.23224111 0.064085945 -0.037241083 -0.043782014
-0.18492611 0.048175335 0.026520178 -0.12264143 -0.16628546 0.051927783 -0.01713873 0.0054495577
-0.11908817 0.16371699 -0.10646092 0.21656984 0.13459657 0.024918187 0.10223279 -0.019777264
0.066601686 -0.009579171 -0.00534204 0.00062724965 0.0035534606 -0.045358416 -0.01782053 0.05908593
-0.5883996 0.11175584 0.03741866 0.05945445 0.66810775 -0.032108173 -0.122882895 0.24571304
-0.18116252 0.16893204 -0.11588273 -0.16993321 0.11405979 -0.1320399 0.1481064 -0.036238756
0.22727583 -0.061658647 0.038299907 -0.034257893 -0.22236148 0.07831467 -0.14604114 0.23439017
0.21676515 0.019382333 -0.09255352 0.111407176 -0.17612857 0.2071943 -0.17415479 0.21662048
0.100149915 -0.09637087 -0.060630303 -0.20624122 0.0773805 -0.046675067 -0.108942464 -0.11331742
0.23104672 -0.11837927 0.12988278 -0.12902994 0.07954038 -0.05237227 0.123767436 -0.24701089
-0.09172513 0.116799735 -0.06656194 0.2503277 0.13171114 -0.12416944 0.012304606 0.064207576
0.06858586 -0.030823959 0.20546043 0.13680965 -0.16273594 -0.17900619 0.035454497 -0.08072459
0.22563486 -0.18986413 0.13250004 0.13414985 -0.22642474 0.17951185 -0.07971434 -0.08921778
0.17777109 -0.101314805 -0.1134006 0.21519126 0.027945323 0.047402814 -0.14449757 0.14141347
00000000: 7076 163e a5c1 43be ff8d 0c3d 2586 e4bd
00000010: 93c5 3fbe 4efd bd3c 3e55 273e 5bcd 06be
00000020: 39b4 d33c ad83 0fbe f724 0a3d 15f1 69bd
00000030: aee7 4b3e f58b 803e fa6e 38be a571 44be
00000040: b994 8f3e fb0b ac3a 1a64 223c e866 dc3d
00000050: 72f1 3fbe 4d23 7d3d b4ce 1d3c f595 1abe
00000060: 3614 af3d 7b73 0f3e 392e 0cbd 4076 c13c
00000070: 85f3 313d 4bbb 263d f627 ac3c 900c 403e
00000080: 3d81 26bd 1755 9abd ec76 dc3d 1fee 293c
00000090: 72dd 26bb 238a 77bd f1d9 183e 9d4c c1bd
000000a0: b54c f53d 8559 f53e 692b 04be d7c5 acbe
000000b0: 6214 5fbe cf44 d3be 3896 323e a8bc 82bd
000000c0: 5d79 243e 07d4 a8bd d130 b43c a3b4 ee3d
000000d0: 67f7 093c 9462 31be ceee ddbd 6a84 11be
000000e0: 3664 a5bd 7073 9b3d e5e8 003d 5c3a 1e3d
000000f0: 4c4b 23bd 569b 963d 204b 9a3b 24bc 613c
00000100: f978 11be 6ae6 25be 7d9e b3be 5cc8 3ebe
00000110: 4ebe 8a3e 2704 193e 0098 0a3e 5ccb 2abd
00000120: 5b02 c13d 6a75 703d 2b20 243e e69e 183c
00000130: 58e3 5dbd 090c 383d a442 063e 3f89 0ebd
00000140: 1508 fcbc 0988 91bb d217 b53d 1abe 22be
00000150: 0747 c5bd aa09 923e 702a 77bd 8c81 173d
00000160: e7a9 b3bd caaa 1b3d 23b7 1e3e a570 6c3d
00000170: 906c d53d 4732 cd3d 62c9 f83d a135 2bbe
00000180: bc6c 24bd 0043 0bbe 13bf 13be 5dae 523e
00000190: d4ff 8cbd 88b3 f23c 894a 73be 2b28 bb3b
000001a0: d261 37bc f40a 50bd 2c71 f2bc 07b6 7c3d
000001b0: 26bc a03e 423a 983e 63f4 2e3e af69 0cbe
000001c0: a951 89bd 2784 efbe 30ad ce3d 112c 1ebe
000001d0: 8690 29be 8c27 173e 8af3 b13d 8982 33be
000001e0: 0dab 263e 5ec3 54be 8885 55be 6a26 27be
000001f0: 91d5 a1bd 4a7f a0be 643a 50bd 43d7 e83c
00000200: 7213 d7bd 6696 983d 089f 3dbe b3d9 82bd
00000210: 2dea 20bd 7bf8 bc3d 0abe c2bd d3eb 693d
00000220: 98ac b53d 9474 1fbe 9abb 88bd 0954 19be
00000230: 7c7e c0bd f805 48be 591a 193e f5f2 dc3d
00000240: 4bfe 4cbe 3de4 3dbc b4a7 4e3d 6e5b 0f3e
00000250: 9dd0 6d3e 7e3f 833d 1b8a 18bd c554 33bd
00000260: 455d 3dbe 8053 453d d840 d93c 6e2b fbbd
00000270: bc46 2abe 3ab2 543d 8666 8cbc 3492 b23b
00000280: 80e4 f3bd 6da5 273e 2f08 dabd 7cc4 5d3e
00000290: afd3 093e 3a21 cc3c 6d5f d13d ee03 a2bc
000002a0: 7766 883d f5f1 1cbc 480c afbb 036e 243a
000002b0: 2de1 683b bfc9 39bd 5cfc 91bc 1704 723d
000002c0: 5ba1 16bf 3fe0 e43d 4f44 193d 8286 733d
000002d0: 1c09 2b3f dc83 03bd 07aa fbbd 339c 7b3e
000002e0: ab82 39be 85fc 2c3e ed53 edbd f902 2ebe
000002f0: 2e98 e93d 7835 07be 34a9 173e 176f 14bd
00000300: ffba 683e c78d 7cbd 5de0 1c3d 0152 0cbd
00000310: bab2 63be 7163 a03d cf8b 15be fa03 703e
00000320: aff7 5d3e b3c7 9e3c b38c bdbd 7229 e43d
00000330: 0c5b 34be be2a 543e a255 32be c2d1 5d3e
00000340: 661b cd3d 175e c5bd 7b57 78bd e630 53be
00000350: ab79 9e3d 5b2e 3fbd 3a1d dfbd f712 e8bd
00000360: 8397 6c3e d570 f2bd feff 043e 6d20 04be
00000370: 11e6 a23d 4e84 56bd c879 fd3d 6cf0 7cbe
00000380: 63da bbbd b334 ef3d a051 88bd f42a 803e
00000390: 49df 063e 8c4c febd 4299 493c 437f 833d
000003a0: be76 8c3d 8782 fcbc 3864 523e d417 0c3e
000003b0: 40a4 26be 664d 37be bc38 113d ef52 a5bd
000003c0: d30c 673e be6b 42be 17ae 073e 945e 093e
000003d0: e3db 67be f4d1 373e 4641 a3bd d0b7 b6bd
000003e0: a009 363e 237e cfbd 933e e8bd 195b 5c3e
000003f0: 97ed e43c 7429 423d 2cf7 13be b1ce 103e

layers.0.bias f4 [128]
-0.005169508 -0.027537424 0.005190273 -0.11823212 -0.035609815 -0.16299321 0.31623802 0.012713865
0.09280974 0.033324316 -0.0017709879 -0.009221308 -0.041119874 -0.14677338 0.05875059 -0.12931065
-0.10505753 -0.089880146 0.06830147 0.030604588 -0.11342483 0.11892128 -0.15673532 0.14701597
0.04518307 -0.19971463 0.089137584 0.018613465 -0.15251139 -0.06656659 -0.2161331 0.2572097
0.024032962 -0.33124912 0.04843495 -0.095121585 -0.044605266 -0.01864064 -0.13365446 -0.13988401
-0.006954371 0.050537445 0.14849438 0.048851505 -0.17314917 -0.2362902 -0.006716423 0.051069897
0.17887093 -0.11988459 -0.012247993 -0.053316217 -0.029919192 0.02030747 -0.10121562 -0.044656612
-0.18412516 -0.11979155 -0.18377236 0.053125065 -0.006493116 0.07750353 0.072678134 0.044131514
-0.20326988 -0.13554615 0.15398833 -0.06395044 -0.09071345 -0.1365162 -0.06831242 -0.12936468
-0.049424894 0.020949762 -0.13525717 -0.056745123 -0.19382693 -0.008244964 0.18565802 -0.015365834
0.08998265 -0.13506468 0.057909448 0.08470719 -0.004682704 0.11665649 0.08495035 0.11167824
0.11236768 -0.046660364 -0.10591153 -0.046352915 -0.015651306 -0.11015091 -0.1485479 -0.037618585
0.022292212 0.10316993 -0.16511178 0.04375102 -0.07934932 0.12124505 -0.20979543 0.022031689
-0.10546247 -0.07122585 -0.00020084187 -0.02817796 -0.06281869 -0.11592854 0.061158385 -0.027074706
0.07636152 -0.0018144058 -0.06963174 0.046939086 -0.026918178 0.23305523 -0.111925185 0.1465446
-0.023986334 0.009134341 -0.10007943 -0.041740634 -0.020735743 -0.07593584 0.12239259 -0.06041801
00000000: fa64 a9bb 2a96 e1bc 2a13 aa3b af23 f2bd
00000010: 99db 11bd b1e7 26be f3e9 a13e d14d 503c
00000020: 0813 be3d 147f 083d 7e20 e8ba f814 17bc
00000030: 506d 28bd c34b 16be 75a4 703d 036a 04be
00000040: 6728 d7bd 1513 b8bd a4e1 8b3d 79b6 fa3c
00000050: 474b e8bd 008d f33d 397f 20be 5b8b 163e
00000060: e211 393d fe81 4cbe c48d b63d 447b 983c
00000070: f22b 1cbe 1054 88bd ff51 5dbe fdb0 833e
00000080: c6e0 c43c 7c99 a9be ba63 463d 1bcf c2bd
00000090: 03b4 36bd 41b4 98bc b7dc 08be c13d 0fbe
000000a0: 7ee1 e3bb 5a00 4f3d e90e 183e 8418 483d
000000b0: 044e 31be 0ff6 71be 7115 dcbb ab2e 513d
000000c0: f129 373e 0d86 f5bd ceab 48bc 1b62 5abd
000000d0: 1819 f5bc da5b a63c 234a cfbd dae9 36bd
000000e0: 4e8b 3cbe 4655 f5bd d22e 3cbe ab99 593d
000000f0: 34c4 d4bb 2cba 9e3d 46d8 943d 3fc3 343d
00000100: fb25 50be 9ccc 0abe 1eaf 1d3e 73f8 82bd
00000110: f9c7 b9bd e7ca 0bbe 62e7 8bbd 2d78 04be
00000120: c271 4abd d69e ab3c db80 0abe 936d 68bd
00000130: 917a 46be e315 07bc 231d 3e3e fbc0 7bbc
00000140: d348 b83d 654e 0abe 7532 6d3d f77a ad3d
00000150: 5e71 99bb 99e9 ee3d 73fa ad3d 90b7 e43d
00000160: 0721 e63d f01e 3fbd 25e8 d8bd 8edc 3dbd
00000170: 2b37 80bc cd96 e1bd f11c 18be f215 1abd
00000180: 289e b63c c24a d33d 1013 29be 4534 333d
00000190: e581 a2bd 534f f83d 9dd4 56be cd7b b43c
000001a0: b5fc d7bd dcde 91bd 1499 52b9 77d5 e6bc
000001b0: 16a7 80bd f16b edbd 3781 7a3d c6cb ddbc
000001c0: 6e63 9c3d 5bd1 edba 169b 8ebd 3343 403d
000001d0: 8383 dcbc 08a6 6e3e 0839 e5bd ca0f 163e
000001e0: fd7e c4bc 34a8 153c 72f6 ccbd 3af8 2abd
000001f0: 01de a9bc 4084 9bbd f7a8 fa3d e078 77bd

layers.1.weight f4 [64, 128]
-0.016726384 0.05586887 0.0009297557 -0.046390817 -0.03277535 -0.07278546 0.05112055 -0.016698172
-0.04164381 0.028147632 -0.024866933 0.08215719 0.051024992 -0.051115666 0.06588482 0.028774235
0.01614756 -0.083287336 0.030011423 0.04613644 -0.061751146 0.058364872 -0.06608678 0.024315247
-0.00400179 -0.037751608 -0.030124558 0.008919979 0.018863082 -0.06921759 0.048998415 0.0034063763
-0.07988819 -0.050647642 0.001954567 -0.066504516 -0.06353366 -0.035775993 0.07369668 -0.0032721104
0.05782759 -0.03192521 -0.030066645 -0.08871964 0.050354775 0.06144289 0.06053628 -0.004038307
0.08392029 0.024575094 -0.068494685 0.010327909 -0.052509733 0.013151099 -0.075977825 0.061580088
-0.0338048 0.007353426 0.070552744 0.08826112 -0.07005972 0.015371615 0.0933828 0.0055536544
-0.02662654 -0.044347804 0.09321335 -0.07139605 -0.07705364 0.080051534 0.01838367 -0.03520022
-0.00019414611 -0.070236735 0.00052899343 -0.04698476 0.01421685 -0.012991833 -0.072210796 -0.00873979
0.049605247 0.08614286 0.054118637 0.08114028 -0.045734797 0.06946924 -0.05609257 0.09929473
0.0703065 -0.03502212 0.04358905 0.04761778 -0.08220667 0.008911048 -0.022812897 -0.06071021
0.08024243 -0.060538597 -0.005900039 -0.033240326 0.07753111 -0.008312354 -0.003909193 -0.05498724
0.09141647 0.053086974 0.069448404 -0.083420485 -0.0014835575 -0.026241517 0.02144801 -0.049188342
-0.048901185 0.050223976 0.087147206 -0.06314934 0.0017827951 -0.027680345 -0.015707256 0.008883486
0.019660845 0.049950503 0.00512384 0.031709146 0.08519337 -0.06657614 0.08265929 0.05604313
-0.024861876 -0.010522506 -0.05456271 0.07430249 -0.0039064223 -0.018912565 0.08978238 0.0335586
0.010860631 0.021110352 0.0054228446 -0.034702267 0.007802736 -0.01425403 0.07435997 0.08585395
-0.0755612 0.08710101 -0.07686504 0.047615763 -0.08178621 -0.013023302 0.022585262 0.0022824025
0.04298667 -0.08167935 -0.04004467 -0.04415281 -0.013326158 0.061280362 -0.025321025 0.019566448
0.07305669 -0.06418138 0.031096293 -0.011344456 0.054281488 0.04780587 -0.019977568 -0.05718076
-0.05925704 -0.019098788 -0.03878896 0.017685443 -0.059973776 0.06513432 -0.022383591 -0.041846678
0.020766307 0.08138772 0.02130626 0.04248436 -0.022481533 0.025775183 0.0708739 -0.04041509
0.06302751 0.03374416 0.0019223471 0.08836784 0.040786404 0.01529444 -0.054079145 -0.0033991123
0.003976046 -0.029468212 -0.05726379 -0.05637334 -0.06567353 -0.07692464 -0.0065826485 0.027765691
0.03126101 0.0642248 -0.05109389 -0.045707233 -0.0016692986 -0.019192062 -0.079452574 0.0035161176
0.012921984 -0.03781431 -0.03975645 0.02480079 -0.00037467733 0.023154475 -0.07856314 -0.017813874
-0.091103084 -0.042267095 -0.021356154 0.07974958 0.023954328 0.02006429 0.056853242 -0.020482581
-0.07839017 -0.040811367 0.03989721 -0.053388618 -0.01385508 0.057211448 -0.08342439 -0.034062654
0.044078223 -0.029133026 -0.008070065 0.030440927 -0.018934363 0.021799725 -0.008375114 -0.05172694
0.09239398 0.01423274 -0.07098362 -0.013642228 -0.055331554 0.01192497 -0.033457596 -0.074565165
0.05259656 -0.050703656 0.007908209 0.01766081 0.06073223 0.08571736 0.038742077 -0.03402351
00000000: c505 89bc c2d6 643d d9ba 733a 4c04 3ebd
00000010: 723f 06bd 8b10 95bd c863 513d 9bca 88bc
00000020: b392 2abd dd95 e63c bdb5 cbbc 0742 a83d
00000030: 95ff 503d a95e 51bd 9fee 863d f2b7 eb3c
00000040: e347 843c 8d92 aabd 84da f53c 90f9 3c3d
00000050: c5ee 7cbd 0110 6f3d 8158 87bd c530 c73c
00000060: 7321 83bb 6ea1 1abd c7c7 f6bc 1b25 123c
00000070: c086 9a3c f4c1 8dbd 90b2 483d 833d 5f3b
00000080: 6b9c a3bd e773 4fbd 3118 003b 8533 88bd
00000090: ef1d 82bd d989 12bd 49ee 963d e770 56bb
000000a0: 9fdc 6c3d 02c4 02bd 534e f6bc a5b2 b5bd
000000b0: cf40 4e3d 8aab 7b3d e4f4 773d c653 84bb
000000c0: 67de ab3d b551 c93c f146 8cbd 6436 293c
000000d0: 7214 57bd b577 573c 439a 9bbd 673b 7c3d
000000e0: e776 0abd 02f5 f03b f57d 903d 3fc2 b43d
000000f0: 787b 8fbd 3ad9 7b3c 7b3f bf3d 6efb b53b
00000100: e71f dabc 0ba6 35bd a4e6 be3d 1838 92bd
00000110: 4cce 9dbd 0ff2 a33d 5a99 963c 1b2e 10bd
00000120: b393 4bb9 47d8 8fbd 26ac 0a3a 1773 40bd
00000130: caed 683c b2db 54bc 41e3 93bd 5631 0fbc
00000140: df2e 4b3d ab6b b03d 81ab 5d3d e02c a63d
00000150: 6954 3bbd e445 8e3d 53c1 65bd 095b cb3d
00000160: dbfc 8f3d 5b73 0fbd 6f8a 323d dc0a 433d
00000170: f85b a8bd a5ff 113c 1de2 babc 45ab 78bd
00000180: 2556 a43d 52f7 77bd 1d55 c1bb 0227 08bd
00000190: a1c8 9e3d 8a30 08bc b018 80bb 4d3a 61bd
000001a0: 8f38 bb3d ba71 593d f73a 8e3d 5cd8 aabd
000001b0: ee73 c2ba 73f8 d6bc bdb3 af3c b779 49bd
000001c0: 9c4c 48bd a8b7 4d3d 3c7a b23d 7154 81bd
000001d0: adac e93a e4c1 e2bc 81ac 80bc 0a8c 113c
000001e0: c80f a13c e698 4c3d e3e5 a73b 73e1 013d
000001f0: dd79 ae3d 1259 88bd 4649 a93d 7b8d 653d
00000200: 22ab cbbc 9766 2cbc 267d 5fbd e72b 983d
00000210: 7201 80bb 86ee 9abc d3df b73d be74 093d
00000220: caf0 313c 9eef ac3c 1eb2 b13b f723 0ebd
00000230: 18ae ff3b bc89 69bc 0a4a 983d 32d4 af3d
00000240: d5bf 9abd 0462 b23d 6b6b 9dbd bf08 433d
00000250: 877f a7bd b05f 55bc ba04 b93c 5c94 153b
00000260: ca12 303d 8147 a7bd e105 24bd 94d9 34bd
00000270: f555 5abc 1e01 7b3d 0a6e cfbc d149 a03c
00000280: bf9e 953d 8771 83bd a7bd fe3c 19de 39bc
00000290: 4456 5e3d 17d0 433d ffa7 a3bc 5f36 6abd
000002a0: 83b7 72bd 1075 9cbc 2ce1 1ebd 10e1 903c
000002b0: 10a7 75bd 2465 853d cb5d b7bc 6c67 2bbd
000002c0: 1a1e aa3c 9bae a63d 778a ae3c 1504 2e3d
000002d0: 312b b8bc 7a26 d33c 5626 913d 4b8a 25bd
000002e0: 9114 813d 5137 0a3d 44f7 fb3a 33fa b43d
000002f0: a50f 273d 8895 7a3c 1882 5dbd a4c3 5ebb
00000300: 7e49 823b 5267 f1bc 708d 6abd bbe7 66bd
00000310: d87f 86bd aa8a 9dbd 42b3 d7bb e074 e33c
00000320: 8b0b 003d 4b88 833d d447 51bd 8237 3bbd
00000330: 5ecc daba ac38 9dbc 08b8 a2bd aa6e 663b
00000340: bbb6 533c 2ee3 1abd a9d7 22bd 072b cb3c
00000350: 5770 c4b9 74ae bd3c b6e5 a0bd 67ee 91bc
00000360: 4194 babd 4320 2dbd 1af3 aebc bf53 a33d
00000370: de3b c43c de5d a43c f2de 683d 16cb a7bc
00000380: 078b a0bd d229 27bd 426b 233d 06ae 5abd
00000390: 6b00 63bc 8d56 6a3d 68da aabd 4885 0bbd
000003a0: 5e8b 343d 62a8 eebc 4e38 04bc 405f f93c
000003b0: 3d1c 9bbc 5695 b23c c637 09bc a1df 53bd
000003c0: 0e39 bd3d 7030 693c dc5f 91bd a783 5fbc
000003d0: 57a3 62bd f360 433c d50a 09bd 9fb5 98bd
000003e0: 7e6f 573d a3ae 4fbd 6f91 013c 67ad 903c
000003f0: 5cc2 783d 958c af3d 03b0 1e3d 3c5c 0bbd

layers.1.bias f4 [64]
0.1471091 -0.008712849 0.0043309247 -0.039768673 -0.06630278 -0.043385796 -0.057556495 -0.20658958
-0.15222785 -0.056884155 -0.07876204 0.027214495 0.25053975 0.008583455 -0.11763282 -0.03407569
0.092214294 -0.22981389 7.42807e-05 0.017482009 -0.052231967 0.1119893 -0.030121796 -0.019737678
-0.04948721 0.038122613 0.00040322324 0.014580905 0.08559832 0.047719125 -0.04205831 -0.04144828
-0.057043765 0.115982816 -0.07275149 -0.17378667 -0.112466425 0.00967422 0.069401555 -0.21224718
-0.042983916 -0.102446504 -0.095840044 0.042386062 -0.467768 -0.13704951 -0.039812785 -0.08909541
0.0005800839 -0.010449994 -0.028744634 0.014252763 -0.04153173 -0.07528521 -0.05463705 0.1522017
-0.161363 -0.080925725 -0.04101887 -0.033722837 -0.2276449 -0.16835245 -0.11057794 -0.083088316
00000000: c5a3 163e 56c0 0ebc 6eea 8d3b 7ae4 22bd
00000010: c0c9 87bd 4eb5 31bd 5cc0 6bbd 388c 53be
00000020: 9ee1 1bbe 5cff 68bd fe4d a1bd eff0 de3c
00000030: bf46 803e 9fa1 0c3c 7ae9 f0bd f392 0bbd
00000040: d9da bc3d 5554 6bbe 26c7 9b38 6e36 8f3c
00000050: 30f1 55bd a55a e53d fcc1 f6bc e9b0 a1bc
00000060: 1ab3 4abd 7526 1c3d b567 d339 c0e4 6e3c
00000070: 2c4e af3d 2175 433d 5645 2cbd acc5 29bd
00000080: b9a6 69bd 6688 ed3d bcfe 94bd 22f5 31be
00000090: cc54 e6bd 9f80 1e3c 6722 8e3d 5357 59be
000000a0: e70f 30bd 79cf d1bd c947 c4bd 029d 2d3d
000000b0: 4a7f efbe b556 0cbe bb12 23bd a877 b6bd
000000c0: c610 183a 7436 2bbc de79 ebbc 6c84 693c
000000d0: 2d1d 2abd 222f 9abd 19cb 5fbd c3da 1b3e
000000e0: 583c 25be 63bc a5bd 6703 28bd f520 0abd
000000f0: bf1b 69be 9664 2cbe b076 e2bd 352a aabd

layers.2.weight f4 [32, 64]
0.12543774 -0.04463104 -0.014642654 0.076511584 0.052815318 0.12451366 0.01472531 -0.031717762
-0.001550901 -0.010338208 0.11614619 -0.058708284 0.076889254 0.003535993 0.07721579 -0.11346007
-0.117118105 -0.11515272 0.120194204 -0.11213445 0.1111918 0.0019592836 0.02226036 0.042558856
0.07481157 -0.07548344 -0.045181617 -0.009529642 0.022419047 -0.035195984 -0.03433238 0.059412986
-0.03977774 0.0014864986 0.05399623 -0.03361552 0.032393195 -0.08765878 -0.039370123 0.01684685
0.05314448 0.10390199 -0.045269717 -0.08489724 -0.100918986 -0.102852106 0.118911356 0.09578742
0.039864067 0.018031463 -0.087980114 0.11824498 0.04999552 0.0095269075 -0.047761064 0.08840334
-0.09805876 -0.04173673 -0.09477243 0.009115272 0.08389119 0.112331375 0.03249252 -0.09278247
0.08575109 0.056285203 -0.046356983 0.09800701 -0.065660074 -0.0044004098 0.08572481 -0.052301116
0.056541048 -0.030638471 0.009278004 -0.122198276 0.11903358 -0.10674357 0.065979965 0.042168975
-0.006925155 -0.06503399 0.07293773 0.045063544 0.02546605 0.021058174 0.10732566 -0.12485683
-0.06246904 -0.032443702 -0.11916494 -0.11321965 -0.027584767 0.06716211 0.0017482007 0.08876739
-0.09367729 -0.053749174 -0.05338721 0.10724434 -0.014952786 -0.014490394 0.06878276 0.0066695306
0.05691716 0.014017465 0.1245365 -0.099790044 -0.032600224 -0.011750384 0.09365173 0.028598227
-0.052347112 -0.10617384 0.0070143444 0.10146173 0.0829456 0.121209435 0.08312546 0.036412958
0.08396883 -0.054683536 -0.055194546 0.044517383 0.01997057 -0.037805155 0.018513525 -0.06550691
-0.051671494 0.06695906 -0.03876308 0.11635649 -0.08542739 -0.08185024 -0.06606067 -0.085318044
-0.061395206 0.0822774 0.07966198 0.11107207 -0.063240595 -0.07457288 0.10206809 0.015551473
-0.10604839 -0.05317963 0.023240162 -0.0396317 -0.039561924 0.12460746 0.10325459 -0.008055941
-0.101408355 0.06374054 -0.08082944 -0.066273324 0.002585772 0.0100524295 -0.0045210947 0.055398338
0.008182644 -0.051886983 -0.07386505 0.069510356 -0.040226668 0.069731265 0.006672538 -0.038011715
-0.09819723 -0.10942956 0.09853437 -0.10454177 -0.08439498 0.097551614 -0.06468984 0.048556607
0.01836222 -0.038442805 -0.11728035 -0.021566935 -0.013825433 -0.104082845 0.016998312 -0.11325492
0.072985575 -0.102157645 -0.042881347 0.115759246 0.034509446 0.09472157 -0.11385449 0.029387059
0.028075643 -0.048918657 -0.0851503 0.039019432 -0.117811576 0.04037929 -0.10044229 0.28356928
0.15771963 0.17713691 0.038000528 0.061966464 -0.11775817 -0.09696561 0.11813103 0.11432035
0.037607726 0.046878368 -0.112891704 -0.027443258 0.102355346 -0.01957315 0.12215774 0.1449198
-0.01010452 0.06070879 -0.07669738 -0.04856292 -0.016360411 -0.13670994 -0.09568182 0.1380503
-0.07665341 -0.10711747 -0.1004393 0.11855104 0.10444601 0.051238377 0.08327397 0.21815173
-0.017579818 0.08117134 0.052379526 -0.1418735 0.4700312 0.119494624 -0.11519347 -0.041122522
0.18961675 -0.014147134 -0.064245045 0.09604923 -0.10292309 0.05911367 -0.021500707 -0.012786293
0.2763782 -0.1220467 0.012659241 -0.024403008 0.261999 0.28498214 0.12119328 0.2143647
00000000: c072 003e 0acf 36bd bee7 6fbc 1bb2 9c3d
00000010: e054 583d 0501 ff3d 6d42 713c 7cea 01bd
00000020: 9a47 cbba 9661 29bc 0ede ed3d 1978 70bd
00000030: 1d78 9d3d 1ebc 673b 5023 9e3d c15d e8bd
00000040: 9edb efbd 30d5 ebbd 6128 f63d bfa6 e5bd
00000050: 87b8 e33d 5367 003b 5c5b b63c 3252 2e3d
00000060: cf36 993d 1097 9abd 5c10 39bd 3722 1cbc
00000070: 26a8 b73c aa29 10bd 1ca0 0cbd 085b 733d
00000080: fced 22bd 9ed6 c23a 272b 5d3d 6db0 09bd
00000090: baae 043d 7286 b3bd 9142 21bd 6802 8a3c
000000a0: 07ae 593d 91ca d43d bd6c 39bd 9bde adbd
000000b0: 9dae cebd 20a4 d2bd cc87 f33d 322c c43d
000000c0: 8148 233d b8b6 933c eb2e b4bd 6d2a f23d
000000d0: 1ac8 4c3d bf16 1c3c 1ba1 43bd cf0c b53d
000000e0: 08d3 c8bd 22f4 2abd 0c18 c2bd 3958 153c
000000f0: 25cf ab3d fe0d e63d e016 053d bc04 bebd
00000100: 449e af3d 508b 663d d2e0 3dbd e6b7 c83d
00000110: ca78 86bd 5031 90bb 7d90 af3d b239 56bd
00000120: 9697 673d 88fd fabc c502 183c 1743 fabd
00000130: e1c7 f33d 5f9c dabd 8120 873d 60b9 2c3d
00000140: 69ec e2bb 8a30 85bd 6060 953d 8d94 383d
00000150: 2d9e d03c 3182 ac3c 8ecd db3d f0b4 ffbd
00000160: 89df 7fbd b0e3 04bd c00c f4bd b4df e7bd
00000170: 73f9 e1bc 4a8c 893d e223 e53a adcb b53d
00000180: e1d9 bfbd 1828 5cbd 8cac 5abd eca2 db3d
00000190: 88fc 74bc 1e69 6dbc fadd 8c3d 148c da3b
000001a0: f821 693d 82a9 653c fe0c ff3d b95e ccbd
000001b0: d087 05bd af84 40bc 7acc bf3d d446 ea3c
000001c0: ed69 56bd ac71 d9bd 96d8 e53b 2bcb cf3d
000001d0: 62df a93d a73c f83d ae3d aa3d c125 153d
000001e0: daf7 ab3d d8fb 5fbd ad13 62bd dc57 363d
000001f0: 5299 a33c 94d9 1abd ada9 973c 7d28 86bd
00000200: 7da5 53bd d521 893d 09c6 1ebd 504c ee3d
00000210: 8ef4 aebd 19a1 a7bd d14a 87bd 3abb aebd
00000220: 8a79 7bbd 0e81 a83d d225 a33d c179 e33d
00000230: 4984 81bd abb9 98bd 1309 d13d 9bcb 7e3c
00000240: e62f d9bd e2d2 59bd 2762 be3c d954 22bd
00000250: af0b 22bd 3232 ff3d 2477 d33d 11fd 03bc
00000260: 2faf cfbd 668a 823d e889 a5bd 4fba 87bd
00000270: 0e76 293b f2b2 243c b125 94bb 5ee9 623d
00000280: 7f10 063c 7287 54bd 8f46 97bd 725b 8e3d
00000290: b8c4 24bd 44cf 8e3d 4ea5 da3b 2cb2 1bbd
000002a0: a11b c9bd 9b1c e0bd 63cc c93d ff19 d6bd
000002b0: 46d7 acbd 24c9 c73d 1b7c 84bd 4be3 463d
000002c0: 5e6c 963c 3476 1dbd ae30 f0bd 24ad b0bc
000002d0: 1284 62bc 6329 d5bd 0b40 8b3c 32f2 e7bd
000002e0: 7679 953d 0738 d1bd 5aa4 2fbd 2f13 ed3d
000002f0: c759 0d3d 62fd c13d 8b2c e9bd 21bd f03c
00000300: e4fe e53c ee5e 48bd 4863 aebd d7d2 1f3d
00000310: 3247 f1bd c164 253d b0b4 cdbd fe2f 913e
00000320: 4181 213e 6163 353e 71a6 1b3d 8cd0 7d3d
00000330: 322b f1bd e895 c6bd aeee f13d ca20 ea3d
00000340: 8f0a 1a3d 8803 403d c433 e7bd afd0 e0bc
00000350: ae9f d13d df57 a0bc d62d fa3d db65 143e
00000360: 6e8d 25bc c8a9 783d 8413 9dbd eae9 46bd
00000370: 4506 86bc b1fd 0bbe d4f4 c3bd 0f5d 0d3e
00000380: 77fc 9cbd 6760 dbbd 1fb3 cdbd e3ca f23d
00000390: cae7 d53d 55df 513d 8b8b aa3d 2b63 5f3e
000003a0: 8d03 90bc 293d a63d ea8b 563d 4947 11be
000003b0: eea7 f03e 99b9 f43d 8eea ebbd 1770 28bd
000003c0: e52a 423e 61c9 67bc e892 83bd 75b5 c43d
000003d0: 57c9 d2bd 2d21 723d 4022 b0bc 9a7d 51bc
000003e0: 7281 8d3e 9ff3 f9bd b568 4f3c d1e8 c7bc
000003f0: bc24 863e 2ee9 913e 2f34 f83d 6b82 5b3e

layers.2.bias f4 [32]
-0.08778634 -0.091292284 -0.03322621 -0.016826576 -0.09576946 -0.09382235 -0.075203694 -0.05730785
0.12065516 0.1405365 -0.093359575 0.0058876 -0.022418218 0.012354445 -0.049355686 -0.109390706
0.010015673 -0.030263733 -0.11326787 -0.12038305 -0.08450768 -0.0020087685 -0.03153191 -0.09208161
0.015723635 0.34532544 -0.09064612 -0.09416135 -0.03253137 -0.06033913 -0.038624417 -0.12060799
00000000: 53c9 b3bd 73f7 babd 3518 08bd e3d7 89bc
00000010: c722 c4bd ef25 c0bd 6504 9abd a3bb 6abd
00000020: 0d1a f73d cde8 0f3e 4e33 bfbd c5ec c03b
00000030: 69a6 b7bc 4c6a 4a3c 3029 4abd 3c08 e0bd
00000040: c718 243c a6eb f7bc fcf8 e7bd 638b f6bd
00000050: 5d12 adbd 8ba5 03bb 9b27 01bd 4895 bcbd
00000060: dace 803c 7fce b03e aca4 b9bd aad7 c0bd
00000070: 9d3f 05bd 2a26 77bd a334 1ebd 5201 f7bd

layers.3.weight f4 [16, 32]
-0.17630732 0.09976285 0.04356168 -0.15626273 0.13158457 -0.16650836 0.053011887 0.15140514
-0.069640785 0.014042777 -0.050277248 -0.033763133 -0.04646577 -0.10907287 0.030958135 0.15354814
-0.080011494 -0.1506732 0.108809695 0.14775938 -0.13959104 -0.12771781 0.1266751 0.05970743
-0.0023070208 0.11104211 0.063768685 -0.06211977 0.10242277 0.0050417976 -0.060253505 0.09951794
-0.10364329 0.05249762 -0.07646569 0.32272387 0.10023919 -0.028226497 0.12203889 0.5171967
0.042978782 0.07303321 0.10634341 0.04763226 -0.116252966 0.4336415 -0.08921204 0.11553842
0.5375829 0.4780176 0.14385007 -0.10186242 0.43127826 -0.057278372 0.31072462 0.5353127
-0.108018816 -0.23925798 0.12948228 0.40363017 0.47533396 -0.021906579 0.20785962 -0.10501686
-0.08141212 -0.09290145 -0.043358043 0.30561104 -0.06108999 0.038691744 0.057578932 0.46557075
-0.13537815 -0.19088353 -0.00035339667 0.25071952 0.1225894 0.44510853 -0.073385425 0.1294624
0.5217233 0.49564862 0.024653398 -0.06077269 0.5031424 0.20955716 0.37033904 0.49421644
0.020224674 -0.1906063 0.0046573007 0.13137136 0.49699405 0.08699274 0.18216546 -0.116456226
-0.13870198 0.1746877 0.15922193 0.15886061 0.1504271 0.01976276 -0.12494721 0.34514517
-0.048743065 -0.13108397 0.012040243 -0.048426315 0.047360566 0.04163638 -0.03570605 0.15761626
0.286368 0.2071116 0.15303086 -0.10815648 0.07466555 0.15443969 0.028338142 0.14662385
-0.116002224 -0.20529138 0.17062087 0.24141906 0.27370754 -0.08206223 0.111045726 -0.1332182
0.15118761 0.006519401 -0.049158167 -0.03147727 0.036531202 0.04368295 -0.12906022 -0.01515274
-0.016208181 -0.0804809 0.009579894 0.12401057 -0.020614423 -0.13756213 -0.16290888 -0.11582272
0.08665017 -0.11728541 0.15551239 -0.03716808 -0.0845211 0.10417601 -0.12648982 -0.12357898
-0.08695788 -0.105075255 0.07184979 0.15171508 -0.072212555 0.011584672 -0.17380348 0.06281726
0.10317926 0.0070566693 -0.10044938 0.70163614 -0.14033863 0.10413199 -0.058707245 0.8641967
-0.16651678 -0.019157115 0.02226795 0.2912928 0.01632293 0.6958016 -0.0455171 0.02997802
0.8415893 0.7726899 -0.076546706 -0.120969236 0.6758308 0.058329467 0.8796461 1.0602763
-0.115629 -0.39573222 0.11809115 0.70041937 0.96834826 0.026624002 0.23268151 -0.009445362
0.10618563 0.11655546 -0.053712886 -0.059185036 0.10162769 -0.05627934 -0.05245333 0.00073073327
0.07452682 0.14352797 0.13435215 -0.14273332 0.1715987 -0.17714447 0.045202795 -0.13240756
0.14531067 -0.14230856 0.045401152 0.15250446 -0.15299904 0.011630988 0.035153765 0.050125457
0.048604097 -0.05611109 0.05494528 0.08690499 -0.14859056 -0.025367696 0.017630026 0.06619171
-0.15857501 -0.10590889 -0.056934763 -0.10756199 0.104371674 0.096307494 0.021413801 -0.008697787
-0.09819427 0.080257095 0.013961375 0.14007634 0.07449171 -0.030143334 -0.007942995 -0.039151136
0.021295166 0.0457741 0.06561537 0.00763821 0.06314712 0.033576265 0.0017841739 -0.0016460514
0.15178359 -0.025665829 -0.17243633 -0.077155724 0.062450454 -0.10976946 0.032345016 -0.0660369
00000000: e889 34be 7750 cc3d bb6d 323d 5603 20be
00000010: 1bbe 063e 2b81 2abe fe22 593d f309 1b3e
00000020: d49f 8ebd ad13 663c 84ef 4dbd 364b 0abd
00000030: e452 3ebd 9961 dfbd ea9b fd3c b93b 1d3e
00000040: 11dd a3bd 134a 1abe 9ed7 de3d 3c4e 173e
00000050: f4f0 0ebe 75c8 02be 1eb7 013e c78f 743d
00000060: 6331 17bb 0c6a e33d 2899 823d 4d71 7ebd
00000070: 07c3 d13d aa35 a53b 61cc 76bd 10d0 cb3d
00000080: ef42 d4bd bf07 573d 0b9a 9cbd 103c a53e
00000090: 344a cd3d 413b e7bc 87ef f93d 0167 043f
000000a0: 850a 303d 7092 953d 93ca d93d 0b1a 433d
000000b0: 0916 eebd 4206 de3e cdb4 b6bd 689f ec3d
000000c0: 089f 093f b9be f43e 6f4d 133e 3f9d d0bd
000000d0: 81d0 dc3e ba9c 6abd 4c17 9f3e 410a 093f
000000e0: f838 ddbd 0b00 75be 0197 043e 9da8 ce3e
000000f0: f95e f33e 6d75 b3bc 27d9 543e 1413 d7bd
00000100: 66bb a6bd 1e43 bebd 3498 31bd 0d79 9c3e
00000110: 7f39 7abd 3c7b 1e3d e3d7 6b3d 4a5f ee3e
00000120: 92a0 0abe f976 43be 1948 b9b9 4f5e 803e
00000130: 2710 fb3d 44e5 e33e 194b 96bd cb91 043e
00000140: a88f 053f a8c5 fd3e ecf5 c93c c9ec 78bd
00000150: f1cd 003f 2796 563e 149d bd3e f009 fd3e
00000160: 37ae a53c 4c2e 43be 459c 983b 3786 063e
00000170: 0176 fe3e 4029 b23d 9589 3a3e 9a80 eebd
00000180: e407 0ebe 55e1 323e 130b 233e 5bac 223e
00000190: 9009 1a3e 83e5 a13c 53e4 ffbd deb6 b03e
000001a0: cfa6 47bd e03a 06be 7044 453c ac5a 46bd
000001b0: 27fd 413d e98a 2a3d 8240 12bd 2866 213e
000001c0: d49e 923e 1015 543e 1fb4 1c3e 2581 ddbd
000001d0: 40ea 983d 7025 1e3e 6425 e83c 9024 163e
000001e0: 9392 edbd e737 52be 3db7 2e3e 8f36 773e
000001f0: 6523 8c3e 3e10 a8bd f16b e33d 5a6a 08be
00000200: edd0 1a3e b3a0 d53b 135a 49bd 4fee 00bd
00000210: bea1 153d e5ec 323d 5d28 04be 3343 78bc
00000220: 05c7 84bc 2cd3 a4bd fdf4 1c3c 41f9 fd3d
00000230: 94df a8bc 16dd 0cbe 96d1 26be 7634 edbd
00000240: a575 b13d 5533 f0bd a43e 1f3e 8f3d 18bd
00000250: 6619 adbd 3b5a d53d 8c86 01be fa16 fdbd
00000260: f916 b2bd b231 d7bd fc25 933d 335b 1b3e
00000270: 2de4 93bd a3cd 3d3c 8af9 31be 56a6 803d
00000280: a64f d33d a23b e73b 68b8 cdbd 6d9e 333f
00000290: eeb4 0fbe 2743 d53d 0277 70bd ff3b 5d3f
000002a0: 6083 2abe 62ef 9cbc 476b b63c 5424 953e
000002b0: aab7 853c 0e20 323f 2370 3abd 7794 f53c
000002c0: 6572 573f 01cf 453f 85c4 9cbd b8be f7bd
000002d0: 3f03 2d3f e1ea 6e3d 7d30 613f 22b7 873f
000002e0: e6ce ecbd 6a9d cabe c6d9 f13d af4e 333f
000002f0: ace5 773f 941a da3c 1044 6e3e b8c0 1abc
00000300: da77 d93d a1b4 ee3d 0b02 5cbd 026c 72bd
00000310: 2e22 d03d 2a85 66bd 4ed9 56bd ae8e 3f3a
00000320: 84a1 983d fff8 123e 9c93 093e af28 12be
00000330: 92b7 2f3e 5c65 35be 9126 393d d995 07be
00000340: 52cc 143e 56b9 11be 8ff6 393d 212a 1c3e
00000350: c8ab 1cbe e68f 3e3c 65fd 0f3d 5a50 4d3d
00000360: 1715 473d bed4 65bd 4d0e 613d 3efb b13d
00000370: 2028 18be eacf cfbc d86c 903c 858f 873d
00000380: 7d61 22be c3e6 d8bd 6d34 69bd 7649 dcbd
00000390: d1c0 d53d dd3c c53d ff6b af3c 2a81 0ebc
000003a0: 141a c9bd d55d a43d 40be 643c 2c70 0f3e
000003b0: 1c8f 983d 27ef f6bc 5623 02bc f15c 20bd
000003c0: 3373 ae3c 9f7d 3b3d 5a61 863d f349 fa3b
000003d0: 4753 813d 4487 093d f1da e93a 52c0 d7ba
000003e0: 286d 1b3e 2541 d2bc 2693 30be d203 9ebd
000003f0: 0ccc 7f3d d0ce e0bd 357c 043d 5b3e 87bd

layers.3.bias f4 [16]
0.034993723 0.067312084 0.11755807 0.12736711 -0.15949671 0.18712607 0.056619484 -0.12684903
0.046079922 -0.08293185 -0.052232955 -0.09215565 -0.052568927 -0.019259222 -0.16935878 0.028366573
00000000: 9455 0f3d ebda 893d 49c2 f03d 866c 023e
00000010: 1b53 23be fa9d 3f3e d5e9 673d b6e4 01be
00000020: 4dbe 3c3d 2cd8 a9bd 39f2 55bd 1abc bcbd
00000030: 8452 57bd 84c5 9dbc 636c 2dbe 0461 e83c

layers.4.weight f4 [1, 16]
-0.048349164 1.402044 1.4098196 0.6283002 -0.0046521723 2.6630912 -0.09648362 -0.221301
0.29953068 -0.20234036 0.07293915 -0.13267213 0.46030232 0.33837754 -0.18014012 0.3671826
00000000: c609 46bd 2e76 b33f f874 b43f 48d8 203f
00000010: 4071 98bb 1670 2a40 3499 c5bd bb9c 62be
00000020: 165c 993e 5032 4fbe 1f61 953d 34db 07be
00000030: bfac eb3e d23f ad3e a776 38be 5cff bb3e
